logs/mnist/023-mnist_fc/epoch=05-loss=0.35.ckpt (torch_old, 269554 bytes, 12 tensors)

exp_avg f4 [28, 784]
0	0x3a00f6d4	0.0004919593
1	0x3a00b60a	0.00049099384
2	0x3a01080b	0.0004922158
3	0x3a00b7e2	0.0004910213
4	0x3a00f82b	0.00049197924
5	0x3a00d41a	0.0004914418
6	0x3a010853	0.00049222
7	0x3a012dc3	0.00049277785
8	0x3a00cecf	0.00049136294
9	0x3a010f3c	0.00049232296
10	0x3a00ffe4	0.0004920943
11	0x3a012c87	0.00049275946
12	0x3a012344	0.00049262145
13	0x3a00e59f	0.0004917029
14	0x3a013245	0.000492845
15	0x3a01025d	0.00049213116
16	0x3a011d25	0.00049253023
17	0x3a00a9ef	0.00049081346
18	0x3a00b7b8	0.0004910189
19	0x3a013934	0.00049294834
20	0x3a00af92	0.00049089745
21	0x3a00fbfc	0.0004920361
22	0x3a012e1b	0.000492783
23	0x3a00e5b3	0.00049170404
24	0x3a00f8ea	0.00049199036
25	0x3a010983	0.0004922377
26	0x3a00ac9f	0.0004908535
27	0x3a012518	0.0004926487
28	0x3a00da74	0.00049153646
29	0x3a00f620	0.0004919488
30	0x3a011b44	0.00049250224
31	0x3a014d5a	0.0004932486
32	0x3a01063e	0.00049218896
33	0x3a00b794	0.0004910168
34	0x3a00d976	0.00049152167
35	0x3a0047cd	0.00048935117
36	0x3a00c67d	0.00049123896
37	0x3a00f9d8	0.0004920042
38	0x3a013dee	0.0004930188
39	0x3a019575	0.00049432303
40	0x3a007e80	0.00049016625
41	0x3a01eab8	0.00049559353
42	0x3a038d7b	0.00050183357
43	0x3a016496	0.0004935948
44	0x3a010d8d	0.00049229787
45	0x3a00c48b	0.00049120997
46	0x3a01247c	0.0004926396
47	0x3a014b38	0.0004932168
48	0x3a013ec9	0.0004930315
49	0x3a010e83	0.0004923122
50	0x3a0135e7	0.00049289915
51	0x3a013d10	0.00049300585
52	0x3a012400	0.0004926324
53	0x3a00c37a	0.0004911941
54	0x3a01264b	0.00049266656
55	0x3a00a4e8	0.00049073854
56	0x3a013c99	0.0004929989
57	0x3a00f6fc	0.0004919616
58	0x3a01379d	0.00049292465
59	0x3a00b8a8	0.00049103284
60	0x3a00ecbc	0.00049180887
61	0x3a013dec	0.00049301866
62	0x3a00af53	0.0004908938
63	0x3a00720e	0.0004899808
64	0x3a003742	0.00048910466
65	0x3a0c6ac5	0.0005356486
66	0x3a32b3ac	0.00068169343
67	0x3a02f16e	0.0004995082
68	0x3a0034fc	0.0004890708
69	0x3a04b475	0.00050622906
70	0x3a0541df	0.0005083363
71	0x39fdf9ee	0.00048442133
72	0x39fc1948	0.00048084022
73	0x3a006a9d	0.0004898699
74	0x39f91dde	0.00047515234
75	0x39f7d9d4	0.00047273806
76	0x39f7f711	0.0004729559
77	0x3a0045c8	0.0004893211
78	0x3a015c84	0.00049347454
79	0x3a00dda1	0.0004915838
80	0x3a00bcd3	0.00049109495
81	0x3a00f833	0.0004919797
82	0x3a013570	0.0004928922
83	0x3a00c3d5	0.0004911994
84	0x3a0103df	0.00049215363
85	0x3a01085b	0.00049222045
86	0x3a00ef03	0.0004918428
87	0x3a009d5d	0.00049062615
88	0x3a00b1f2	0.00049093284
89	0x3a009517	0.00049050286
90	0x3a00852b	0.0004902656
91	0x3a014d80	0.0004932508
92	0x39fcc334	0.00048210623
93	0x3a1666c7	0.0005737361
94	0x3a4bce45	0.0007774572
95	0x3a1221ee	0.0005574514
96	0x39e9c183	0.000445854
97	0x3a02d583	0.0004990922
98	0x3a204d3f	0.0006115026
99	0x3a304505	0.0006724152
100	0x3a3641f2	0.00069525756
101	0x3a12e87f	0.00056041026
102	0x39e4610f	0.00043559863
103	0x39f22e8c	0.00046192517
104	0x39f9a407	0.0004761519
105	0x3a02525b	0.00049713784
106	0x3a01741f	0.0004938263
107	0x3a016b92	0.00049369887
108	0x3a002a43	0.000488911
109	0x3a00f223	0.00049188937
110	0x3a00e2a4	0.00049165846
111	0x3a013295	0.0004928497
112	0x3a00f345	0.00049190625
113	0x3a00d88d	0.0004915081
114	0x3a010e72	0.0004923112
115	0x3a010e6a	0.00049231073
116	0x3a0183f3	0.00049406214
117	0x39f60741	0.0004692618
118	0x39ed6dbd	0.00045285924
119	0x39f86734	0.00047379138
120	0xba4c9574	-0.00078042527
121	0xbb2589ad	-0.0025259063
122	0xbade3083	-0.0016951713
123	0xb99e7b90	-0.0003022817
124	0xb9aba65e	-0.00032739615
125	0xb8d44c22	-0.000101231286
126	0x39fefb35	0.0004863382
127	0x3a5ab282	0.000834264
128	0x3aca1700	0.0015418231
129	0x3af7e538	0.0018912917
130	0x3af1770f	0.0018422323
131	0x3af060af	0.0018339361
132	0x3ac4f2c6	0.0015025965
133	0x3a542864	0.0008093177
134	0x3a11105b	0.0005533748
135	0x3a01f9fe	0.0004958211
136	0x39ff5112	0.00048697792
137	0x3a0016cb	0.0004886209
138	0x3a002b91	0.00048893044
139	0x3a00ba60	0.00049105845
140	0x3a00afb2	0.0004908993
141	0x3a00f580	0.0004919395
142	0x3a00acd0	0.00049085636
143	0x3a00e115	0.00049163523
144	0x39fd0318	0.00048258225
145	0x39f255fe	0.00046221906
146	0x39dc7e5c	0.00042055815
147	0x3a0c1026	0.00053429825
148	0xbaa601e0	-0.0012665354
149	0xbb3e6d30	-0.002905678
150	0xbb55e6e5	-0.0032638845
151	0xbb360e54	-0.0027779536
152	0xbaf5f9c4	-0.0018766453
153	0x3a174357	0.0005770227
154	0x3b229cbf	0.0024812666
155	0x3b305d62	0.002691113
156	0x3ab577e7	0.0013844938
157	0x3af1a966	0.0018437325
158	0x3abd5d35	0.0014447334
159	0x3ad5e79f	0.0016319639
160	0x3ae4011b	0.0017395349
161	0x3a60195f	0.00085487025
162	0xba27333f	-0.00063781807
163	0xb877a388	-5.904169e-05
164	0x39ff369a	0.00048678071
165	0x39fe9283	0.00048555815
166	0x39ff8fe8	0.0004874461
167	0x3a013ded	0.0004930187
168	0x3a00cfaa	0.0004913757
169	0x3a013721	0.00049291743
170	0x3a01badb	0.0004948803
171	0x3a00ac83	0.0004908519
172	0x3a01f41d	0.0004957335
173	0xba17c028	-0.00057888264
174	0xbacafac6	-0.0015486113
175	0xbb00722c	-0.0019599302
176	0xbb4ed381	-0.0031559172
177	0xbb9f09fc	-0.004853485
178	0xbb8516cb	-0.004061555
179	0xbb7c2ba3	-0.0038478158
180	0xbaae62e4	-0.0013304618
181	0xba1f2c80	-0.00060719997
182	0xb8a5ff59	-7.915375e-05
183	0xba632100	-0.000866428
184	0xb8942e22	-7.065783e-05
185	0x3a02afcb	0.00049853016
186	0x372f683f	1.04550845e-05
187	0xb9036bdd	-0.00012533316
188	0x3a244109	0.00062657945
189	0xb9fda707	-0.00048380365
190	0xba90a4b3	-0.0011035412
191	0xba8bd12f	-0.00106672
192	0x39fe165e	0.0004846332
193	0x39fe31e2	0.0004848382
194	0x3a0113cd	0.000492391
195	0x3a00da9a	0.00049153867
196	0x3a00baee	0.0004910667
197	0x3a011d95	0.00049253675
198	0x3a017c33	0.00049394666
199	0x3a045df1	0.0005049399
200	0x39f285c8	0.00046257512
201	0xba9b08d1	-0.0011828189
202	0xbb39a7dc	-0.0028328812
203	0xbb467663	-0.0030282966
204	0xbb9d03a0	-0.004791692
205	0xbbe36a1a	-0.0069401385
206	0xbbb1dca6	-0.0054279147
207	0xbb54d62c	-0.003247629
208	0xbafcda63	-0.0019291159
209	0xbb46505b	-0.0030260298
210	0xbb7be78f	-0.003843758
211	0xbb5a5414	-0.0033314275
212	0x39c4ba72	0.00037522946
213	0x3aac2015	0.001313212
214	0xba10e185	-0.0005526769
215	0xbab53b2c	-0.0013826839
216	0xbad1adc8	-0.0015997225
217	0xbacd50c7	-0.0015664332
218	0xbade2d0c	-0.0016950681
219	0xbabc9aa7	-0.0014389352
220	0x39bb5871	0.00035733313
221	0x3a030fcb	0.0004999607
222	0x3a02285b	0.000496512
223	0x3a00ee43	0.0004918316
224	0x3a00fc05	0.00049203663
225	0x3a00d30c	0.0004914261
226	0x3a03a4f0	0.0005021831
227	0x3a05c529	0.00051029265
228	0x39cc98e7	0.00039023833
229	0x39a3108e	0.00031102117
230	0xba366e25	-0.0006959162
231	0xba1df95d	-0.0006026233
232	0xbb12999d	-0.0022369393
233	0xbbb1586b	-0.0054121516
234	0xbb368f96	-0.002785658
235	0xb9958fdf	-0.00028526687
236	0xba6d586b	-0.0009054008
237	0xbaff0626	-0.0019456788
238	0xbaf1799e	-0.0018423086
239	0xbabfe590	-0.0014640559
240	0x39d4f469	0.0004061789
241	0x3b0645de	0.0020488421
242	0x3a6882a0	0.00088695623
243	0xb8dac719	-0.00010432135
244	0xbb2758ce	-0.002553511
245	0xbb13e0c8	-0.00225644
246	0xbad78475	-0.0016442674
247	0xbabde326	-0.0014487251
248	0x39de0fd6	0.00042354938
249	0x3a046e0a	0.00050517975
250	0x39fee8c8	0.0004862009
251	0x39ffa0b0	0.00048757112
252	0x3a00ed95	0.0004918215
253	0x3a012a31	0.00049272465
254	0x3a00d592	0.0004914637
255	0x3a0033a0	0.0004890505

exp_avg_sq f4 [28, 784]
0	0x3793a459	1.7600296e-05
1	0x3793a453	1.7600285e-05
2	0x3793a463	1.7600314e-05
3	0x3793a451	1.7600281e-05
4	0x3793a45b	1.76003e-05
5	0x3793a45b	1.76003e-05
6	0x3793a464	1.7600316e-05
7	0x3793a467	1.7600321e-05
8	0x3793a459	1.7600296e-05
9	0x3793a468	1.7600323e-05
10	0x3793a461	1.760031e-05
11	0x3793a469	1.7600325e-05
12	0x3793a45e	1.7600305e-05
13	0x3793a43a	1.760024e-05
14	0x3793a437	1.7600234e-05
15	0x3793a457	1.7600292e-05
16	0x3793a465	1.7600318e-05
17	0x3793a43f	1.7600249e-05
18	0x3793a44d	1.7600274e-05
19	0x3793a466	1.760032e-05
20	0x3793a43e	1.7600247e-05
21	0x3793a456	1.760029e-05
22	0x3793a464	1.7600316e-05
23	0x3793a458	1.7600294e-05
24	0x3793a454	1.7600287e-05
25	0x3793a45e	1.7600305e-05
26	0x3793a440	1.760025e-05
27	0x3793a45d	1.7600303e-05
28	0x3793a452	1.7600283e-05
29	0x3793a459	1.7600296e-05
30	0x3793a464	1.7600316e-05
31	0x3793a475	1.7600347e-05
32	0x3793a465	1.7600318e-05
33	0x3793a450	1.760028e-05
34	0x3793256a	1.7541188e-05
35	0x3792fbac	1.752175e-05
36	0x3793a6b8	1.76014e-05
37	0x37939ab1	1.75958e-05
38	0x3793abfc	1.7603852e-05
39	0x3793bf41	1.7612825e-05
40	0x3793b721	1.7609042e-05
41	0x37938e46	1.7590017e-05
42	0x3795f69c	1.787702e-05
43	0x3793a470	1.7600338e-05
44	0x3793a623	1.7601129e-05
45	0x3793a513	1.7600634e-05
46	0x3793a457	1.7600292e-05
47	0x3793a46d	1.7600332e-05
48	0x3793a46f	1.7600336e-05
49	0x3793a461	1.760031e-05
50	0x3793a46c	1.760033e-05
51	0x3793a46c	1.760033e-05
52	0x3793a460	1.7600309e-05
53	0x3793a451	1.7600281e-05
54	0x3793a465	1.7600318e-05
55	0x3793a449	1.7600267e-05
56	0x3793a46c	1.760033e-05
57	0x3793a45c	1.7600301e-05
58	0x3793a468	1.7600323e-05
59	0x3793a034	1.7598366e-05
60	0x3793a09c	1.7598555e-05
61	0x3793a45a	1.7600298e-05
62	0x37936ce7	1.7574477e-05
63	0x3792e6a5	1.7511959e-05
64	0x37938963	1.7587741e-05
65	0x379554ec	1.7801729e-05
66	0x3794accf	1.7723445e-05
67	0x37942555	1.7660359e-05
68	0x3793d4e4	1.76229e-05
69	0x37960189	1.7882108e-05
70	0x3798d6a4	1.8219762e-05
71	0x379300e6	1.7524184e-05
72	0x37abc152	2.047481e-05
73	0x37a93923	2.0172976e-05
74	0x37968664	1.7943974e-05
75	0x379aeae9	1.846762e-05
76	0x379aa96a	1.843712e-05
77	0x379517cd	1.7773267e-05
78	0x37939776	1.7594295e-05
79	0x3793a434	1.7600229e-05
80	0x3793a3ac	1.7599981e-05
81	0x3793a45d	1.7600303e-05
82	0x3793a472	1.7600341e-05
83	0x3793a455	1.7600289e-05
84	0x3793a453	1.7600285e-05
85	0x3793a464	1.7600316e-05
86	0x3793a453	1.7600285e-05
87	0x3793c60e	1.7615992e-05
88	0x37939df5	1.759732e-05
89	0x3793a238	1.7599305e-05
90	0x3794e7bb	1.7750883e-05
91	0x3794fb4c	1.7759994e-05
92	0x379619ec	1.7893464e-05
93	0x3799dfac	1.8343177e-05
94	0x37a2bcbf	1.9399797e-05
95	0x37a7176c	1.9918858e-05
96	0x37dbdfef	2.6211112e-05
97	0x37d09eb5	2.4869436e-05
98	0x37e5fbfa	2.7416263e-05
99	0x380d9e1f	3.376428e-05
100	0x381d26c6	3.7467827e-05
101	0x37ec0e3d	2.8140023e-05
102	0x37c7fed5	2.3841314e-05
103	0x37b631c7	2.171927e-05
104	0x37a0c0ce	1.9163268e-05
105	0x379d7426	1.8769944e-05
106	0x37951de4	1.7776103e-05
107	0x3793acd8	1.7604252e-05
108	0x3793a5cb	1.7600969e-05
109	0x3793a418	1.7600178e-05
110	0x3793a456	1.760029e-05
111	0x3793a461	1.760031e-05
112	0x3793a44f	1.7600278e-05
113	0x3793a453	1.7600285e-05
114	0x3793a462	1.7600312e-05
115	0x3793a3cc	1.760004e-05
116	0x37939de7	1.7597295e-05
117	0x379888db	1.818354e-05
118	0x37a115f4	1.9202918e-05
119	0x37b6a3c9	2.177236e-05
120	0x37e9ab71	2.7855598e-05
121	0x3819dee8	3.668564e-05
122	0x380c2c40	3.3419812e-05
123	0x383aa052	4.4495166e-05
124	0x38905ec2	6.884105e-05
125	0x38a8519a	8.026064e-05
126	0x38b78397	8.7506305e-05
127	0x38bedc07	9.100889e-05
128	0x38ab4b80	8.1679784e-05
129	0x38880ce7	6.4873886e-05
130	0x38760864	5.8658785e-05
131	0x38243332	3.9148326e-05
132	0x37e4cfb3	2.7276436e-05
133	0x37ea99ac	2.7966533e-05
134	0x37bc30a5	2.2433998e-05
135	0x37993dfe	1.8267889e-05
136	0x3793fa67	1.7640368e-05
137	0x37936215	1.7569439e-05
138	0x379347c5	1.7557186e-05
139	0x3793a459	1.7600296e-05
140	0x3793a43f	1.7600249e-05
141	0x3793a459	1.7600296e-05
142	0x3793a444	1.7600258e-05
143	0x37939015	1.7590859e-05
144	0x379693bd	1.795019e-05
145	0x37c02a95	2.2908012e-05
146	0x37fe3201	3.0302444e-05
147	0x382b3a7a	4.0824038e-05
148	0x386653c9	5.4914304e-05
149	0x38bcbc13	8.99957e-05
150	0x38f43eb3	0.00011646505
151	0x3922a006	0.00015509137
152	0x39440769	0.00018694777
153	0x39451f28	0.0001879899
154	0x39461c35	0.0001889326
155	0x3948d7a7	0.00019153823
156	0x3934a15a	0.00017226246
157	0x3906d792	0.00012859542
158	0x38bb6fdc	8.93769e-05
159	0x38a272b8	7.74613e-05
160	0x3834470b	4.2981508e-05
161	0x380d993c	3.375973e-05
162	0x37e38e36	2.712673e-05
163	0x37a060b3	1.9118515e-05
164	0x37950c0b	1.7767792e-05
165	0x3793e082	1.762831e-05
166	0x3793716b	1.757658e-05
167	0x3793a46b	1.7600329e-05
168	0x3793a45b	1.76003e-05
169	0x3793a465	1.7600318e-05
170	0x37934c88	1.7559403e-05
171	0x3793cba4	1.7618593e-05
172	0x37ac591a	2.0545489e-05
173	0x37e8c355	2.7747514e-05
174	0x38555566	5.086269e-05
175	0x38b610f6	8.6815955e-05
176	0x3905fb57	0.000127775
177	0x39396954	0.00017682213
178	0x397bb451	0.00024004398
179	0x3999f63b	0.0002936589
180	0x39a6da1e	0.00031824497
181	0x39a081f0	0.0003061439
182	0x39a5c5df	0.00031618678
183	0x399f5ddc	0.00030396774
184	0x3999423b	0.0002923178
185	0x39758b6d	0.00023416961
186	0x394700eb	0.00018978461
187	0x3907fe2b	0.00012969288
188	0x388bdc45	6.669065e-05
189	0x38381b68	4.3894543e-05
190	0x38012ab0	3.0795753e-05
191	0x37b63e73	2.172517e-05
192	0x379d28cd	1.8734858e-05
193	0x37954443	1.7793971e-05
194	0x3793653c	1.7570906e-05
195	0x3793a445	1.760026e-05
196	0x3793a458	1.7600294e-05
197	0x3793a45e	1.7600305e-05
198	0x379261f1	1.7450164e-05
199	0x379bcf09	1.8573848e-05
200	0x37bee0d6	2.2754462e-05
201	0x381df2a0	3.765768e-05
202	0x38c2f8ef	9.2970084e-05
203	0x3915f224	0.00014299952
204	0x3958c7c5	0.00020673785
205	0x39877a11	0.00025840153
206	0x399aa1dc	0.00029493764
207	0x39af15e1	0.00033394902
208	0x39ac968b	0.0003291856
209	0x399c0c9b	0.0002976403
210	0x39acb365	0.00032940056
211	0x39baf258	0.00035657245
212	0x39b19d97	0.00033877484
213	0x39a37a7e	0.00031181047
214	0x39882b29	0.00025972098
215	0x3948eb30	0.000191611
216	0x38cb49a0	9.693508e-05
217	0x3875486a	5.8479993e-05
218	0x38190510	3.6482757e-05
219	0x37d9afc6	2.5950267e-05
220	0x37ac718c	2.0556872e-05
221	0x3794d5a4	1.7742459e-05
222	0x3793a694	1.7601335e-05
223	0x3793a19c	1.759902e-05
224	0x3793a457	1.7600292e-05
225	0x3793a406	1.7600145e-05
226	0x3795f771	1.7877408e-05
227	0x37b12393	2.111661e-05
228	0x38130248	3.5049656e-05
229	0x388d8f16	6.750056e-05
230	0x38e1b229	0.00010762021
231	0x392569b9	0.00015775011
232	0x39692578	0.0002223457
233	0x3988f0fb	0.00026119486
234	0x39981b68	0.00029012118
235	0x39ad5d64	0.00033066713
236	0x39a13d57	0.00030754015
237	0x39867678	0.00025646738
238	0x39901fd8	0.00027489546
239	0x39a93d97	0.0003228008
240	0x39b99e3e	0.0003540385
241	0x39afd704	0.000335388
242	0x39989afd	0.00029107174
243	0x395c3ce9	0.00021003526
244	0x38faf9d8	0.00011967466
245	0x388f5eeb	6.836451e-05
246	0x38300bda	4.1972708e-05
247	0x38029470	3.113266e-05
248	0x37b1650e	2.1147102e-05
249	0x379619d2	1.7893417e-05
250	0x379584b3	1.7823977e-05
251	0x37943374	1.7666935e-05
252	0x3793a44e	1.7600276e-05
253	0x3793a0ed	1.7598702e-05
254	0x379d12b5	1.872457e-05
255	0x37e01059	2.6710493e-05

exp_avg f4 [28]
0	0xba989d1b	-0.0011643501
1	0x3b1f2d15	0.0024288346
2	0xba645636	-0.0008710356
3	0x39729bfc	0.00023137027
4	0x3a37d95d	0.00070132856
5	0xba2fae07	-0.00067016523
6	0x3a84b8e5	0.0010125904
7	0xba38c466	-0.00070483086
8	0x39938df8	0.000281438
9	0xb8ffef0b	-0.00012203873
10	0x3a6a693f	0.00089420745
11	0x39c550ee	0.00037635065
12	0xba8c282a	-0.0010693122
13	0x3a887ad1	0.0010412579
14	0x39bd22d1	0.0003607483
15	0x3ae16aa5	0.001719792
16	0x37d87420	2.5803281e-05
17	0x3b0bf52c	0.002135585
18	0x3ad24368	0.0016041817
19	0xbb138243	-0.0022508062
20	0xba7f533b	-0.00097398803
21	0xbb01955b	-0.001977286
22	0x3a87b179	0.0010352574
23	0xba90f942	-0.0011060613
24	0xba6d1b81	-0.0009044931
25	0xb9bdf02a	-0.00036227825
26	0x3a7ce1c8	0.0009646681
27	0xba5d608d	-0.0008444868

exp_avg_sq f4 [28]
0	0x38cd18fc	9.7798154e-05
1	0x38a4ac6e	7.852247e-05
2	0x3882b8cb	6.2333034e-05
3	0x3887e1d7	6.4793676e-05
4	0x38a790ee	7.990176e-05
5	0x3890250a	6.873354e-05
6	0x384592d1	4.7105194e-05
7	0x3801f301	3.098231e-05
8	0x389c14ad	7.442511e-05
9	0x38ac98cd	8.2300605e-05
10	0x3824ec39	3.9320646e-05
11	0x389e73b7	7.555581e-05
12	0x387726a1	5.8925365e-05
13	0x387d74a9	6.042855e-05
14	0x3876355c	5.8700665e-05
15	0x382c1107	4.1023854e-05
16	0x3885c02e	6.3777305e-05
17	0x388e3289	6.7805006e-05
18	0x388cd3a5	6.715142e-05
19	0x38b21941	8.492405e-05
20	0x3837f46d	4.385824e-05
21	0x39196ccc	0.00014631747
22	0x382506f1	3.934553e-05
23	0x385f0acf	5.317741e-05
24	0x38767957	5.8763977e-05
25	0x38132fc4	3.5092016e-05
26	0x38088bbd	3.2555068e-05
27	0x389e1d9e	7.539544e-05

exp_avg f4 [10, 28]
0	0xbca9714f	-0.020683913
1	0xbad8c9dd	-0.0016539652
2	0xbc0c668b	-0.00856937
3	0xb923e519	-0.00015630237
4	0xbcb5a44e	-0.022173073
5	0xbc908ccc	-0.017645262
6	0xbb688975	-0.0035482321
7	0xbb6ea52d	-0.003641437
8	0xbc5d1676	-0.013494125
9	0xb92f2312	-0.00016702365
10	0xbc40066d	-0.011720282
11	0x39fadaa8	0.00047846627
12	0xbc39084b	-0.011293481
13	0xbc30e7b7	-0.010797433
14	0xbb55b39d	-0.0032608279
15	0xb8b57020	-8.6516375e-05
16	0x3a00bad1	0.00049106503
17	0xbb257c7d	-0.0025251203
18	0xbab2bf6f	-0.0013637374
19	0xbae0f0ba	-0.0017161586
20	0xbc115274	-0.008869756
21	0x3aea13ea	0.0017858718
22	0x3a05666f	0.0005088811
23	0xbcea75b7	-0.028620584
24	0xbc908a1f	-0.017643986
25	0xbc10bd3f	-0.008834182
26	0xbc2b3656	-0.010449966
27	0xb784f1fc	-1.5848309e-05
28	0x9794d3fa	-9.617786e-25
29	0xb5d72bc0	-1.6031481e-06
30	0x1a98ec56	6.324755e-23
31	0x00000086	1.88e-43
32	0xb499fdfd	-2.8683272e-07
33	0xb5f4c616	-1.8237067e-06
34	0x9d9a15dd	-4.0786067e-21
35	0x969e175b	-2.5541016e-25
36	0xb5dc3310	-1.6406138e-06
37	0x80000072	-1.6e-43
38	0x9698b7cb	-2.4672914e-25
39	0x918830a3	-2.1486991e-28
40	0x972528f4	-5.3366066e-25
41	0xace3be27	-6.472839e-12
42	0xa785161e	-3.6938895e-15
43	0xb6b338fa	-5.3412487e-06
44	0x0000004a	1.04e-43
45	0x17816c28	8.363732e-25
46	0xa30031a5	-6.9494065e-18
47	0x16270bbe	1.3493858e-25
48	0xaaaf7de8	-3.117361e-13
49	0x9522d438	-3.288305e-26
50	0xb0caaf6a	-1.474729e-09
51	0xb66d4fcf	-3.5362207e-06
52	0xb69b0a9a	-4.620594e-06
53	0xb582c0d4	-9.741875e-07
54	0x94f37e7b	-2.4586617e-26
55	0xaf73991e	-2.215512e-10
56	0xba99261f	-0.0011684335
57	0xbaeef835	-0.001823193
58	0x3b9a2eca	0.0047052847
59	0xbbe0567b	-0.006846247
60	0x3c3515e2	0.011052581
61	0x3cbd682c	0.023120962
62	0x3c83d0c5	0.01609076
63	0xbc873c2c	-0.016508184
64	0xbc2f0ff6	-0.010684958
65	0x3c570419	0.013123536
66	0x3ba0f36f	0.004911832
67	0xbbcda60b	-0.0062758974
68	0xbc8b3ff9	-0.016998278
69	0x3a7d2bd0	0.00096577127
70	0xbbaa1d9a	-0.005191517
71	0x3c1da9c8	0.009622999
72	0x3c06d526	0.0082295295
73	0xbbdea6d9	-0.006794792
74	0x3b5375c0	0.003226623
75	0xbb83f6f8	-0.0040272437
76	0x3b5f002b	0.00340272
77	0x3a5aa94f	0.0008341269
78	0xbc030b64	-0.007998321
79	0x3c1a68ff	0.009424447
80	0x3c1b18a9	0.009466329
81	0x3c43c969	0.011949875
82	0xba267a3f	-0.00063506135
83	0x3c4b3f4a	0.012405226
84	0x3b5048a4	0.0031781578
85	0x3c12b115	0.008953352
86	0x39a33862	0.0003113179
87	0x3c8af4e3	0.016962474
88	0x3b9bdc01	0.004756451
89	0x3b6f215d	0.0036488392
90	0xbb7379bd	-0.003715142
91	0x3c171fa4	0.009223852
92	0x39cee693	0.00039463173
93	0x3aa2f7b6	0.0012433443
94	0xba44bd8d	-0.0007505052
95	0x3c3151d9	0.010822737
96	0x3ca997f5	0.020702342
97	0x3b62e67d	0.0034622245
98	0x3c2aee38	0.010432772
99	0xbb7df32f	-0.0038749685
100	0x3bca8d66	0.006181407
101	0x3cd39a0f	0.025830297
102	0x3c852627	0.016253544
103	0x3c436ef5	0.01192831
104	0x3bac51ba	0.005258766
105	0x3ba6c401	0.0050892835
106	0x3c65c6bc	0.014024433
107	0xbaef9060	-0.001827728
108	0xbc269fd6	-0.010169944
109	0x3c1390be	0.009006677
110	0x39ecdb7c	0.00045176956
111	0xbbf81042	-0.0075702975
112	0xbd248df6	-0.040174447
113	0xbb570960	-0.0032811984
114	0xbd0e8618	-0.03479585
115	0x3b1a8d88	0.0023582894
116	0xbd94623c	-0.07245299
117	0xbd922676	-0.07136242
118	0xbc0ce02b	-0.008598368
119	0x38b4c218	8.6192216e-05
120	0x3b21ecdb	0.0024707827
121	0xba9aeaf3	-0.0011819288
122	0xbb0d7803	-0.0021586425
123	0xb9769650	-0.00023516384
124	0xba92adc6	-0.0011190705
125	0xbb596083	-0.0033169098
126	0xbc274a6e	-0.0102106165
127	0xbcd1d85a	-0.02561586
128	0xbbce9c1a	-0.00630523
129	0xbb916521	-0.0044371043
130	0xbbfa098c	-0.0076305326
131	0x3b09d23f	0.0021029857
132	0xbb894b37	-0.0041898745
133	0x3b1c1a69	0.0023819453
134	0xbbf0755e	-0.00733821
135	0xbd6504ac	-0.05591266
136	0xbb91936c	-0.004442623
137	0xbd4640a2	-0.048401482
138	0xbc9addbf	-0.018904565
139	0xbc4ecc72	-0.012621986
140	0xbc16762d	-0.009183449
141	0xbcacfb39	-0.021115886
142	0xbb0f410c	-0.002185884
143	0xbbc57cee	-0.0060268557
144	0xb90342a5	-0.0001251796
145	0x3a7c5be8	0.0009626732
146	0xbcb77c4b	-0.022398135
147	0xba8af14a	-0.0010600474
148	0x3b6e2b40	0.0036341697
149	0xba8756df	-0.0010325572
150	0xbbc47be6	-0.005996215
151	0xbd4ee783	-0.050513756
152	0xbd5121d9	-0.05105767
153	0xbb5664f1	-0.0032713974
154	0xbd0b453e	-0.03400158
155	0x3bc5b7b2	0.006033861
156	0xbc3e8fec	-0.011630993
157	0xbcd71345	-0.026254306
158	0xbc3b3d6d	-0.011428219
159	0xbca41874	-0.020031191
160	0xb90cdc70	-0.0001343356
161	0xbd13be31	-0.036070053
162	0xbc44efc2	-0.012020053
163	0xbba31f82	-0.0049781213
164	0x3c1daf6f	0.009624346
165	0xbc86c80c	-0.016452812
166	0x3a0f4587	0.00054653775
167	0x3ad8c2e0	0.001653757
168	0x3d3e299b	0.046426397
169	0x39a2f58f	0.00031082003
170	0x3cf0e854	0.029407658
171	0xbbb7cd88	-0.005609218
172	0x3d694b30	0.05695647
173	0x3d33387b	0.043755036
174	0xba9f8bc7	-0.0012172394
175	0x3a238dd7	0.00062390923
176	0xba931280	-0.0011220723
177	0xbab11e0c	-0.0013512983
178	0xbb7dd4a9	-0.0038731492
179	0xba4e5128	-0.00078703696
180	0x3ae97c81	0.0017813594
181	0x3be3774d	0.006941712
182	0xbba790e8	-0.0051137097
183	0x3c92bcf9	0.017912375
184	0xbc115040	-0.008869231
185	0x39d60efa	0.0004082842
186	0xba0adecc	-0.00052974815
187	0xbba9d443	-0.0051827743
188	0xbb4e056a	-0.0031436333
189	0xbb96ac55	-0.0045981803
190	0x3aa49702	0.0012557211
191	0x3d8410dd	0.06448529
192	0x3a55fee6	0.0008163288
193	0x3cf7e9d9	0.030262874
194	0x3cc06ebe	0.023490306
195	0x3c023658	0.007947527
196	0x38b781dd	8.750309e-05
197	0x3c47e470	0.01220046
198	0xbb76ce31	-0.003765952
199	0x3b01cfdd	0.0019807734
200	0xbc03c135	-0.00804167
201	0x3bb4fc56	0.005523245
202	0xbbee1d86	-0.007266703
203	0x3af3143c	0.0018545459
204	0x3d185088	0.037186176
205	0xbc6696a5	-0.014074002
206	0x3a90d352	0.0011049306
207	0x3b011b19	0.001969999
208	0xb943d5cd	-0.00018676296
209	0x3c5168a0	0.012781292
210	0xbc154e29	-0.009112873
211	0xbbbadd14	-0.005702624
212	0x3c589035	0.013217975
213	0xba96cae9	-0.0011504564
214	0xbc4d0a12	-0.012514608
215	0xbb9aec6e	-0.0047278916
216	0x3c7f7132	0.015590953
217	0xbabf9dea	-0.0014619206
218	0x3bb8a4e8	0.0056348927
219	0x3b2b3d72	0.0026129154
220	0x3b5c6d0f	0.003363434
221	0x3d078751	0.033088032
222	0xba6973bc	-0.00089054904
223	0xbc13c778	-0.009019725
224	0xa9e3a638	-1.01096594e-13
225	0xb62ebbe6	-2.6037392e-06
226	0x9f9b4b02	-6.5769143e-20
227	0xb4e737bb	-4.3067652e-07
228	0x1fd84327	9.159065e-20
229	0x1f9f42d5	6.7449684e-20
230	0xb1e1a060	-6.5665944e-09
231	0xb0aae965	-1.2435463e-09
232	0xa0568b84	-1.8172667e-19
233	0xb60338e8	-1.9553645e-06
234	0x9ea0be00	-1.7019241e-20
235	0xb2ded5b3	-2.594138e-08
236	0xb6024a1e	-1.9414651e-06
237	0xa08f3de3	-2.4266095e-19
238	0xb332807e	-4.1560718e-08
239	0xacb6a923	-5.191529e-12
240	0xb571d0ad	-9.008316e-07
241	0xb4081ca3	-1.2676405e-07
242	0xb2e4a60f	-2.6618208e-08
243	0xb6460360	-2.9506264e-06
244	0xa060ace5	-1.9030744e-19
245	0xa1ed0586	-1.6061207e-18
246	0xb5591903	-8.0875196e-07
247	0x208198c1	2.1954534e-19
248	0x20604154	1.8995153e-19
249	0xad8a9005	-1.5752741e-11
250	0x1d80cb4d	3.4091526e-21
251	0x1cf0f7cd	1.5945923e-21
252	0x3c51aee9	0.0127980495
253	0x3a820e51	0.000992248
254	0x3b3052d5	0.002690484
255	0xba6f110e	-0.0009119668

exp_avg_sq f4 [10, 28]
0	0x3c709935	0.014684965
1	0x3aa8d1d7	0.001287992
2	0x3b843943	0.0040351464
3	0x3a1d0a1f	0.0005990583
4	0x3bdfd1b6	0.0068304194
5	0x3bc078c3	0.005873771
6	0x3b07d9e7	0.0020729245
7	0x3a6372be	0.0008676461
8	0x3b9b4c66	0.004739332
9	0x39eccc58	0.00045165676
10	0x3c3cde05	0.011527543
11	0x3a67d3dd	0.0008843521
12	0x3c068df2	0.008212553
13	0x3b7df9f1	0.0038753713
14	0x3b002986	0.0019556
15	0x3aa43d09	0.0012530397
16	0x3b93a27f	0.004505455
17	0x3c6991c7	0.014255947
18	0x39cca18f	0.00039030283
19	0x3ba48330	0.0050205216
20	0x3b9fc914	0.0048762653
21	0x3ab3adb8	0.0013708388
22	0x3b0912a4	0.0020915652
23	0x3cc1743c	0.023614995
24	0x3c012652	0.007882671
25	0x3c16159c	0.0091604255
26	0x3b876800	0.004132271
27	0x3a5417f3	0.0008090727
28	0x2c429d96	2.7656536e-12
29	0x329ac039	1.8015372e-08
30	0x2da501a4	1.8759057e-11
31	0x29c14d18	8.5842954e-14
32	0x31de8ef1	6.477301e-09
33	0x32ae989e	2.0325668e-08
34	0x30166315	5.4710486e-10
35	0x2ce9ccf6	6.6450135e-12
36	0x329ef606	1.85055e-08
37	0x2dfa9901	2.8489657e-11
38	0x2dc8ba9b	2.2820237e-11
39	0x2cbdcabc	5.394211e-12
40	0x2e0bef96	3.1817736e-11
41	0x3133d406	2.616845e-09
42	0x30a9fb50	1.2367796e-09
43	0x33a61d8c	7.735352e-08
44	0x2f14f4c3	1.3547478e-10
45	0x2bf064df	1.7081023e-12
46	0x305c537e	8.0154183e-10
47	0x2c29b202	2.4115159e-12
48	0x30fe5d9b	1.8507537e-09
49	0x2d3480dd	1.0260429e-11
50	0x30c3e769	1.4253888e-09
51	0x33307a83	4.1089617e-08
52	0x338245c9	6.0662906e-08
53	0x326443ea	1.3286789e-08
54	0x29077378	3.0076175e-14
55	0x3086ac82	9.798813e-10
56	0x3b7e15b4	0.003877026
57	0x3bf20e6f	0.0073869745
58	0x3b885405	0.0041604065
59	0x3c247782	0.0100382585
60	0x3c897596	0.016779702
61	0x3caf9304	0.021432407
62	0x3bbee8ab	0.005826076
63	0x3b8d0699	0.004303765
64	0x3b8ca37a	0.004291949
65	0x3c121bba	0.008917743
66	0x3b8e6c07	0.004346374
67	0x3b77a166	0.003778541
68	0x3c49bb88	0.012312777
69	0x3a6d4592	0.00090511993
70	0x3b0a18c5	0.0021071893
71	0x3c7b48f6	0.015337219
72	0x3c790cdd	0.015200821
73	0x3c57184c	0.013128351
74	0x3acb962c	0.0015532426
75	0x3bb2f808	0.0054616965
76	0x3b73cdb8	0.0037201475
77	0x3a954cd5	0.0011390696
78	0x3ca1140b	0.019662878
79	0x3c3f7503	0.011685613
80	0x3bc94b71	0.0061430265
81	0x3c30fbc0	0.010802209
82	0x3a8a8e0b	0.0010570897
83	0x3bced734	0.0063122753
84	0x3b80c0b1	0.0039292206
85	0x3c486a5e	0.012232391
86	0x3b83c897	0.004021715
87	0x3b81bec5	0.003959509
88	0x3bb021dd	0.0053751306
89	0x3bca5d23	0.0061756535
90	0x3c90f8cc	0.01769676
91	0x3b16e0cb	0.002302217
92	0x3b8a7a10	0.0042259768
93	0x3c293a70	0.010328874
94	0x3be25c40	0.0069079697
95	0x3cf7cdc4	0.030249484
96	0x3d0f9f1d	0.03506385
97	0x3acc2d39	0.0015577442
98	0x3be34f79	0.006936964
99	0x3c22d501	0.009938479
100	0x3c47d0fb	0.012195821
101	0x3cf0af37	0.029380424
102	0x3c16153c	0.009160336
103	0x3bef20ed	0.007297626
104	0x3c008855	0.007845004
105	0x3b300f4c	0.0026864586
106	0x3c9cc739	0.019137966
107	0x3b91fdc0	0.004455298
108	0x3c1ae792	0.009454625
109	0x3c4467b5	0.011987616
110	0x3a4851c4	0.00076415786
111	0x3c0ad908	0.008474596
112	0x3c47b34e	0.012188746
113	0x3c2712f3	0.010197389
114	0x3bd78049	0.006576572
115	0x3b3896cb	0.0028166051
116	0x3ca633d5	0.020288387
117	0x3cdaed94	0.026724614
118	0x3c96a65b	0.018389871
119	0x37992aa8	1.8258885e-05
120	0x3b8a918e	0.0042287773
121	0x3a8c568f	0.0010706949
122	0x3ad002de	0.0015869995
123	0x3b26a888	0.0025430042
124	0x398323c5	0.00025012917
125	0x3b5d1a8d	0.003373775
126	0x3c9d783e	0.019222375
127	0x3a8f3010	0.0010924358
128	0x3ccd7379	0.025079476
129	0x3b5df2dd	0.0033866682
130	0x3c1ef4ab	0.009701888
131	0x39a28df1	0.00031004802
132	0x3c1b30c0	0.009472072
133	0x3a65f649	0.0008772356
134	0x3b260e72	0.00253382
135	0x3c0afaee	0.008482678
136	0x3b193a42	0.0023380672
137	0x3d0617d2	0.03273756
138	0x3b0803bb	0.0020754177
139	0x3b2c4fe5	0.0026292738
140	0x3c214f99	0.009845638
141	0x3ae9b89c	0.0017831507
142	0x3bfc9005	0.007707598
143	0x3b944534	0.004524851
144	0x3c03ce70	0.008044824
145	0x3c71003c	0.014709529
146	0x3c5504f3	0.013001668
147	0x3a4b888d	0.0007764183
148	0x3bfdc3dc	0.0077442955
149	0x3acde691	0.0015708973
150	0x3c181a3f	0.009283601
151	0x3cb99049	0.022651808
152	0x3cb993bd	0.022653455
153	0x3bdb5a89	0.0066941422
154	0x3c71a17d	0.014747974
155	0x3b3f1a77	0.0029160061
156	0x3b2b8075	0.0026169096
157	0x3cca230d	0.024674917
158	0x3c25d3f2	0.0101213325
159	0x3c68195c	0.014166202
160	0x3c0140d4	0.007888991
161	0x3c19a88b	0.009378563
162	0x3c31ff18	0.010864042
163	0x3b38f1d5	0.0028220315
164	0x3c1daff7	0.009624473
165	0x3c67bb61	0.014143796
166	0x3a49b710	0.000769482
167	0x3a8ee7c0	0.0010902807
168	0x3c2e66b9	0.010644608
169	0x3a55ac10	0.00081509445
170	0x3c04877b	0.008088942
171	0x3be1c5cb	0.006890034
172	0x3c9e0e61	0.019293966
173	0x3c860bb4	0.016363002
174	0x3a17fa09	0.0005797451
175	0x3a2fbc60	0.000670379
176	0x39a377de	0.0003117909
177	0x39f0e6dc	0.0004594837
178	0x3be5db13	0.007014641
179	0x3a1c9c5b	0.00059742265
180	0x3ab997f9	0.0014159671
181	0x3ac7074a	0.0015184667
182	0x3bc51582	0.006014527
183	0x3b2fcdcc	0.0026825545
184	0x3bb54d96	0.0055329306
185	0x3c02f9b8	0.007994108
186	0x3a6d7ba6	0.00090592576
187	0x3bb202c4	0.0054324586
188	0x3c06db4f	0.008230998
189	0x3bbb842a	0.0057225423
190	0x3bb211dd	0.0054342584
191	0x3c26f328	0.010189809
192	0x3ba28345	0.004959496
193	0x3bf019bc	0.0073272865
194	0x3b9a7b6b	0.0047144196
195	0x3a152ae6	0.00056902913
196	0x3c1d4cbe	0.009600816
197	0x3c82b32f	0.015954582
198	0x3a8f1245	0.0010915479
199	0x3bdc1ce5	0.0067173117
200	0x3b2d72c0	0.0026466101
201	0x3b0d861e	0.0021594833
202	0x3cb13e0c	0.021636032
203	0x3ae85620	0.0017725863
204	0x3c499224	0.012302909
205	0x3c65deb0	0.014030144
206	0x3a6afa4b	0.0008963688
207	0x3a729104	0.00092531764
208	0x3c2a2913	0.010385769
209	0x3c04d2fe	0.008106945
210	0x3c7a40b0	0.015274212
211	0x3bb078fc	0.005385516
212	0x3ce74fd1	0.028236302
213	0x3bd1f6f6	0.006407614
214	0x3b85ac97	0.004079412
215	0x3b81368a	0.003943269
216	0x3b6c296f	0.0036035439
217	0x3a37868d	0.00070009456
218	0x3b8f355a	0.0043703737
219	0x3bab71ce	0.0052320724
220	0x3b57cde1	0.003292911
221	0x3c763581	0.015027405
222	0x3a216319	0.00061564293
223	0x3b0e591c	0.0021720594
224	0x2fc2ec44	3.545627e-10
225	0x32a49046	1.915772e-08
226	0x2c6f4ac7	3.4005453e-12
227	0x31d0436c	6.0612617e-09
228	0x2d99dbea	1.7491748e-11
229	0x2d894a6f	1.5608152e-11
230	0x30aea6f3	1.2707616e-09
231	0x30aa3ea4	1.2386931e-09
232	0x2db15942	2.0162209e-11
233	0x32763205	1.4330458e-08
234	0x2c6b33e9	3.3424325e-12
235	0x310c13ab	2.0383861e-09
236	0x32788199	1.4464967e-08
237	0x2dcbf36b	2.3186527e-11
238	0x310ce1af	2.0500968e-09
239	0x309a167f	1.1211369e-09
240	0x3207c066	7.901781e-09
241	0x3152f659	3.0699054e-09
242	0x30f62a0f	1.791081e-09
243	0x32c116a1	2.2478448e-08
244	0x2d602cb5	1.2742853e-11
245	0x2f7b8cd5	2.287835e-10
246	0x321757ce	8.809321e-09
247	0x2dd17658	2.3813104e-11
248	0x2f311d64	1.6108498e-10
249	0x300ece71	5.195267e-10
250	0x2a20acf8	1.4270865e-13
251	0x2f1c094e	1.4191423e-10
252	0x3c90a4de	0.01765674
253	0x3cacc21d	0.021088654
254	0x3ab19263	0.0013547655
255	0x3b56cd6c	0.003277625

exp_avg f4 [10]
0	0xbb2faf94	-0.0026807534
1	0xaa9bf3be	-2.770266e-13
2	0x39a231c8	0.00030936138
3	0x3a9bf4d6	0.0011898528
4	0xbb8c5fa9	-0.0042838645
5	0xbb316858	-0.002707025
6	0x3b35be15	0.0027731706
7	0x3995c2cd	0.00028564633
8	0xa2172111	-2.0481821e-18
9	0x3acb12f5	0.001549332

exp_avg_sq f4 [10]
0	0x39470d22	0.00018983011
1	0x3004072f	4.803153e-10
2	0x3996cdb2	0.00028763484
3	0x39ce7e02	0.00039385265
4	0x39adbf2b	0.00033139563
5	0x39cb6522	0.00038794527
6	0x395deae5	0.00021163707
7	0x39a23b5e	0.0003094328
8	0x2f120d0a	1.3283255e-10
9	0x39f8105f	0.00047314444

net.net.1.weight f4 [28, 784]
0	0xbc36cd33	-0.011157322
1	0xbc566555	-0.013085683
2	0xbc2e66bb	-0.01064461
3	0xbc557ed2	-0.013030725
4	0xbc3623eb	-0.011116962
5	0xbc47bbb0	-0.012190744
6	0xbc2e44a0	-0.010636479
7	0xbc1c01a7	-0.009521878
8	0xbc4a502d	-0.012348217
9	0xbc2ae437	-0.010430387
10	0xbc3260f9	-0.010887378
11	0xbc1c9bc2	-0.00955862
12	0xbc2120bf	-0.009834467
13	0xbc3f2f1a	-0.011668945
14	0xbc19ce41	-0.009387554
15	0xbc312ca9	-0.0108138705
16	0xbc241b41	-0.010016263
17	0xbc5c4c76	-0.013445964
18	0xbc55942a	-0.013035813
19	0xbc166c3c	-0.0091810785
20	0xbc598d41	-0.013278306
21	0xbc344764	-0.011003349
22	0xbc1bd6b4	-0.009511638
23	0xbc3f25c1	-0.011666716
24	0xbc35c86a	-0.011095146
25	0xbc2daf58	-0.010600887
26	0xbc5afdac	-0.013366144
27	0xbc203bd4	-0.009779889
28	0xbc44a1de	-0.012001483
29	0xbc3723dc	-0.011177983
30	0xbc2506b6	-0.010072401
31	0xbc0c9a6a	-0.008581737
32	0xbc2f46f0	-0.010698065
33	0xbc55a57a	-0.013039941
34	0xbc452ac2	-0.01203412
35	0xbc8613c6	-0.01636685
36	0xbc4e1725	-0.01257876
37	0xbc355361	-0.011067242
38	0xbc14217a	-0.009041185
39	0xbbd2ddcc	-0.0064351317
40	0xbc717723	-0.014737877
41	0xbb7f47f0	-0.003895279
42	0x3c0ca824	0.00858501
43	0xbc0127f9	-0.007883065
44	0xbc2ba063	-0.010475251
45	0xbc4f55af	-0.012654706
46	0xbc2086b8	-0.009797744
47	0xbc0da4df	-0.008645265
48	0xbc13b3e1	-0.009015054
49	0xbc2b3eed	-0.010452014
50	0xbc1809e6	-0.009279704
51	0xbc148b85	-0.009066467
52	0xbc20c46a	-0.009812454
53	0xbc4fd6d9	-0.012685501
54	0xbc1fa570	-0.009744033
55	0xbc5ec080	-0.0135957
56	0xbc14c4c6	-0.009080118
57	0xbc36b95c	-0.011152592
58	0xbc173437	-0.009228758
59	0xbc552015	-0.013008137
60	0xbc3bb8fb	-0.011457677
61	0xbc138f8a	-0.00900639
62	0xbc525554	-0.012837727
63	0xbc6d847f	-0.014496922
64	0xbc86f69b	-0.016475013
65	0xbcadf2c7	-0.02123393
66	0xbb8dacc3	-0.0043235733
67	0x3bb1398a	0.0054084705
68	0xbc876b07	-0.016530527
69	0x3c8b0d88	0.016974226
70	0x3cafd52f	0.021463959
71	0xbcd65d6f	-0.0261676
72	0xbd0709df	-0.0329684
73	0xbc756c0b	-0.014979373
74	0xbd364fbf	-0.044509646
75	0xbd02b357	-0.031909313
76	0xbcd55a71	-0.026044102
77	0xbc867c0a	-0.016416568
78	0xbc0535c3	-0.008130494
79	0xbc431735	-0.011907388
80	0xbc5314bb	-0.0128833605
81	0xbc3621e1	-0.011116476
82	0xbc18438a	-0.009293446
83	0xbc4facb0	-0.012675449
84	0xbc3070dc	-0.010769095
85	0xbc2e3f75	-0.0106352465
86	0xbc3a9bf6	-0.011389723
87	0xbc626900	-0.013818979
88	0xbc58653e	-0.013207732
89	0xbc5c9b6f	-0.013464793
90	0xbc58aaa5	-0.013224279
91	0xbbf40381	-0.0074467068
92	0xbcf808f7	-0.030277712
93	0xbc8901d0	-0.016724497
94	0x3d089089	0.033340964
95	0x3c88d367	0.016702367
96	0xbd803e5c	-0.06261894
97	0xbcb2f918	-0.021847293
98	0xbccc2617	-0.024920506
99	0xbc78e9c1	-0.01519245
100	0x3c8b9eee	0.017043557
101	0xbd21bac3	-0.03948475
102	0xbe00cd0c	-0.12578219
103	0xbca7fd16	-0.020506423
104	0x3aa1c12b	0.0012340894
105	0x3a0e36a5	0.0005425013
106	0xbbe8a9d0	-0.0071003214
107	0xbbe6e4f0	-0.0070463344
108	0xbc874209	-0.01651098
109	0xbc3915b0	-0.011296675
110	0xbc40a592	-0.011758225
111	0xbc19a81c	-0.009378459
112	0xbc388906	-0.011263138
113	0xbc4590af	-0.012058421
114	0xbc2b46ef	-0.010453924
115	0xbc2b4ccf	-0.010455324
116	0xbbe32d95	-0.006932924
117	0xbd5bd502	-0.053669937
118	0xbdad7c19	-0.084709354
119	0xbd050f0b	-0.03248505
120	0xbd342cff	-0.043988224
121	0x3d54977b	0.051902276
122	0x3cb5e0f6	0.022201996
123	0x3dbeaa7a	0.093098596
124	0x3da75bd9	0.081718154
125	0x3d88d08e	0.06680404
126	0x3d1d0f30	0.038344562
127	0x3d70b2b7	0.058764186
128	0x3d9c266f	0.07624518
129	0x3cbd4d51	0.023108156
130	0xbcf05570	-0.029337615
131	0x3d1be159	0.038056705
132	0x3deeb058	0.11654729
133	0x3d9a1e62	0.07525326
134	0x3d44cffb	0.048049908
135	0xbb158151	-0.0022812674
136	0xbca9e9c6	-0.020741355
137	0xbc924728	-0.017856196
138	0xbc8d2b9b	-0.017232707
139	0xbc544980	-0.012956977
140	0xbc597bf8	-0.013274185
141	0xbc3772ef	-0.011196836
142	0xbc5ae51a	-0.013360286
143	0xbc4168cd	-0.011804772
144	0xbcf22e1f	-0.029563008
145	0xbd82639f	-0.063666575
146	0xbd269348	-0.040667802
147	0xbd24b3eb	-0.040210646
148	0x3d4e0a19	0.0503026
149	0x3e2e6142	0.17029288
150	0x3e3d66cc	0.18496245
151	0x3dfe1ce9	0.12407858
152	0x3ce8e4d8	0.028429434
153	0xbd402a31	-0.046915237
154	0xbb5ce76d	-0.0033707276
155	0xbd63cd53	-0.055615734
156	0xbd4ee756	-0.050513588
157	0xbc9b9bdd	-0.01899522
158	0xbd256297	-0.040377226
159	0xbd2c7a07	-0.04210856
160	0xbbf1f7dc	-0.0073842835
161	0x3d8b2db6	0.06795828
162	0x3d1c13e4	0.038104907
163	0xbc276e1d	-0.010219124
164	0xbcae3f60	-0.021270454
165	0xbcc44d8c	-0.023962758
166	0xbca5487c	-0.020176165
167	0xbc141f28	-0.009040631
168	0xbc49e491	-0.012322561
169	0xbc176fe9	-0.00924299
170	0xbbb376d9	-0.005476814
171	0xbc5c9ed0	-0.013465598
172	0xbb373a3d	-0.0027958297
173	0x3d3f1b11	0.046656672
174	0x3d0b2782	0.033973224
175	0x3dc371fe	0.09543227
176	0x3e2c24e6	0.1681095
177	0x3e18e3e8	0.1493069
178	0x3d6f9119	0.058487985
179	0x3d8e963e	0.0696225
180	0xbd02c46c	-0.031925604
181	0xbe332e9a	-0.17498246
182	0xbe5ae1db	-0.2137522
183	0xbe483602	-0.19551852
184	0xbe3e5cff	-0.18590163
185	0xbd656a90	-0.05600983
186	0xbd9bc346	-0.07605605
187	0xbc0f5ac4	-0.008749668
188	0xbcc86d82	-0.02446628
189	0x3c1f3565	0.00971732
190	0x3c098e35	0.008395721
191	0x3c7babcf	0.015360787
192	0xbcc30a4b	-0.023808619
193	0xbccf033e	-0.0252701
194	0xbc28b136	-0.010296157
195	0xbc449065	-0.011997317
196	0xbc54039d	-0.012940315
197	0xbc23e538	-0.0100033805
198	0xbc00aab9	-0.007853203
199	0x3c695931	0.014242456
200	0xbd8d1124	-0.06888035
201	0x3d3576fe	0.044302933
202	0x3db29cf8	0.08721346
203	0x3e074b2f	0.13212274
204	0x3e0f5696	0.13997874
205	0x3e294706	0.16531
206	0x3dfd3788	0.12364107
207	0x3d099334	0.03358765
208	0xbd5ddb19	-0.054164026
209	0xbe6b5475	-0.22981437
210	0xbe5b027d	-0.21387668
211	0xbd944a8d	-0.07240782
212	0x3ce756b8	0.028239593
213	0x3ddacd36	0.10683672
214	0x3d77cff1	0.060501043
215	0x3de0338e	0.10947333
216	0x3cac89e9	0.021061854
217	0x3bcdce34	0.006280685
218	0xbbfa08e0	-0.0076304525
219	0x3d8668b0	0.06562936
220	0x3d51d4da	0.05122838
221	0x3baa77be	0.0052022627
222	0xbb072af9	-0.002062498
223	0xbc3afa37	-0.011412195
224	0xbc344438	-0.011002593
225	0xbc475963	-0.012167308
226	0x3c137583	0.009000185
227	0x3cce9598	0.025217816
228	0xbda51727	-0.080610566
229	0x3dd42242	0.10358097
230	0x3d554bfb	0.052074414
231	0x3ddad898	0.10685843
232	0x3e25ac07	0.16178904
233	0x3e81f6ba	0.2538355
234	0x3e4697b0	0.19393802
235	0x3e0d2776	0.13784584
236	0xbd9b0685	-0.07569603
237	0xbe88b404	-0.2669984
238	0xbdd4e410	-0.10395062
239	0x3dcd322e	0.10019337
240	0x3e112edc	0.14178032
241	0x3deb3edc	0.11486599
242	0x3d52975c	0.05141388
243	0xbd89a610	-0.06721127
244	0x3c0ab0bb	0.008464987
245	0x3c8587fb	0.016300192
246	0xbc5d6e6d	-0.013515097
247	0x3db51b9b	0.08843156
248	0x3d6b9741	0.057517294
249	0x3c84e6a3	0.016223257
250	0xbcb989a5	-0.022648642
251	0xbca32d87	-0.01991917
252	0xbc3b4e75	-0.01143228
253	0xbc1c0200	-0.009521961
254	0xbc441c56	-0.011969646
255	0x3c4f0e64	0.012637708

net.net.1.bias f4 [28]
0	0x3c6d2060	0.014473051
1	0xbc725faa	-0.014793316
2	0x3c1abe78	0.009444825
3	0xbd0e1d60	-0.034695983
4	0x3c5f8832	0.013643311
5	0x3d4f8cf4	0.050671533
6	0xbbf6fdef	-0.0075375955
7	0xbb8145f2	-0.0039451057
8	0xbc8890e7	-0.016670657
9	0x3abde7ae	0.0014488602
10	0xbc9e0768	-0.019290641
11	0x3b678227	0.003532538
12	0x3cd616de	0.02613395
13	0x3d1c1583	0.038106453
14	0xbd1f6354	-0.038913086
15	0xbb8a3939	-0.0042182473
16	0xbd13d386	-0.036090396
17	0xbb1e3322	-0.0024139364
18	0xbcb32e4a	-0.021872658
19	0x3ca158fc	0.019695751
20	0xbc955d66	-0.018233012
21	0xbbcf2ef3	-0.0063227355
22	0x3a35404b	0.00069141824
23	0xbabaa29e	-0.0014239138
24	0xbc8628f5	-0.016376952
25	0xbc392cc0	-0.011302173
26	0xbd1f414d	-0.038880635
27	0xbcb79b2d	-0.02241286

net.net.3.weight f4 [10, 28]
0	0x3e1f93cb	0.15583722
1	0xbea60215	-0.32423463
2	0xbcf01932	-0.029308889
3	0xbeb03357	-0.3441417
4	0x3e0acbf2	0.13554361
5	0xbe3e68c5	-0.18594654
6	0xbe8ce90d	-0.27521554
7	0x3e7614ef	0.24031423
8	0x3d888093	0.066651486
9	0xbdf739e7	-0.12071591
10	0x3d2170b3	0.03941412
11	0xbeb9e9ae	-0.36311096
12	0x3e56b129	0.20966019
13	0x3e0843b1	0.13307072
14	0xbe1c79e6	-0.15280876
15	0xbeab1991	-0.33417943
16	0x3e6db3cf	0.23213123
17	0x3dd66136	0.1046776
18	0xbee13c23	-0.43991193
19	0x3e1b42ef	0.15162252
20	0x3e203377	0.15644632
21	0xbe48879b	-0.1958298
22	0xbeca55d7	-0.39518616
23	0x3ea0d41c	0.31411827
24	0x3e5b9db4	0.21446878
25	0xbd6cac15	-0.057781298
26	0x3e2acd86	0.16679963
27	0xbe40eaf5	-0.18839629
28	0x9c828fdc	-8.639865e-22
29	0xbb4a0f0c	-0.0030831723
30	0xa0d398c9	-3.5845895e-19
31	0x0003e388	3.5713e-40
32	0xba0c8053	-0.0005359698
33	0xbb6669e8	-0.003515834
34	0xa2d60804	-5.8013303e-18
35	0x9c55f12a	-7.0787485e-22
36	0xbb4ee51f	-0.0031569672
37	0x80037bc3	-3.19904e-40
38	0x1cb4a99e	1.1955246e-21
39	0x9811a54f	-1.882427e-24
40	0x1a66053e	4.756712e-23
41	0xb246724a	-1.1551103e-08
42	0xacd8a1ca	-6.1570514e-12
43	0xbc2bd68d	-0.010488165
44	0x00022b9d	1.99316e-40
45	0x9cf46440	-1.617248e-21
46	0xa8436bef	-1.0848079e-14
47	0x9cd1e42a	-1.3889439e-21
48	0xb014e531	-5.4167787e-10
49	0x1a4aaf69	4.1914316e-23
50	0xb627aa3d	-2.498403e-06
51	0xbbe1edbe	-0.006894796
52	0xbc144a63	-0.009050938
53	0xbaf3e358	-0.0018607182
54	0x9bc1fd94	-3.2093043e-22
55	0xb4c014ed	-3.5778012e-07
56	0xbe889721	-0.26677802
57	0xbd50e0a0	-0.05099547
58	0xbdd179d6	-0.102283165
59	0x3c9df7e9	0.019283252
60	0x3ebfad22	0.37436777
61	0x3e5e39ff	0.21701811
62	0xbca20e63	-0.01978225
63	0x3ee29f1d	0.4426202
64	0x3e3a5684	0.18197066
65	0x3e78db33	0.24302368
66	0xbe179cb5	-0.14805873
67	0xbe2bc022	-0.16772512
68	0x3e5f69ff	0.21817778
69	0x3db56ffc	0.0885925
70	0xbf0438c3	-0.5164911
71	0x3df1c1d0	0.11804545
72	0x3e3faee6	0.18719062
73	0xbd6d715e	-0.057969444
74	0xbed1e09c	-0.40991676
75	0x3e4e9d9e	0.20177314
76	0xbe281d85	-0.16417511
77	0xbe19d344	-0.15021998
78	0xbd2ebf71	-0.04266304
79	0x3e5ba1cd	0.21448441
80	0xbe8023b1	-0.2502723
81	0xbe504c2f	-0.20341562
82	0xbe605253	-0.21906404
83	0x3e9a3332	0.30117184
84	0xbf030688	-0.5118184
85	0x3e4fbf6d	0.20287867
86	0x3e2d8fbb	0.1694936
87	0xbee55b76	-0.44796342
88	0x3ca62c87	0.020284904
89	0xbe51c42f	-0.20484994
90	0x3e00ac98	0.1256584
91	0xbc2ad23f	-0.010426103
92	0x3e022bac	0.12711972
93	0x3e9f61fe	0.3112945
94	0xbebb6052	-0.36596924
95	0x3e8cbcef	0.27487895
96	0x3e86a9a2	0.26301295
97	0x3da317e7	0.079635434
98	0xbe560fb8	-0.20904434
99	0x3dec2651	0.11530746
100	0xbe2fc518	-0.17165029
101	0xbcea59ce	-0.028607275
102	0x3e9fdddb	0.3122395
103	0xbd47a5cd	-0.048742104
104	0x3e80daca	0.25166923
105	0xbe27f9ab	-0.16403835
106	0x3c0b6d8b	0.008510004
107	0xbcf60e5f	-0.03003615
108	0x3e19e6e6	0.15029487
109	0xbe4f8a7b	-0.2026767
110	0xbdc57558	-0.09641522
111	0x3ec76251	0.38942197
112	0x3ec3f09f	0.38269517
113	0x3d6e6e61	0.058210734
114	0x3e4f0923	0.20218329
115	0xbe5a36fd	-0.21310039
116	0x3de9c7e0	0.11415076
117	0x3e197742	0.149869
118	0x3e4bc8c1	0.199008
119	0xbe0a5892	-0.1351035
120	0xbeb09e5f	-0.34495828
121	0xbf156c20	-0.5836811
122	0xbed76605	-0.42070022
123	0x3dcd1304	0.100133926
124	0xbf074801	-0.52844244
125	0xbcbd68b6	-0.02312122
126	0x3e4221f7	0.18958269
127	0xbed70907	-0.41999075
128	0x3e12167a	0.14266387
129	0xbf054b62	-0.5206815
130	0x3e469b4f	0.19395183
131	0xbf1e6fa6	-0.6188911
132	0x3e1e79ee	0.154762
133	0xbf035d15	-0.51313907
134	0xbea398f7	-0.3195264
135	0x3e02d288	0.12775624
136	0xbec91b41	-0.39278606
137	0x3de88637	0.113537244
138	0xbd9afa23	-0.07567241
139	0x3c5e7651	0.0135780135
140	0x3dd9bc11	0.10631574
141	0xbf1c69be	-0.6109885
142	0x3e02b3b2	0.12763861
143	0xbec8a1a7	-0.3918583
144	0x3d9a4932	0.07533492
145	0xbb5635cc	-0.0032685874
146	0x3cb1384a	0.021633286
147	0x3cc7c431	0.024385544
148	0x3e854c77	0.260349
149	0xbdbee541	-0.093210705
150	0xbe9d7632	-0.30754238
151	0x3e337c16	0.17527804
152	0x3e02a9a9	0.12760033
153	0x3ea5e6d1	0.3240266
154	0x3e17476b	0.14773338
155	0x3e38e782	0.18057063
156	0xbed59767	-0.41717073
157	0xbcc5fdbc	-0.024168842
158	0x3e9ea780	0.30987167
159	0x3e827615	0.25480714
160	0xbc9eb888	-0.0193751
161	0x3f1bc1b0	0.6084242
162	0xbe56f41e	-0.20991561
163	0xbed20cc6	-0.4102537
164	0x3e441544	0.19148737
165	0xbdee658f	-0.116404645
166	0x3c6e77e4	0.014554951
167	0xbe599c78	-0.21251094
168	0x3e3ccbe9	0.1843716
169	0xbe69a59e	-0.22817084
170	0x3c98e091	0.01866177
171	0xbd497bca	-0.04919032
172	0x3ef40840	0.47662544
173	0xbc812cbc	-0.015768401
174	0xbf089cf4	-0.5336449
175	0xbd709716	-0.058737837
176	0xbf1f1e1d	-0.62155324
177	0xbe9e1bff	-0.30880734
178	0x3b14340f	0.0022614037
179	0xbeb285d9	-0.34867743
180	0xbe9399cd	-0.28828278
181	0x3e14fcd2	0.14549568
182	0x3d442f24	0.04789652
183	0x3d37a97a	0.04483936
184	0xbdb788df	-0.08961653
185	0xbbd95c4a	-0.006633316
186	0xbe6c35e9	-0.2306744
187	0x3e8425a4	0.25809968
188	0x3e92a6b1	0.286428
189	0x3eb2a0df	0.3488836
190	0xbe57b3b2	-0.21064642
191	0xbdf75011	-0.12075818
192	0xbd03f536	-0.032216273
193	0xbd6b0dda	-0.057386257
194	0x3eba2912	0.3635946
195	0xbec1a2aa	-0.37819415
196	0x3e365bf6	0.17808518
197	0x3e1b570e	0.15169927
198	0xbe4e7cf5	-0.20164855
199	0xbe2af8b0	-0.16696429
200	0xbd9d945d	-0.07694314
201	0xbf03f266	-0.51541746
202	0x3e730a0b	0.237343
203	0x3e6831ef	0.22675298
204	0x3e7979b5	0.24362834
205	0x3eb6c557	0.35697433
206	0xbed45df2	-0.41477925
207	0xbf03aca5	-0.5143531
208	0x3e275f53	0.16344957
209	0x3efd2540	0.49442482
210	0x3d221e6d	0.039579798
211	0x3dd04311	0.10169042
212	0x3e0706f1	0.13186242
213	0xbee53c1b	-0.4477242
214	0xbe131a40	-0.14365482
215	0x3a7e875b	0.00097095006
216	0x3dda39e2	0.106555715
217	0x3d0bc43e	0.034122698
218	0xbe2f9dda	-0.1715006
219	0x3dd0cc68	0.101952374
220	0xbe1f0663	-0.1552978
221	0x3d8ebb2f	0.06969296
222	0xbed31a9d	-0.41231242
223	0x3eca0285	0.39455047
224	0xaef60a50	-1.1188617e-10
225	0xbba44a9c	-0.005013777
226	0xa5224415	-1.4074327e-16
227	0xba526cf9	-0.00080271024
228	0x25e0f6f4	3.9025148e-16
229	0xa53bb775	-1.6281822e-16
230	0xb7383b77	-1.09811e-05
231	0xb60b2099	-2.0731588e-06
232	0xa5c1c51a	-3.3613724e-16
233	0xbb753570	-0.0037415884
234	0xa38758dd	-1.4674364e-17
235	0xb83e9b40	-4.5444118e-05
236	0xbb7384ea	-0.003715808
237	0x26984ad7	1.0567404e-15
238	0xb898c19a	-7.283986e-05
239	0xb212d0db	-8.545807e-09
240	0xbade2fb6	-0.0016951475
241	0xb96fa4e2	-0.0002285424
242	0xb8416f39	-4.611837e-05
243	0xbbbac004	-0.0056991596
244	0xa60e7110	-4.9419375e-16
245	0xa6732321	-8.435517e-16
246	0xbac82cf0	-0.0015272181
247	0x25b16650	3.0773935e-16
248	0x25a040cf	2.7799492e-16
249	0xb2bd2bda	-2.2022437e-08
250	0xa48a1645	-5.9885686e-17
251	0xa191b03c	-9.872231e-19
252	0xbc0b4c3a	-0.008502061
253	0x3df3378e	0.118758306
254	0xbecf3ef8	-0.4047773
255	0xbf04fdbe	-0.5194968

net.net.3.bias f4 [10]
0	0xbcc89656	-0.024485748
1	0xafceae24	-3.7594916e-10
2	0xbd302f7f	-0.043014046
3	0x3dfb451c	0.12269041
4	0x3db02811	0.08601392
5	0x3ca3370a	0.019923706
6	0x3cf6e978	0.030140623
7	0xbe714f83	-0.23565488
8	0xa79195b7	-4.0407906e-15
9	0x3d720dbe	0.059095137
