logs/mnist/023-mnist_fc/epoch=00-loss=0.67.ckpt (torch_old, 269554 bytes, 12 tensors)

exp_avg f4 [28, 784]
0	0x3a283f97	0.0006418167
1	0x3a25ba5a	0.0006322019
2	0x3a28eb28	0.00064437324
3	0x3a25ccbf	0.000632476
4	0x3a284d18	0.0006420179
5	0x3a26e5ce	0.0006366641
6	0x3a28eddf	0.0006444137
7	0x3a2a62d3	0.00064997113
8	0x3a26b11f	0.00063587906
9	0x3a2932d5	0.0006454413
10	0x3a2899eb	0.0006431627
11	0x3a2a5689	0.000649788
12	0x3a2a1636	0.0006488295
13	0x3a281e99	0.0006413251
14	0x3a2ae550	0.00065191556
15	0x3a28b614	0.0006435823
16	0x3a29bd67	0.00064750615
17	0x3a2541ca	0.0006304054
18	0x3a25cb0a	0.00063245057
19	0x3a2ad4db	0.0006516703
20	0x3a2579ea	0.0006312417
21	0x3a28731f	0.0006425846
22	0x3a2a6641	0.00065002224
23	0x3a279529	0.0006392771
24	0x3a285467	0.00064212683
25	0x3a28f9c9	0.00064459123
26	0x3a255c85	0.0006308037
27	0x3a2a0c80	0.0006486848
28	0x3a272521	0.0006376077
29	0x3a2838af	0.0006417138
30	0x3a29aaa0	0.00064722635
31	0x3a2b9d66	0.00065465865
32	0x3a28d945	0.0006441067
33	0x3a25ca4b	0.00063243945
34	0x3a295c22	0.0006460567
35	0x3a2517ea	0.0006297814
36	0x3a296567	0.00064619485
37	0x3a28681b	0.00064242043
38	0x3a2a6c72	0.0006501145
39	0x3a2fab34	0.00067012315
40	0x3a2ccff6	0.0006592268
41	0x3a2c363b	0.000656936
42	0x3a25c55e	0.00063236605
43	0x3a295dbe	0.0006460807
44	0x3a28b469	0.00064355746
45	0x3a2595f2	0.0006316594
46	0x3a29fdbb	0.0006484647
47	0x3a2b159f	0.0006526354
48	0x3a2ac520	0.0006514359
49	0x3a292f3e	0.0006453878
50	0x3a2ac021	0.0006513615
51	0x3a2b0a13	0.00065246335
52	0x3a2a019b	0.00064852246
53	0x3a264040	0.00063419715
54	0x3a2a187d	0.00064886344
55	0x3a250fb5	0.0006296591
56	0x3a2af6a5	0.0006521738
57	0x3a28412f	0.00064184045
58	0x3a2ac4e9	0.0006514327
59	0x3a26bb6b	0.0006360325
60	0x3a27fb55	0.0006407996
61	0x3a2b1222	0.00065258343
62	0x3a2747f7	0.0006381268
63	0x3a2840bb	0.0006418337
64	0x3a27b67e	0.0006397738
65	0x3a2a49ad	0.0006495964
66	0x3a265f2f	0.0006346581
67	0x3a2d1348	0.00066022994
68	0x3a3256aa	0.0006803075
69	0x3a320e95	0.0006792334
70	0x3a2a14f3	0.0006488107
71	0x3a270b18	0.00063721975
72	0x3a251e28	0.0006298744
73	0x3a29e6d6	0.00064812356
74	0x3a243670	0.00062642153
75	0x3a260e4c	0.0006334528
76	0x3a26aaa1	0.0006357823
77	0x3a277583	0.0006388055
78	0x3a27528d	0.00063828455
79	0x3a2763bc	0.0006385406
80	0x3a26b5cc	0.00063594873
81	0x3a284bff	0.00064200157
82	0x3a2aaf43	0.00065111014
83	0x3a2643a0	0.00063424744
84	0x3a28c180	0.0006437525
85	0x3a28ee4c	0.00064442004
86	0x3a27f1db	0.00064065837
87	0x3a275ac8	0.0006384072
88	0x3a2560c5	0.000630867
89	0x3a24671d	0.00062714686
90	0x3a41b8b8	0.0007389891
91	0x3a56c07b	0.0008192134
92	0x3a504fe8	0.0007946477
93	0x3a62e698	0.0008655577
94	0x3a5e48d6	0.00084794813
95	0x3a585c5c	0.0008253509
96	0x3a3f5050	0.0007298039
97	0x3a297d80	0.00064655393
98	0x3a1cbe72	0.00059793063
99	0x3a02d94a	0.0004991485
100	0x3a301c72	0.0006718106
101	0x3a4fd0a8	0.00079275155
102	0x3ac3100e	0.0014882104
103	0x3b0ba593	0.0021308407
104	0x3a75d3e3	0.0009377582
105	0x3a1ed8f0	0.0006059548
106	0x3a211c99	0.0006145924
107	0x3a23b09d	0.0006244274
108	0x3a23e4dd	0.000625206
109	0x3a27ab14	0.0006396037
110	0x3a277689	0.00063882075
111	0x3a2a92cf	0.00065068615
112	0x3a281c33	0.00064128934
113	0x3a27123c	0.00063732616
114	0x3a2927ef	0.0006452789
115	0x3a279d5d	0.00063939934
116	0x3a28c82d	0.000643852
117	0x3a38e1b9	0.0007052678
118	0x3a449ae9	0.000749989
119	0x3a10aae5	0.00055186293
120	0x3a05f095	0.0005109397
121	0x3a1e0e4e	0.0006029353
122	0x3a93cc14	0.001127603
123	0x3a98b281	0.0011649878
124	0x3a99cc02	0.0011733773
125	0x3a881f10	0.0010385234
126	0x3a4cda50	0.00078145135
127	0x3a722f0a	0.0009238577
128	0x3a6dfaa4	0.0009078181
129	0x3ad98271	0.0016594661
130	0x3aecc408	0.0018063793
131	0x3ab417be	0.0013739986
132	0x3ab80573	0.001403971
133	0x3a9309ef	0.001121817
134	0x3a21602d	0.0006155994
135	0x3a247302	0.0006273241
136	0x3a282c52	0.00064152956
137	0x3a2891a9	0.00064303965
138	0x3a249442	0.00062781957
139	0x3a25e56e	0.0006328438
140	0x3a257b48	0.0006312621
141	0x3a283260	0.0006416198
142	0x3a255603	0.0006307067
143	0x3a28a892	0.00064338103
144	0x3a24a5c1	0.0006280803
145	0x3a3f3d06	0.0007295165
146	0x3a045803	0.0005048515
147	0x39d75df8	0.00041078008
148	0x39e7233c	0.00044086005
149	0x3a017471	0.00049383106
150	0x3a35d264	0.00069359527
151	0xb9abe034	-0.00032782706
152	0xba317a03	-0.00067701953
153	0xba23e428	-0.00062519545
154	0xbaa8f52c	-0.001289045
155	0xba28302d	-0.000641587
156	0x3ac44d87	0.0014976718
157	0x3b1ba4ed	0.0023749426
158	0x3b01c9eb	0.001980419
159	0x3aca4e1e	0.0015434658
160	0x3abf0f8a	0.0014576775
161	0x3a6f5041	0.0009129085
162	0x3a3831f2	0.00070264854
163	0x3a257a21	0.0006312449
164	0x3a294d4d	0.0006458357
165	0x3a29c924	0.00064768107
166	0x3a24e5a3	0.0006290322
167	0x3a2b21c3	0.0006528163
168	0x3a26b9b7	0.0006360071
169	0x3a2ac026	0.00065136177
170	0x3a28f044	0.0006444494
171	0x3a26016e	0.00063326105
172	0x3a1537e8	0.00056922296
173	0x3a15225c	0.0005689019
174	0x39d8dd1f	0.00041363479
175	0x3a34661e	0.0006881672
176	0x3a1d27cf	0.00059950066
177	0x3a1a4ed8	0.00058863824
178	0x395541a5	0.00020337717
179	0xbafad455	-0.0019136766
180	0xbb52a39a	-0.003214097
181	0xbb882318	-0.004154574
182	0xbacc796f	-0.0015600155
183	0xb968bc92	-0.00022195492
184	0xba770f12	-0.0009424548
185	0xba408720	-0.0007344354
186	0x3ac4bd34	0.001501
187	0x3ab951c0	0.0014138743
188	0x3a4f28f2	0.00079025247
189	0x3a43c4a6	0.00074679626
190	0x3a4ae729	0.0007740134
191	0x3a648637	0.00087175093
192	0x3a2f896a	0.00066961965
193	0x3a261d82	0.00063367945
194	0x3a2b4c33	0.0006534487
195	0x3a276abd	0.00063864497
196	0x3a25ea6f	0.0006329184
197	0x3a2997f6	0.00064694823
198	0x3a248bad	0.0006276917
199	0x3a205859	0.00061166805
200	0x3a1de2b0	0.0006022854
201	0x3a652dfd	0.00087425095
202	0x3a8867af	0.0010406877
203	0x3a6b56aa	0.00089774525
204	0x3a23c739	0.0006247643
205	0x3a29286e	0.0006452863
206	0xbae65520	-0.0017572977
207	0xbb18803d	-0.0023269795
208	0xbb1269a4	-0.0022340799
209	0xba9d69ee	-0.0012009719
210	0xbb12f1c9	-0.0022421947
211	0xbb2342e8	-0.0024911705
212	0xbadb8584	-0.0016748165
213	0xbaed52d4	-0.001810635
214	0xb9297f49	-0.00016164513
215	0xb89eb248	-7.5672346e-05
216	0x3a400fb4	0.00073265587
217	0x3a403bed	0.00073331484
218	0x3a469d13	0.00075765065
219	0x3a36c4bf	0.00069720665
220	0x3a2dc229	0.00066283584
221	0x3a2af1b3	0.00065210013
222	0x3a251e6e	0.0006298785
223	0x3a286899	0.00064242777
224	0x3a27b294	0.00063971546
225	0x3a267200	0.0006349385
226	0x3a289fc9	0.0006432501
227	0x3a2616b3	0.000633578
228	0x3a1b920d	0.0005934544
229	0x3a7e0a8d	0.0009690903
230	0x3a8edfa2	0.0010900388
231	0x3a42b8ef	0.000742807
232	0x39bdcd7d	0.0003620199
233	0x398e457c	0.0002713612
234	0xbb08cfd8	-0.0020875838
235	0xba30ef5a	-0.00067495333
236	0xba144390	-0.00056558196
237	0xb8cf40af	-9.8825774e-05
238	0x39aa5f4e	0.00032495934
239	0xbb1c1d67	-0.0023821236
240	0xbab298cb	-0.0013625858
241	0xba266651	-0.0006347644
242	0xba4f0a70	-0.00078979786
243	0xba80d8c7	-0.000983023
244	0x3a8b6f9a	0.0010638118
245	0x3a377fc9	0.00069999375
246	0x3a3cb9fd	0.0007199345
247	0x3a1eb4ae	0.0006054145
248	0x3a16e52f	0.0005756197
249	0x3a1ea755	0.0006052156
250	0x3a279245	0.00063923403
251	0x3a26268e	0.00063381426
252	0x3a27e21a	0.0006404236
253	0x3a295d63	0.0006460754
254	0x3a2897c9	0.0006431309
255	0x3a29901b	0.0006468312

exp_avg_sq f4 [28, 784]
0	0x37b6471b	2.1729202e-05
1	0x37b64789	2.1729402e-05
2	0x37b64708	2.1729167e-05
3	0x37b64791	2.1729416e-05
4	0x37b64717	2.1729194e-05
5	0x37b6473c	2.1729262e-05
6	0x37b6470c	2.1729174e-05
7	0x37b646fb	2.1729144e-05
8	0x37b64738	2.1729255e-05
9	0x37b64712	2.1729185e-05
10	0x37b6470e	2.1729178e-05
11	0x37b646fb	2.1729144e-05
12	0x37b64be5	2.1731432e-05
13	0x37b66f0f	2.1747806e-05
14	0x37b6460a	2.1728705e-05
15	0x37b64707	2.1729165e-05
16	0x37b64706	2.1729164e-05
17	0x37b647ae	2.172947e-05
18	0x37b64793	2.172942e-05
19	0x37b6470f	2.172918e-05
20	0x37b647a5	2.1729453e-05
21	0x37b6470a	2.172917e-05
22	0x37b646fe	2.1729149e-05
23	0x37b64713	2.1729187e-05
24	0x37b64714	2.1729189e-05
25	0x37b6470c	2.1729174e-05
26	0x37b647b5	2.1729482e-05
27	0x37b64700	2.1729153e-05
28	0x37b6472c	2.1729233e-05
29	0x37b64718	2.1729196e-05
30	0x37b64714	2.1729189e-05
31	0x37b64711	2.1729184e-05
32	0x37b6470f	2.172918e-05
33	0x37b646d3	2.172907e-05
34	0x37b64d70	2.173215e-05
35	0x37b65cf5	2.1739377e-05
36	0x37b793a8	2.1884058e-05
37	0x37b6486c	2.1729815e-05
38	0x37b6eba0	2.1805812e-05
39	0x37b6ca4b	2.179029e-05
40	0x37b611ec	2.1704436e-05
41	0x37b66dcb	2.1747217e-05
42	0x37ba7b8d	2.223046e-05
43	0x37c5cf63	2.3580802e-05
44	0x37ba9cd1	2.2245951e-05
45	0x37b6516c	2.1734006e-05
46	0x37b63572	2.1720978e-05
47	0x37b63503	2.1720776e-05
48	0x37b6480b	2.1729638e-05
49	0x37b653aa	2.173505e-05
50	0x37b66a53	2.1745602e-05
51	0x37b641ee	2.1726792e-05
52	0x37b646f7	2.1729136e-05
53	0x37b6475a	2.1729316e-05
54	0x37b64705	2.1729162e-05
55	0x37b647cd	2.1729526e-05
56	0x37b64713	2.1729187e-05
57	0x37b64713	2.1729187e-05
58	0x37b64705	2.1729162e-05
59	0x37b64737	2.1729253e-05
60	0x37b64586	2.1728465e-05
61	0x37b64465	2.172794e-05
62	0x37b64d69	2.1732138e-05
63	0x37b6944e	2.176515e-05
64	0x37b7ea57	2.1924423e-05
65	0x37bd4812	2.2564116e-05
66	0x37c15e78	2.3051383e-05
67	0x37bd00db	2.2530954e-05
68	0x37c312ce	2.3254568e-05
69	0x37d690b8	2.5578178e-05
70	0x37c94e93	2.3997656e-05
71	0x37e30f80	2.7067726e-05
72	0x37cf4d52	2.4712328e-05
73	0x37beb4a0	2.2733875e-05
74	0x37bd1ad0	2.2543041e-05
75	0x37bbb4fe	2.2376418e-05
76	0x37b8403f	2.1964426e-05
77	0x37b63532	2.1720862e-05
78	0x37b657d1	2.1736983e-05
79	0x37b63e1e	2.1725016e-05
80	0x37b6434d	2.172743e-05
81	0x37b6430d	2.1727314e-05
82	0x37b6470f	2.172918e-05
83	0x37b64763	2.1729333e-05
84	0x37b64716	2.1729193e-05
85	0x37b6470f	2.172918e-05
86	0x37b6471c	2.1729204e-05
87	0x37b648b0	2.1729938e-05
88	0x37b65fd9	2.1740723e-05
89	0x37cede1e	2.4660545e-05
90	0x37ce0d4c	2.4563305e-05
91	0x37d01a02	2.4807643e-05
92	0x37ca8700	2.414314e-05
93	0x37d39f9e	2.5227488e-05
94	0x37e3aee3	2.7141947e-05
95	0x37e60d48	2.7424321e-05
96	0x37ee772b	2.8427303e-05
97	0x38147323	3.539318e-05
98	0x3816962d	3.590265e-05
99	0x380ae33a	3.3113385e-05
100	0x381db81a	3.7603175e-05
101	0x381835f3	3.6289868e-05
102	0x380261f7	3.1085652e-05
103	0x37e80a44	2.7661335e-05
104	0x37d47982	2.532895e-05
105	0x37c83d1d	2.3870316e-05
106	0x37c1267d	2.3025315e-05
107	0x37b74804	2.1848835e-05
108	0x37b68b69	2.1761009e-05
109	0x37b729e0	2.18348e-05
110	0x37b63797	2.1721977e-05
111	0x37b64702	2.1729156e-05
112	0x37b64718	2.1729196e-05
113	0x37b6472c	2.1729233e-05
114	0x37b646fd	2.1729147e-05
115	0x37b6471e	2.1729207e-05
116	0x37b68c17	2.1761325e-05
117	0x37da216c	2.6003188e-05
118	0x37e50c6c	2.7304712e-05
119	0x380e81c9	3.397631e-05
120	0x3825063f	3.9344883e-05
121	0x384562cf	4.7060483e-05
122	0x385ecedf	5.312159e-05
123	0x388f97ed	6.84707e-05
124	0x389b8719	7.41614e-05
125	0x38b929c8	8.82927e-05
126	0x38d4b51b	0.00010142681
127	0x38e24648	0.00010789611
128	0x38cd2bbd	9.7833086e-05
129	0x38aa4034	8.1181905e-05
130	0x388e61f5	6.7893336e-05
131	0x38574f5c	5.1333904e-05
132	0x383164c2	4.2293927e-05
133	0x380f8fb7	3.42277e-05
134	0x37ebfb1d	2.8131117e-05
135	0x37c7ad11	2.3803239e-05
136	0x37ba7bc1	2.2230555e-05
137	0x37b6efb8	2.1807718e-05
138	0x37b68cef	2.1761718e-05
139	0x37b64a79	2.173077e-05
140	0x37b647a9	2.172946e-05
141	0x37b64719	2.1729198e-05
142	0x37b64e02	2.1732416e-05
143	0x37b838dd	2.1960988e-05
144	0x37bebab8	2.2736713e-05
145	0x37eb26a3	2.8032175e-05
146	0x382970cf	4.03978e-05
147	0x387901fe	5.936808e-05
148	0x38b405ec	8.584172e-05
149	0x38e4c21b	0.00010908042
150	0x390c0da7	0.00013356526
151	0x393bbc46	0.00017903847
152	0x395e60b6	0.00021207597
153	0x3971f35f	0.00023074214
154	0x397fd77d	0.0002439897
155	0x397e7a2d	0.00024268842
156	0x396456ee	0.00021776158
157	0x393747a3	0.00017478927
158	0x39169997	0.00014362331
159	0x39004776	0.00012233653
160	0x38b14561	8.4529405e-05
161	0x387711ad	5.890585e-05
162	0x382cbbc0	4.118285e-05
163	0x37e6c4fd	2.7509866e-05
164	0x37c92238	2.3977002e-05
165	0x37b6b1f8	2.1778964e-05
166	0x37b6391e	2.1722688e-05
167	0x37b64bd0	2.1731394e-05
168	0x37b6473d	2.1729264e-05
169	0x37b646fd	2.1729147e-05
170	0x37b67260	2.174935e-05
171	0x37b89063	2.2001745e-05
172	0x37dd35b3	2.6370259e-05
173	0x38095b45	3.2748347e-05
174	0x386c4941	5.6335008e-05
175	0x38bf071f	9.108916e-05
176	0x390811d8	0.00012976618
177	0x3938131f	0.0001755473
178	0x39706588	0.00022926007
179	0x3992272c	0.00027876475
180	0x399eea96	0.00030310889
181	0x39abda4d	0.00032778308
182	0x39a7b3b9	0.00031986626
183	0x39a8119a	0.0003205657
184	0x39a1ef5b	0.00030886647
185	0x398e04c5	0.00027087904
186	0x396755ab	0.0002206179
187	0x3946c401	0.00018955769
188	0x3910ef1b	0.00013821984
189	0x38c6a542	9.4721574e-05
190	0x38828fc6	6.225663e-05
191	0x3821705f	3.8490045e-05
192	0x37d3f3b3	2.5266641e-05
193	0x37bb4b8a	2.2327313e-05
194	0x37b66532	2.1743213e-05
195	0x37b649c9	2.173045e-05
196	0x37b64782	2.172939e-05
197	0x37b64546	2.1728349e-05
198	0x37b8acd9	2.2014998e-05
199	0x37c287a5	2.3189767e-05
200	0x38001d75	3.0545012e-05
201	0x384b2ce1	4.844077e-05
202	0x38aa8554	8.131066e-05
203	0x390187c5	0.00012352977
204	0x39443b0a	0.0001871401
205	0x3983e316	0.0002515546
206	0x3997dd7d	0.00028965986
207	0x39a0ef80	0.0003069602
208	0x39ac3388	0.0003284479
209	0x39aebb7d	0.00033327556
210	0x39abaa65	0.00032742615
211	0x39b5f923	0.00034708632
212	0x39be51f5	0.00036300687
213	0x39b28962	0.00034053164
214	0x399a52ec	0.0002943495
215	0x3981b17d	0.00024737036
216	0x39427b12	0.00018547129
217	0x3908f2d1	0.00013060427
218	0x38a5f416	7.913278e-05
219	0x3832eb0a	4.2657404e-05
220	0x37e60ada	2.742319e-05
221	0x37c5ae65	2.3565439e-05
222	0x37b8ddcd	2.2037793e-05
223	0x37b61949	2.1707865e-05
224	0x37b6471d	2.1729205e-05
225	0x37b64f34	2.1732973e-05
226	0x37b8b749	2.2019858e-05
227	0x37c8ad3f	2.3922532e-05
228	0x380ab8a3	3.307372e-05
229	0x387430f9	5.8219743e-05
230	0x38dc321a	0.000104997496
231	0x392f5315	0.00016720251
232	0x3971860a	0.00023033484
233	0x398acfdc	0.00026476278
234	0x399c1fb7	0.00029778268
235	0x39a18ac5	0.00030811704
236	0x399dff8a	0.00030135765
237	0x399d3b16	0.00029989396
238	0x39963cd0	0.00028655538
239	0x399bee73	0.00029741562
240	0x39b38095	0.00034237342
241	0x39b6dd32	0.00034878548
242	0x39a84288	0.00032093027
243	0x398c706b	0.0002678664
244	0x39659274	0.000218937
245	0x391e746e	0.00015111428
246	0x38c98773	9.609656e-05
247	0x385a53bf	5.2053245e-05
248	0x380410f5	3.1487045e-05
249	0x37c90ec5	2.3967945e-05
250	0x37b77b78	2.1872795e-05
251	0x37b69b9f	2.1768557e-05
252	0x37b6471c	2.1729204e-05
253	0x37b66064	2.1740976e-05
254	0x37b7fb65	2.1932365e-05
255	0x37daf03c	2.6099493e-05

exp_avg f4 [28]
0	0xbac6dd40	-0.0015172139
1	0x3a0a0758	0.00052653765
2	0xba0c6865	-0.0005356132
3	0x3a44d25f	0.00075081544
4	0xbaca78a9	-0.0015447336
5	0xbb0cdb9c	-0.0021493202
6	0x3ac8d02e	0.0015320831
7	0xbb29edd3	-0.0025929108
8	0x3ae92ffa	0.0017790787
9	0x3ae53d91	0.0017489662
10	0xbab7da40	-0.0014026836
11	0x39c12373	0.0003683824
12	0xb984a7e2	-0.00025302084
13	0xba346341	-0.0006881245
14	0xb99cf2f8	-0.00029935664
15	0x3971ab36	0.00023047332
16	0xba26c943	-0.0006362388
17	0xba6ae497	-0.0008960454
18	0xb9a6a511	-0.0003178497
19	0xbaeab954	-0.0017908015
20	0x3a32906b	0.0006811681
21	0x39b2bab1	0.00034089902
22	0x3a2faf2b	0.0006701822
23	0x3a155d24	0.0005697778
24	0x3a915201	0.0011087061
25	0xb9e61e16	-0.00043891434
26	0xba855798	-0.00101732
27	0xba591e75	-0.00082824315

exp_avg_sq f4 [28]
0	0x38fd35a5	0.00012073972
1	0x3895c700	7.14194e-05
2	0x389bb961	7.4255055e-05
3	0x3874d2e0	5.8370526e-05
4	0x3834ada8	4.3077074e-05
5	0x387e2451	6.059214e-05
6	0x388e8b07	6.7969835e-05
7	0x3873edb8	5.8157108e-05
8	0x38c284e4	9.275394e-05
9	0x38b258ac	8.504218e-05
10	0x38687ab1	5.5427376e-05
11	0x38eec98f	0.000113862676
12	0x386156fd	5.3725194e-05
13	0x38a8a260	8.041109e-05
14	0x38eea199	0.00011378824
15	0x3869a545	5.5705448e-05
16	0x38d2f9ef	0.00010060134
17	0x38570a77	5.126974e-05
18	0x387e8e8f	6.0691087e-05
19	0x390242ed	0.00012422698
20	0x389cb078	7.4715295e-05
21	0x390feb35	0.00013725164
22	0x38769ccd	5.8797003e-05
23	0x389f3ff1	7.593621e-05
24	0x389c0745	7.440014e-05
25	0x389f0fe7	7.584673e-05
26	0x37e9e9f5	2.788471e-05
27	0x38789ad4	5.9272003e-05

exp_avg f4 [10, 28]
0	0x3c72092a	0.014772693
1	0x3c83b42e	0.016077127
2	0x3caa244e	0.020769265
3	0x39bf42e2	0.0003648019
4	0x3da3bb28	0.079946816
5	0x3ca9b9d4	0.020718493
6	0xbd40cfd1	-0.04707319
7	0xbcde4c79	-0.027136074
8	0xbc2616f5	-0.010137309
9	0xbcee4aad	-0.029088343
10	0x3c63eaff	0.013911008
11	0x3aa3b1ae	0.0012488866
12	0xbd1330b9	-0.035935137
13	0x3d0d808b	0.034546416
14	0xbc343383	-0.0109986095
15	0x3a00dd50	0.00049157906
16	0xbd27f54e	-0.041005425
17	0xbccb616c	-0.024826728
18	0xbc2b6961	-0.010462136
19	0xbc739deb	-0.014869194
20	0xbcbbaf1d	-0.022910649
21	0x3b95f4c4	0.0045762975
22	0x3bbb7f3b	0.005721954
23	0x3d90d1a8	0.07071239
24	0x3cf4acd9	0.029867576
25	0x3c8d0bc9	0.017217534
26	0x3b81ab83	0.0039572134
27	0x3984cd5a	0.0002533
28	0xa4f20a04	-1.0496774e-16
29	0x0850d917	6.284791e-34
30	0xb3c4cc25	-9.164095e-08
31	0xa74831b9	-2.778253e-15
32	0x28685cb2	1.2898687e-14
33	0xb3a6ecc3	-7.773044e-08
34	0x9f9e3d6e	-6.701723e-20
35	0xa2b8f829	-5.013605e-18
36	0x8b26bae8	-3.211105e-32
37	0x800000c3	-2.73e-43
38	0xa1dcdce8	-1.4966253e-18
39	0xa9293a4a	-3.7576096e-14
40	0x1d8b133e	3.681289e-21
41	0x9d859d91	-3.5367727e-21
42	0xb20fc97f	-8.36951e-09
43	0xb172a9b9	-3.531211e-09
44	0xb278841e	-1.446554e-08
45	0x94c0873e	-1.944039e-26
46	0xb0e1f778	-1.644124e-09
47	0xa21e40fb	-2.1447393e-18
48	0x9d2a977d	-2.257763e-21
49	0x000000e0	3.14e-43
50	0xaefe2357	-1.155686e-10
51	0xb1726d03	-3.52776e-09
52	0x808d3729	-1.2968593e-38
53	0xa701c95f	-1.801151e-15
54	0x000001a6	5.91e-43
55	0xb2656388	-1.3352185e-08
56	0x3bbc1c95	0.005740712
57	0x3c33f4ee	0.010983689
58	0xbbdd9d82	-0.006763161
59	0xbc9799f9	-0.018506037
60	0x3c2a0b57	0.01037868
61	0xbb05e29d	-0.0020429261
62	0x3c817c4c	0.01580634
63	0xbc414899	-0.011797094
64	0x3c388e3f	0.011264383
65	0xbac22b3e	-0.0014813913
66	0xbc33de68	-0.010978319
67	0xbcab9fa2	-0.020950142
68	0x3bd3b3db	0.0064606494
69	0x3adcf486	0.0016857542
70	0x3c769e71	0.015052424
71	0xbcade482	-0.021227125
72	0x3b8f48ae	0.0043726778
73	0x3b43b041	0.0029859694
74	0x3c24cca2	0.010058554
75	0xbab3fa2b	-0.0013731172
76	0x3a71b791	0.0009220774
77	0x3b6a5417	0.0035755688
78	0xbce24f19	-0.027625607
79	0xbb963df8	-0.004585024
80	0x39da3f93	0.00041627567
81	0x3c840dfa	0.016119946
82	0xba310dcf	-0.0006754072
83	0xbbfa37a0	-0.0076360255
84	0x3951e438	0.00020016811
85	0x3ca3761f	0.019953785
86	0x3c644e58	0.013934694
87	0x3a2af04e	0.00065207935
88	0x3aa4376f	0.0012528728
89	0x3c5a6303	0.01332927
90	0xbb8b05b0	-0.0042426214
91	0x3c53571d	0.012899187
92	0xbc555127	-0.0130198365
93	0x3b80d4bf	0.0039316113
94	0x3ca21437	0.01978503
95	0x3cca8412	0.02472118
96	0x3c1a4122	0.009414943
97	0x3a18e72f	0.0005832789
98	0x3b8355d8	0.004008036
99	0x3ccf8694	0.025332727
100	0x3cd45681	0.025920155
101	0x3cab3a7b	0.02090191
102	0xbbf86f00	-0.0075815916
103	0x3bca7c88	0.006179396
104	0x3c893ab7	0.01675163
105	0x3b488277	0.0030595341
106	0x3d5c8e90	0.053846896
107	0x3d04178e	0.032249026
108	0x3cc95f44	0.024581559
109	0x3c571657	0.013127885
110	0x3a882d0f	0.0010389405
111	0x3c6fe269	0.014641383
112	0xbc89667a	-0.016772497
113	0x3bb99d87	0.0056645307
114	0xbbdbfc26	-0.006713408
115	0x3b7dafc9	0.0038709512
116	0xbd19e81b	-0.03757487
117	0xbc2e30c2	-0.010631742
118	0xbc0a7de2	-0.008452864
119	0x3a9d4a8b	0.0012000365
120	0xbc3ef15e	-0.011654226
121	0x3b6411e7	0.003480071
122	0x3aea4da9	0.0017875928
123	0x3b3f1f4d	0.0029162944
124	0xb784c8c1	-1.582911e-05
125	0xbbbf4ceb	-0.0058380268
126	0xbc29cd5d	-0.010363904
127	0x3b63f1d2	0.0034781587
128	0xbb154505	-0.0022776735
129	0x3ae5449e	0.0017491763
130	0xbc0e8adb	-0.008700098
131	0x3a8e6564	0.0010863957
132	0xbc4308eb	-0.011903982
133	0xba84053a	-0.0010072358
134	0x3b7c33b6	0.003848297
135	0xbab1c229	-0.0013561893
136	0x3be088c8	0.006852243
137	0xbc0da0ad	-0.008644265
138	0x3be69f24	0.007038014
139	0x3b80a95f	0.0039264406
140	0xbc0fe03e	-0.008781491
141	0xbac0ac22	-0.0014699737
142	0xbc3e0c89	-0.011599668
143	0xbbb7100f	-0.005586631
144	0xbccf521c	-0.025307707
145	0xbccb9db9	-0.024855481
146	0xb999743c	-0.00029269035
147	0xbc6c93f7	-0.014439574
148	0xbd0fa317	-0.035067644
149	0x3a89e701	0.0010521115
150	0xbc807969	-0.015682893
151	0xbc62f9b1	-0.013853476
152	0x385495ce	5.0684255e-05
153	0xbbd8a4da	-0.0066114487
154	0xbcbf5776	-0.023357134
155	0xbc615b5a	-0.01375469
156	0xbc2e316c	-0.0106319
157	0xbca63089	-0.020286815
158	0xbc1eb03f	-0.009685575
159	0xbced56c1	-0.028972032
160	0xbbfa22f5	-0.0076335617
161	0xbb4d2420	-0.003130205
162	0xbb666602	-0.0035156016
163	0xbba4f8a0	-0.005034521
164	0xbc57a96f	-0.013162955
165	0xbc21d868	-0.009878255
166	0xb97b6af4	-0.00023977068
167	0x38ef7e3f	0.00011419923
168	0xbc9053db	-0.01761811
169	0xbc82ae50	-0.01595226
170	0xbbd77dc6	-0.0065762727
171	0x3bd1f340	0.0064071715
172	0xbd902ce7	-0.070398144
173	0xbc4cec42	-0.0125075
174	0x3b22780e	0.0024790796
175	0x3b27c61b	0.0025600258
176	0x3b5fd9a9	0.0034156835
177	0x3b15bb9f	0.0022847427
178	0xbc7b8504	-0.015351538
179	0x3cb9f639	0.022700416
180	0x3b38bc4b	0.0028188403
181	0xbc973236	-0.01845656
182	0xbaff8f09	-0.0019497584
183	0x3ca19edf	0.019729076
184	0x3b290962	0.0025792946
185	0x3c051dbf	0.008124768
186	0x3b5037b5	0.0031771485
187	0xbb73f3c6	-0.0037224158
188	0xbc9fbb8d	-0.01949861
189	0xbcbc76e7	-0.023005916
190	0x3c5805f6	0.013185015
191	0xbd7852a9	-0.060625706
192	0xbd2cce04	-0.04218866
193	0xbce11d6e	-0.027479853
194	0xbc10af37	-0.008830837
195	0xbb9491ec	-0.004533997
196	0x3c8a03d0	0.016847521
197	0xbcf49415	-0.029855767
198	0xbb3e5d25	-0.0029047218
199	0x3a768a12	0.00094047294
200	0x3b0c2129	0.002138207
201	0x3b7d4e76	0.0038651503
202	0x3d00138d	0.031268645
203	0x3c1b0c83	0.009463432
204	0x3ca642c5	0.02029551
205	0x3bf6f013	0.0075359433
206	0x3bc74880	0.0060816407
207	0x3bb58cd1	0.0055404683
208	0x3c8e2c8a	0.017355222
209	0xbb15f692	-0.0022882563
210	0x3c9f9a20	0.019482672
211	0xbc60bd2d	-0.013716978
212	0x3c48a1a3	0.012245568
213	0x3ca85ded	0.0205526
214	0x3c2fdb52	0.010733442
215	0x3c4fdeb7	0.012687377
216	0x3d01db50	0.031703293
217	0x3c12b466	0.008954143
218	0xbca3385e	-0.019924339
219	0xbc6ebb8b	-0.014571081
220	0xbb0e60ca	-0.0021725171
221	0x3c58f688	0.013242371
222	0x3b1e9661	0.002419852
223	0xbbdb846a	-0.0066991346
224	0x382bf675	4.0999108e-05
225	0x35620322	8.419612e-07
226	0x360934d0	2.0445332e-06
227	0xb4bb9fbf	-3.4947695e-07
228	0x342f0be7	1.6302475e-07
229	0x36a92997	5.041434e-06
230	0x37951c4f	1.7775366e-05
231	0xb5b78128	-1.3672152e-06
232	0x36333fbd	2.671018e-06
233	0xb402fb5a	-1.2198635e-07
234	0x351047ed	5.3748846e-07
235	0xb3ba52ef	-8.6763855e-08
236	0xb63b1dc7	-2.7882504e-06
237	0x3744da17	1.1733288e-05
238	0xb68c6137	-4.1836424e-06
239	0xb24005bf	-1.1177177e-08
240	0x3652aead	3.1394113e-06
241	0x360e3fcd	2.1196786e-06
242	0x33edd528	1.10749454e-07
243	0xb623f658	-2.4432284e-06
244	0xb69c94c2	-4.66648e-06
245	0xb4a7dc2a	-3.1266364e-07
246	0xb496bc28	-2.807658e-07
247	0x36e5d810	6.849885e-06
248	0xb746a855	-1.18409125e-05
249	0x378360bc	1.5661462e-05
250	0x37386965	1.0991794e-05
251	0xb521a4aa	-6.021679e-07
252	0x3bb8aa3b	0.0056355274
253	0xbc98c0b8	-0.018646583
254	0x3b9b39c7	0.004737112
255	0xbc1c93df	-0.00955674

exp_avg_sq f4 [10, 28]
0	0x3c88d7af	0.016704408
1	0x3a220520	0.0006180573
2	0x3bfe8210	0.0077669695
3	0x3a4910e7	0.000767006
4	0x3c2bf763	0.010495993
5	0x3becc22c	0.0072252955
6	0x3b61bdc6	0.003444539
7	0x3b315e6f	0.0027064343
8	0x3bb2690a	0.0054446505
9	0x3a65851b	0.0008755491
10	0x3c5e74ee	0.013577683
11	0x3bf3909a	0.0074330093
12	0x3c18e9ae	0.009333057
13	0x3b8ef3cb	0.0043625585
14	0x3b2abcc4	0.0026052454
15	0x3b3d5e4d	0.002889532
16	0x3b39177c	0.0028242758
17	0x3b9439ac	0.0045234766
18	0x39a53680	0.00031511858
19	0x3c469bd2	0.012122111
20	0x3c23f43a	0.010006959
21	0x3ae0226b	0.0017100101
22	0x3bb4eb67	0.005521226
23	0x3cdbb30d	0.026818777
24	0x3c3314d1	0.010930256
25	0x3bb4d1d0	0.0055181757
26	0x3a968774	0.001148446
27	0x3a35cd8f	0.00069352327
28	0x3088fe66	9.967607e-10
29	0x2f8ff0e2	2.6182706e-10
30	0x32d63868	2.493853e-08
31	0x30aa90c3	1.2410272e-09
32	0x30bfc1fc	1.3952213e-09
33	0x32aad6a0	1.9888205e-08
34	0x302e3696	6.33784e-10
35	0x305f35ec	8.1203555e-10
36	0x2f963f1a	2.7329677e-10
37	0x2ca68864	4.733146e-12
38	0x304e73bd	7.510684e-10
39	0x30fc536c	1.8359123e-09
40	0x3022159f	5.896598e-10
41	0x301d7ab5	5.7290644e-10
42	0x32265b42	9.683221e-09
43	0x32093474	7.986376e-09
44	0x32487e96	1.16703145e-08
45	0x2fc47b2d	3.5739714e-10
46	0x3204f664	7.739434e-09
47	0x3060cddb	8.1783263e-10
48	0x3014c9e2	5.412898e-10
49	0x2d7e129e	1.4442362e-11
50	0x318ee67b	4.1589465e-09
51	0x320c0197	8.149434e-09
52	0x2f4b104a	1.846853e-10
53	0x30a562e9	1.2033442e-09
54	0x2f293a6c	1.5391216e-10
55	0x324368b9	1.1374305e-08
56	0x3ba94906	0.005166176
57	0x3bc0a959	0.005879563
58	0x3c9f39f6	0.019436818
59	0x3c5c9a73	0.013464558
60	0x3ce0c91d	0.027439648
61	0x3c933701	0.017970564
62	0x3c6508cf	0.013979151
63	0x3c06df1d	0.008231905
64	0x3c075d67	0.008262015
65	0x3c88cd95	0.016699592
66	0x3c078dd8	0.008273564
67	0x3cab89b4	0.020939685
68	0x3c5a15b4	0.0133108385
69	0x3ac9c809	0.0015394698
70	0x3bdb3eb4	0.0066908244
71	0x3d2013d8	0.039081424
72	0x3cff1899	0.031139659
73	0x3c17b941	0.009260477
74	0x3aeaf6b2	0.0017926304
75	0x3c4f3281	0.012646318
76	0x3bbb3d8a	0.005714123
77	0x3b2855c2	0.0025685881
78	0x3d2ffef9	0.04296777
79	0x3ce9b899	0.028530406
80	0x3bfc1a9f	0.007693603
81	0x3c013729	0.007886686
82	0x3aa8cb23	0.0012877922
83	0x3c478665	0.012178038
84	0x3b4d1085	0.0031290364
85	0x3c253059	0.010082328
86	0x3cd4eab0	0.025990814
87	0x3b5b6a26	0.0033480017
88	0x3bc82fb9	0.0061092046
89	0x3b78f55f	0.003798805
90	0x3cf8d0e6	0.030373048
91	0x3b422d14	0.002962892
92	0x3ba3abe2	0.0049948553
93	0x3c777c69	0.015105345
94	0x3c0ddcc2	0.00865859
95	0x3d8e55e3	0.06949975
96	0x3cfad679	0.030619847
97	0x3b1120c1	0.0022144767
98	0x3c3b6bf4	0.011439312
99	0x3cfc9f8c	0.030837797
100	0x3c88262e	0.016619768
101	0x3be4858e	0.006973929
102	0x3c0b4111	0.0084994
103	0x3c406a63	0.011744115
104	0x3cefd2da	0.029275347
105	0x3b8429d4	0.0040333066
106	0x3d65c242	0.05609346
107	0x3c92db07	0.017926706
108	0x3c9618ee	0.018322434
109	0x3c0657e9	0.00819967
110	0x3953fb7b	0.00020216212
111	0x3c29b3c2	0.010357799
112	0x3c5ba4a4	0.013405953
113	0x3bd91e84	0.006625952
114	0x3c4560f9	0.012047046
115	0x3b6e88f3	0.0036397546
116	0x3cc53ddb	0.024077347
117	0x3cb6bc82	0.022306684
118	0x3d1635b6	0.036672316
119	0x39d3267e	0.00040273735
120	0x3c026e46	0.007960862
121	0x3a8ab583	0.0010582659
122	0x3af3be78	0.0018596193
123	0x3bbb8685	0.005722823
124	0x3a035408	0.0005009775
125	0x3b4d7b63	0.0031354062
126	0x3d56b5ad	0.052419353
127	0x3b2cfd85	0.0026396227
128	0x3cf18c21	0.029485764
129	0x3b8b6bf3	0.004254812
130	0x3c8cd08a	0.017189283
131	0x3a0c0229	0.0005340898
132	0x3c1829bf	0.009287297
133	0x3aec7f00	0.001804322
134	0x3baa42f9	0.005195972
135	0x3bc4a5ed	0.006001225
136	0x3b1710ea	0.0023050853
137	0x3d001773	0.031272363
138	0x3b17327d	0.0023070865
139	0x3b4be211	0.0031110088
140	0x3c220a56	0.00989016
141	0x3aca959e	0.0015455966
142	0x3cdb475b	0.026767423
143	0x3b6ba5b9	0.0035956933
144	0x3c7c0525	0.015382086
145	0x3c3a78af	0.011381312
146	0x3c7a8f7a	0.015292997
147	0x3b3702c4	0.0027925232
148	0x3c3d7c41	0.011565269
149	0x3b143aed	0.002261813
150	0x3c3f2a71	0.011667834
151	0x3d5d7132	0.05406303
152	0x3cad961c	0.021189742
153	0x3ba6898f	0.005082316
154	0x3ca71fa7	0.020400835
155	0x3c6e93ba	0.014561588
156	0x3b989b85	0.0046572112
157	0x3c39acfb	0.011332746
158	0x3c1ad362	0.009449812
159	0x3c975ff6	0.018478375
160	0x3cbcfab0	0.023068756
161	0x3c1bd1e3	0.00951049
162	0x3caf8e70	0.021430224
163	0x3be132be	0.006872504
164	0x3c140c45	0.009036128
165	0x3c414e80	0.011798501
166	0x3a91fdfb	0.0011138314
167	0x3a57b68c	0.0008228801
168	0x3c73a284	0.01487029
169	0x3a2700f5	0.0006370687
170	0x3c639878	0.013891332
171	0x3c060a99	0.008181238
172	0x3d308bfd	0.043102253
173	0x3c869ba0	0.01643163
174	0x3a7f0c2e	0.0009729293
175	0x3acf4917	0.0015814629
176	0x3a74f666	0.00093445776
177	0x3a1993fa	0.0005858537
178	0x3bfd61ec	0.0077326205
179	0x3c268dcf	0.010165646
180	0x3a2f67b1	0.00066911714
181	0x3ad89485	0.0016523754
182	0x3c3c91fc	0.011509415
183	0x3c60a64e	0.013711525
184	0x3c0c960f	0.008580699
185	0x3bdc51cb	0.0067236177
186	0x3aba9ac7	0.0014236801
187	0x3bb15975	0.0054122754
188	0x3b93c405	0.0045094513
189	0x3b6177af	0.0034403612
190	0x3c3b7eb5	0.0114437835
191	0x3c88bc56	0.016691368
192	0x3b1fee13	0.0024403378
193	0x3c2725f9	0.0102019245
194	0x3b3e3eb1	0.0029029066
195	0x3a88aed2	0.0010428077
196	0x3bde0d16	0.0067764623
197	0x3c8c1ebc	0.017104499
198	0x3b40cc8b	0.0029418792
199	0x3bb123d8	0.0054058842
200	0x3b533659	0.0032228439
201	0x3b31931f	0.0027095748
202	0x3d17764d	0.036978055
203	0x3b0efda9	0.0021818674
204	0x3cabacb8	0.020956382
205	0x3c85ed5e	0.016348537
206	0x3aed8ba4	0.0018123281
207	0x3b73d305	0.0037204635
208	0x3c55e4bb	0.013055022
209	0x3be61303	0.0070213093
210	0x3c8cf5e3	0.017207092
211	0x3ba40d0e	0.005006439
212	0x3cf4c4e1	0.029879035
213	0x3afa3692	0.001908975
214	0x3bd7e996	0.006589125
215	0x3b33ed90	0.002745483
216	0x3c6b81a0	0.014374167
217	0x3aefca67	0.0018294574
218	0x3c3c57f3	0.011495578
219	0x3b408247	0.0029374526
220	0x3bef7ae2	0.00730835
221	0x3ca5610b	0.020187875
222	0x3a2db575	0.00066264655
223	0x3b253a2d	0.0025211677
224	0x34a8707d	3.1374285e-07
225	0x31ad0e41	5.036583e-09
226	0x33da86a1	1.0175905e-07
227	0x3237dbf8	1.0702017e-08
228	0x328a0ebb	1.6072013e-08
229	0x3470cd30	2.2426389e-07
230	0x34934d1f	2.7436997e-07
231	0x32c1ecab	2.2575781e-08
232	0x3258110a	1.2576729e-08
233	0x3183bdef	3.8341947e-09
234	0x33e93191	1.0858924e-07
235	0x320c884e	8.180065e-09
236	0x33957fdf	6.961613e-08
237	0x319875cc	4.437174e-09
238	0x34070567	1.257482e-07
239	0x31bfadcf	5.5785914e-09
240	0x333473ce	4.201484e-08
241	0x3304186b	3.0755853e-08
242	0x335e32bb	5.1734542e-08
243	0x3331614c	4.1299515e-08
244	0x341ed0cd	1.4790858e-07
245	0x331048eb	3.359393e-08
246	0x3117894c	2.2051436e-09
247	0x331c96b4	3.6458644e-08
248	0x344293a3	1.8121368e-07
249	0x33c72779	9.27384e-08
250	0x32806c14	1.495031e-08
251	0x32df3feb	2.5989683e-08
252	0x3c2482cb	0.010040949
253	0x3c83a2dc	0.016068868
254	0x3c04cbdb	0.008105244
255	0x3b814e9c	0.0039461385

exp_avg f4 [10]
0	0xba03b11c	-0.0005023645
1	0x255355ca	1.8330399e-16
2	0xb993f4d4	-0.00028220436
3	0x3b85d62c	0.004084369
4	0xbad01a60	-0.0015877001
5	0xbb5aa0ba	-0.003335996
6	0xbb6cbd5e	-0.0036123614
7	0x3b19e98a	0.0023485147
8	0xb6510e6a	-3.1151817e-06
9	0x3ab2eab8	0.0013650274

exp_avg_sq f4 [10]
0	0x39a62d12	0.00031695567
1	0x30b28a49	1.2990508e-09
2	0x3a2c3632	0.0006569355
3	0x3a45a9ce	0.00075402565
4	0x3a1aab7b	0.00059001864
5	0x3a2aa0ef	0.00065089663
6	0x39c367f8	0.0003727076
7	0x3a0bd03a	0.00053334574
8	0x338d82bb	6.589604e-08
9	0x3a4fddd7	0.000792948

net.net.1.weight f4 [28, 784]
0	0x39de8220	0.0004244009
1	0xbc99e295	-0.0187848
2	0x3bb54576	0.005531962
3	0xbc956627	-0.018237187
4	0x3a58a1bc	0.00082638464
5	0xbc21b5ac	-0.009869974
6	0x3bb7eb55	0.0056127706
7	0x3c88f027	0.016716076
8	0xbc3b6843	-0.011438432
9	0x3bfb3312	0.007666
10	0x3b4c0d6d	0.0031135932
11	0x3c85f0d1	0.016350182
12	0x3c6c81e1	0.014435262
13	0xba1237fe	-0.00055778015
14	0x3ca8c2b1	0.020600649
15	0x3b817ec8	0.003951881
16	0x3c413042	0.011791291
17	0xbcb7498b	-0.022373935
18	0xbc95d0e5	-0.018288085
19	0x3ca4bf7e	0.020110842
20	0xbca999e9	-0.020703273
21	0x3b005a9e	0.0019585262
22	0x3c89c61f	0.016818104
23	0xbb985b5b	-0.0046495623
24	0x3a88d9a8	0.0010440843
25	0x3bc38cbf	0.005967706
26	0xbcb0c4f6	-0.021578293
27	0x3c67c4f5	0.014146079
28	0xbc02d1cd	-0.007984591
29	0x396583ed	0.00021888288
30	0x3c38072c	0.011232179
31	0x3cd5a82b	0.026081165
32	0x3ba3d4c1	0.0049997275
33	0xbc95ff94	-0.018310346
34	0x3c11bd8b	0.008895288
35	0xbcc181a0	-0.02362138
36	0x3c16441f	0.009171515
37	0x3acaa6e9	0.001546112
38	0x3c8a409a	0.016876508
39	0x3bb999f1	0.005664103
40	0xbca27560	-0.01983136
41	0x3cc4897f	0.023991344
42	0xbc9391c8	-0.01801385
43	0x3c128d74	0.008944858
44	0x3b7fc490	0.0039027072
45	0xbca2c39b	-0.019868663
46	0x3c60909e	0.013706354
47	0x3cb48b0c	0.022038959
48	0x3ca0e901	0.019642355
49	0x3bf7b1c7	0.0075590345
50	0x3c9fb166	0.01949377
51	0x3cb1ba3e	0.021695253
52	0x3c627461	0.013821692
53	0xbc7275b7	-0.014798573
54	0x3c6d9de4	0.014502976
55	0xbcc380cd	-0.023865128
56	0x3cacfcf2	0.021116707
57	0x39f77174	0.0004719604
58	0x3ca0dbea	0.019636113
59	0xbc3661e4	-0.011131737
60	0xbad2b856	-0.0016076665
61	0x3cb3b0d7	0.02193491
62	0xbbe3aa90	-0.006947823
63	0x39ee15c2	0.00045411108
64	0xbb70827b	-0.0036698866
65	0x3c82e36d	0.015977586
66	0xbc64b0bf	-0.013958155
67	0xbbcc5d78	-0.0062367283
68	0x3c0a3a52	0.008436756
69	0x3cf137fe	0.029445644
70	0x3c514cce	0.012774659
71	0xbc4f2d4d	-0.012645078
72	0xbcd18ed6	-0.025580805
73	0x3c50494e	0.01271279
74	0xbcf810b4	-0.030281402
75	0xbc80a810	-0.015705138
76	0xbc224fbd	-0.009906706
77	0xbb85314a	-0.0040647136
78	0xbbd74dc3	-0.006570549
79	0xbbc892bc	-0.0061210077
80	0xbc392075	-0.011299242
81	0x3a50138a	0.0007937482
82	0x3c9b9464	0.018991657
83	0xbc70d0d6	-0.014698228
84	0x3b8ca388	0.0042919554
85	0x3bb85667	0.0056255343
86	0xbaf7b7f4	-0.0018899427
87	0xbbd0c825	-0.0063715153
88	0xbcafa112	-0.021439109
89	0xbd08a84a	-0.033363618
90	0x39fe693c	0.0004852506
91	0x3afb1e1e	0.0019158756
92	0xbcf79b02	-0.03022528
93	0x3c862b6a	0.016378123
94	0x3ca46d5a	0.020071674
95	0x3c9e68a4	0.019337006
96	0xbcb5e49c	-0.022203736
97	0xbc9bf492	-0.019037519
98	0x3cb86cd7	0.022512836
99	0xbc7b9d99	-0.015357398
100	0xbcaa326a	-0.020775992
101	0xbd5504b6	-0.052006446
102	0xbd22a890	-0.039711535
103	0xbca1bf97	-0.019744677
104	0xbd3144ac	-0.04327838
105	0xbccb2618	-0.024798438
106	0xbc8f9ef2	-0.017531846
107	0xbc497ece	-0.012298299
108	0xbcbb0449	-0.022829192
109	0xbb82f648	-0.003996644
110	0xbbb63a95	-0.0055611827
111	0x3c94a428	0.018144682
112	0xba24f356	-0.00062923634
113	0xbc0c0948	-0.008547135
114	0x3bf0905f	0.007341429
115	0xbb8fed6f	-0.004392318
116	0x3b974159	0.0046159443
117	0xbd076936	-0.03305932
118	0xbd67396f	-0.056451257
119	0xbd46f269	-0.048571024
120	0xbd44bfd9	-0.048034523
121	0x3cf8138d	0.03028276
122	0x3ccc9df1	0.024977656
123	0x3d6e5664	0.058187857
124	0x3d936ab0	0.071980834
125	0x3d9ec408	0.07752234
126	0xbbc29f38	-0.0059393905
127	0xbc33e9fc	-0.010981079
128	0x3c008e05	0.00784636
129	0xbd27b1b0	-0.04094094
130	0xbd7fdd82	-0.062467106
131	0x3bb76b8c	0.0055975374
132	0x3d80bcdb	0.06286021
133	0x3b9e0925	0.0048228675
134	0x3d3b0c75	0.045666177
135	0x3d208c58	0.039196342
136	0x3ca94c29	0.020666199
137	0x3b3bff5a	0.0028686137
138	0xbce19c88	-0.02754046
139	0xbc8f611b	-0.017502358
140	0xbca944c8	-0.02066268
141	0x38024a84	3.1063813e-05
142	0xbcb25b42	-0.02177203
143	0x3b68a5cf	0.003549922
144	0xbd016a1d	-0.031595338
145	0xbd9ab6af	-0.075543754
146	0xbdafc9ff	-0.085834496
147	0xbd74fa37	-0.059808936
148	0x3cad37bd	0.021144742
149	0x3d8a705d	0.06759713
150	0x3d582c80	0.052776814
151	0x3d42d9f6	0.047571145
152	0x3d642b40	0.05570531
153	0x3a857a40	0.0010183528
154	0x3cdec9e1	0.027195873
155	0xbcd953f0	-0.026529282
156	0xbcc73e91	-0.024321826
157	0xbcea4101	-0.02859545
158	0xbd5ec2ae	-0.05438488
159	0xbbcc6304	-0.0062373895
160	0xbc7a01ef	-0.01525925
161	0x3d4a19c4	0.04934098
162	0x3d2958e7	0.04134455
163	0x3d987b87	0.07445436
164	0x3cf256f9	0.029582487
165	0x3c4712fb	0.012150521
166	0xbccdc37d	-0.02511763
167	0x3cb780ff	0.022400377
168	0xbc3736db	-0.011182512
169	0x3c9fb298	0.01949434
170	0x3bba425f	0.0056841816
171	0xbc534fec	-0.012897473
172	0xbd328213	-0.04358108
173	0xbceb0db3	-0.028693056
174	0xbc835f8b	-0.01603677
175	0x3d20c3ea	0.03924934
176	0x3da1da0b	0.079029165
177	0x3d845dbb	0.0646319
178	0x3d0c3de3	0.034238707
179	0x3ca303ef	0.019899337
180	0x3cd70089	0.026245372
181	0xbca0ca4c	-0.019627713
182	0xbd8578e0	-0.06517196
183	0xbddda02e	-0.108215675
184	0xbdeec562	-0.116587415
185	0xbd31a9e7	-0.043374922
186	0xbcd83d70	-0.026396483
187	0x3cfac57d	0.030611748
188	0xba93083a	-0.0011217662
189	0x3cc27791	0.023738654
190	0x3dd6619b	0.104678355
191	0x3de164a0	0.11005521
192	0x3d6e48fb	0.05817507
193	0xbce49efd	-0.027907843
194	0x3c58e847	0.013238973
195	0xbbc0346e	-0.005865625
196	0xbc8e28b7	-0.017353399
197	0x3c2eed1a	0.010676647
198	0xbcd69af2	-0.02619693
199	0xbd291b26	-0.041285656
200	0xbc8c356c	-0.017115317
201	0x3cad1a40	0.021130681
202	0x3dbb1293	0.09134402
203	0x3d8a0aa7	0.06740313
204	0x3d7424ed	0.059605528
205	0x3dca59d2	0.09880413
206	0x3dcbc228	0.09949142
207	0x3c9142e7	0.017732097
208	0xbc8e61b1	-0.017380567
209	0xbd812843	-0.063065074
210	0xbe056980	-0.13028526
211	0xbdd8f3e4	-0.105933934
212	0xbd4d63c2	-0.050143965
213	0x3c5571d4	0.013027627
214	0x3d49d0aa	0.049271263
215	0x3d3ffe51	0.046873394
216	0x3b5b3d42	0.003345326
217	0x3cf66b9a	0.030080605
218	0x3d7cf0f8	0.061753243
219	0x3ddf2af0	0.108968616
220	0x3d8afc8d	0.067864515
221	0x3c8a9efe	0.016921517
222	0xbcc3d17d	-0.023903603
223	0x3adaebec	0.001670239
224	0xbb7751d9	-0.0037737994
225	0xbc5a319f	-0.013317495
226	0x3be70d86	0.0070511727
227	0x3baee539	0.005337384
228	0xbc556e00	-0.013026714
229	0x3db9016a	0.09033473
230	0x3d8b8e1d	0.06814215
231	0x3db70aaa	0.08937581
232	0x3d88af69	0.06674082
233	0x3ddf825b	0.10913535
234	0x3ddde1af	0.10834061
235	0x3d982c46	0.074303195
236	0xbc20d35c	-0.009816017
237	0xbe1ed6b6	-0.15511593
238	0xbe1dbf5e	-0.15405032
239	0xbde5f29b	-0.11227914
240	0xbcb6902d	-0.022285545
241	0x3d28e7ed	0.041236807
242	0x3d73b0c2	0.05949474
243	0xbb2152e3	-0.0024616055
244	0x3bdece35	0.006799484
245	0xbc6c3bbb	-0.014418538
246	0x3bc080e7	0.0058747414
247	0x3dcce6f0	0.10004985
248	0x3d6a8092	0.05725152
249	0xbc25e9d2	-0.010126548
250	0xbb9d0118	-0.00479139
251	0xbc7fd317	-0.015614293
252	0xbb1a946a	-0.0023586997
253	0x3c125b31	0.008932875
254	0x3bbbf1d6	0.005735616
255	0x3cf8f313	0.030389344

net.net.1.bias f4 [28]
0	0xbc1c4f95	-0.009540458
1	0xbd008258	-0.031374305
2	0x3cc08bd2	0.023504172
3	0xbc4f95f6	-0.012670031
4	0x3c967366	0.018365573
5	0x3cbf1a0e	0.023327854
6	0x3c3eb459	0.011639678
7	0x3a5434fb	0.0008095053
8	0x3b9b0a90	0.0047314838
9	0x3cfd419f	0.03091508
10	0xbd12a818	-0.035804838
11	0x3d10a509	0.03531364
12	0x3c6dca50	0.014513567
13	0x3c502c15	0.0127058225
14	0xbcd93b3f	-0.026517509
15	0x3d29817f	0.041383263
16	0xbc702b56	-0.01465877
17	0x3cdd0598	0.026980206
18	0xbb0c01eb	-0.0021363448
19	0x3caa8ba8	0.020818546
20	0x3d4d8514	0.05017574
21	0xbcc0c159	-0.023529695
22	0xbc9583c3	-0.018251305
23	0x3cabff2c	0.020995699
24	0xbcb1dd8e	-0.02171209
25	0xbc3ab1c8	-0.011394925
26	0xbacc4974	-0.0015585856
27	0xbc3d8a8c	-0.011568677

net.net.3.weight f4 [10, 28]
0	0x3e5da4ef	0.21644948
1	0xbe6ab527	-0.22920667
2	0xbd493cb6	-0.049130164
3	0xbe9808cc	-0.2969421
4	0x3da04353	0.07825341
5	0x3c87d375	0.016580323
6	0xbe0ed7d4	-0.1394952
7	0x3e17f6ec	0.14840287
8	0xbdb61802	-0.08891298
9	0xbcb76926	-0.022389006
10	0x3dd5ac3a	0.1043324
11	0xbe211562	-0.15730813
12	0x3df2cc63	0.1185539
13	0x3dcb9b00	0.09941673
14	0xbe7e4fdf	-0.24835156
15	0xbe8e2287	-0.27760717
16	0x3ce69afe	0.028150078
17	0xbd542307	-0.051791217
18	0xbdf8d3c0	-0.12149763
19	0x3e6bc6be	0.23025033
20	0x3e576665	0.21035154
21	0xbca8a0c6	-0.020584475
22	0xbe9703f3	-0.294952
23	0x3e75ee80	0.24016762
24	0x3e6bb492	0.23018101
25	0xbe21d249	-0.15802874
26	0xbe03006f	-0.12793134
27	0xbd8ba3f2	-0.068183795
28	0xaa40064e	-1.7055213e-13
29	0x0d40f91d	5.9464427e-31
30	0xb93a0600	-0.00017740577
31	0xaca37941	-4.6462005e-12
32	0x2dc04501	2.1858517e-11
33	0xb91d2382	-0.00014985914
34	0xa4e69100	-9.999224e-17
35	0xa80df422	-7.88001e-15
36	0x905c3989	-4.3431673e-29
37	0x80060714	-5.53552e-40
38	0xa72705c2	-2.3179027e-15
39	0xae8fc7ab	-6.538355e-11
40	0x22c6e6f0	5.3912522e-18
41	0xa2bd9183	-5.138262e-18
42	0xb7850dd7	-1.586128e-05
43	0xb6df3855	-6.652476e-06
44	0xb7e7270d	-2.755553e-05
45	0x99d7c2a1	-2.2309089e-23
46	0xb64fa591	-3.0941776e-06
47	0xa773366a	-3.3752522e-15
48	0xa26df96e	-3.2251536e-18
49	0x0006a7dc	6.1123e-40
50	0xb463bf4a	-2.1210613e-07
51	0xb6df25e6	-6.65033e-06
52	0x859d15f5	-1.4772275e-35
53	0xac532cc8	-3.0009762e-12
54	0x000d73f6	1.23546e-39
55	0xb7d537ac	-2.5417503e-05
56	0xbe89458e	-0.2681088
57	0xbe3ed847	-0.18637191
58	0xbc876a87	-0.016530288
59	0x3c32db63	0.010916564
60	0x3e45b194	0.19306022
61	0x3dd29293	0.10281863
62	0x3d879086	0.066193625
63	0x3e808b3e	0.25106233
64	0x3d9a224a	0.07526071
65	0x3e4a8dae	0.19780609
66	0xbde4d25e	-0.11172937
67	0xbe158419	-0.14601173
68	0x3e229fba	0.15881243
69	0x3d2faab3	0.0428874
70	0xbe94763b	-0.28996453
71	0x3deed280	0.116612434
72	0x3e26a23c	0.16272825
73	0x3cfdb8d4	0.030971922
74	0xbe353f17	-0.17699848
75	0x3e65d7c8	0.22445595
76	0xbe3a1466	-0.18171844
77	0x3d9d1293	0.076695584
78	0xbd0ea43a	-0.034824587
79	0x3e7778e7	0.24167214
80	0xbe100b2b	-0.1406676
81	0xbe3af342	-0.18256858
82	0xbea01fce	-0.31274265
83	0x3e8a4f31	0.27013543
84	0xbeb82dd2	-0.35972458
85	0x3dc369ec	0.09541687
86	0x3d79cd93	0.060987066
87	0xbeca869a	-0.39555818
88	0x3d437520	0.04771912
89	0xbe406333	-0.18787841
90	0x3e2fc426	0.17164668
91	0xbe07a4ec	-0.13246506
92	0xbd4e3864	-0.050346747
93	0x3e41cd9f	0.18926094
94	0xbe2f4964	-0.1711784
95	0x3e319040	0.17340183
96	0x3e46e101	0.1942177
97	0x3e2d213c	0.16907209
98	0xbe40481b	-0.18777506
99	0x3df7030e	0.120611295
100	0xbe452da2	-0.19255689
101	0xbe106dc2	-0.1410437
102	0x3e1f1a79	0.15537442
103	0xbdb29c3a	-0.08721204
104	0x3e5ef9ea	0.21775022
105	0xbe290800	-0.16506958
106	0x3d8904cd	0.06690369
107	0x3c5686a1	0.0130936215
108	0x3d698d69	0.057019625
109	0xbe4ea7c7	-0.2018119
110	0xbdfe6546	-0.1242166
111	0x3e428771	0.1899698
112	0x3e90bd72	0.28269535
113	0xbbcbd58c	-0.006220525
114	0x3e0a28e9	0.13492168
115	0xbe329a33	-0.17441635
116	0x3d8c98d0	0.06865084
117	0x3d95c48b	0.07312878
118	0x3de94f04	0.11392024
119	0xbe175fd4	-0.1478265
120	0xbe47f2f3	-0.19526272
121	0xbeae1ced	-0.34006444
122	0xbe95be53	-0.29246768
123	0xbe14d9d0	-0.14536214
124	0xbea362ad	-0.3191122
125	0xbd1a9844	-0.037742868
126	0x3e7e678e	0.2484419
127	0xbe707e88	-0.23485768
128	0x3def7c1b	0.11693593
129	0xbe8182fd	-0.2529525
130	0x3e8f6be8	0.28012013
131	0xbebc3cb1	-0.36765054
132	0x3c764e5c	0.015033331
133	0xbe524418	-0.20533788
134	0xbe95a2e8	-0.2922585
135	0xbbc9d2e6	-0.0061591743
136	0xbe89b6ef	-0.2689738
137	0x3da2c673	0.079480074
138	0x3d0afaff	0.033930775
139	0x3dfe2ddc	0.12411091
140	0x3c983534	0.018580057
141	0xbeae15bc	-0.34000957
142	0x3da3d811	0.08000196
143	0xbe8b3b92	-0.27193886
144	0x3d9d8221	0.07690836
145	0x3c20aaa3	0.009806308
146	0xbd0a8c68	-0.033825308
147	0x3dcc9478	0.09989256
148	0x3ea66779	0.32500818
149	0xbe273ae9	-0.16331066
150	0xbe1f46dc	-0.15554374
151	0x3e3a9432	0.18220595
152	0x3dd5c561	0.10438038
153	0x3e715f18	0.23571432
154	0x3d4159cf	0.04720479
155	0x3d6ea439	0.058262084
156	0xbed28cc2	-0.41123015
157	0x3bb37df4	0.0054776613
158	0x3e41a162	0.18909219
159	0x3e5f789d	0.21823354
160	0x3d37278f	0.04471546
161	0x3eed7a48	0.46382356
162	0xbe11a2ae	-0.14222214
163	0xbe951586	-0.29117984
164	0xbd2b5823	-0.0418321
165	0xbdb6529d	-0.08902476
166	0x3ce37e51	0.027770193
167	0xbe1f783e	-0.15573213
168	0x3de3c1bc	0.11120936
169	0xbe227525	-0.15865
170	0xbd895530	-0.06705701
171	0x3c39b2ba	0.011334116
172	0x3eb403a9	0.35159042
173	0xbd55af96	-0.052169405
174	0xbec305b1	-0.3809028
175	0x3d77a70f	0.060462054
176	0xbedd702b	-0.4324964
177	0xbde3bf19	-0.11120433
178	0x3d4f3b61	0.050593738
179	0xbdb06b50	-0.08614218
180	0xbe7f840d	-0.24952717
181	0x3d805eae	0.06268059
182	0x3dc73360	0.09726596
183	0x3d3e262e	0.04642313
184	0x3c8a65ea	0.0168943
185	0x3b281155	0.0025645096
186	0x3d4dfcfb	0.05029009
187	0x3c333e2c	0.010940116
188	0x3db5ae29	0.08871109
189	0x3dcb5e27	0.099300675
190	0xbdd04a24	-0.10170391
191	0x3d8e8dca	0.06960638
192	0xbe3fcb49	-0.18729891
193	0x3cac39f4	0.021023728
194	0x3e44b6ee	0.19210407
195	0xbe39606f	-0.18103193
196	0x3e16e5d8	0.14736116
197	0x3e6109a5	0.21976335
198	0xbe593d3a	-0.21214762
199	0xbd8e1e64	-0.0693939
200	0xbdba3d8f	-0.090937726
201	0xbeb5299f	-0.35383317
202	0x3e174288	0.14771473
203	0x3d7596f5	0.059958417
204	0x3e6120bc	0.21985143
205	0x3e8ed9d0	0.27900553
206	0xbe8cc98a	-0.27497512
207	0xbefeb018	-0.49743724
208	0x3e2be4d6	0.16786513
209	0x3eb62097	0.3557174
210	0xbdb35458	-0.08756322
211	0x3c28930d	0.010288966
212	0x3d4472d0	0.047961056
213	0xbe8e36d0	-0.27776194
214	0xbc5f701e	-0.013637571
215	0xbd6c9611	-0.057760302
216	0x3dd0afd2	0.10189785
217	0x3c940faa	0.018073875
218	0xbd291a79	-0.041285012
219	0xbdc33cc2	-0.09533073
220	0xbd68e75c	-0.056861266
221	0x3dea1192	0.114291325
222	0xbe30ffe1	-0.1728511
223	0x3e1f7ad3	0.15574197
224	0x3c33953e	0.010960875
225	0xb8901eeb	-6.872214e-05
226	0xbc647412	-0.013943689
227	0xba2e1c4b	-0.0006641789
228	0xbb4ba53b	-0.0031073827
229	0xbc049354	-0.008091766
230	0x3c3d1b45	0.011542146
231	0xbb2d27d9	-0.0026421456
232	0xbb092717	-0.002092784
233	0xb969ce68	-0.00022297504
234	0x3a8ac48a	0.0010587138
235	0xb92b8731	-0.00016358194
236	0xbbb3441e	-0.0054707667
237	0xba1ad37b	-0.0005906147
238	0xbc072a08	-0.008249767
239	0xb7ae5867	-2.0783582e-05
240	0xbbd11787	-0.0063809785
241	0xbb613779	-0.003436534
242	0x396322b7	0.00021661339
243	0xbb9c282d	-0.0047655315
244	0xbc1b6940	-0.009485543
245	0xba1f6aa1	-0.00060812576
246	0xba01f90b	-0.000495807
247	0xbbacfe8c	-0.005279368
248	0xbcbfbc8f	-0.023405341
249	0xbbdaae21	-0.00667359
250	0xbb1b1e1b	-0.0023669067
251	0xba98e677	-0.0011665364
252	0xbda7663b	-0.08173796
253	0x3df008a7	0.117204
254	0xbe50f9b9	-0.20407762
255	0xbe9ffe1c	-0.31248558

net.net.3.bias f4 [10]
0	0x3e0768c6	0.13223562
1	0x2aad7e08	3.0818425e-13
2	0xbc21c7d9	-0.009874308
3	0x3d93fad6	0.072255775
4	0xbd75aadb	-0.059977394
5	0x3de0385f	0.10948252
6	0xbcadcf91	-0.02121714
7	0xbe3a27b0	-0.18179202
8	0xbc1a8a31	-0.009432361
9	0xbd525c4a	-0.051357545
