logs/mnist/023-mnist_fc/latest.ckpt (torch_old, 269554 bytes, 12 tensors)

exp_avg f4 [28, 784]
0	0x38b2f903	8.5340835e-05
1	0x38b2a93e	8.519225e-05
2	0x38b30e36	8.538032e-05
3	0x38b2ab88	8.5196516e-05
4	0x38b2faaf	8.534395e-05
5	0x38b2ce4c	8.526127e-05
6	0x38b30e90	8.5380976e-05
7	0x38b33cae	8.5466876e-05
8	0x38b2c7ca	8.524915e-05
9	0x38b31719	8.5396874e-05
10	0x38b3042a	8.536161e-05
11	0x38b33b24	8.546401e-05
12	0x38b3bad8	8.5701875e-05
13	0x38b3ffcc	8.583031e-05
14	0x38b32b87	8.543493e-05
15	0x38b3064e	8.5365595e-05
16	0x38b32839	8.542877e-05
17	0x38b29a58	8.51645e-05
18	0x38b2ab56	8.519615e-05
19	0x38b34ac8	8.549314e-05
20	0x38b2a14b	8.5177446e-05
21	0x38b2ff60	8.535269e-05
22	0x38b33d1a	8.546766e-05
23	0x38b2e3ef	8.530157e-05
24	0x38b2fb98	8.5345644e-05
25	0x38b3100d	8.538375e-05
26	0x38b29da7	8.5170665e-05
27	0x38b33206	8.544703e-05
28	0x38b2d61a	8.527581e-05
29	0x38b2f829	8.533925e-05
30	0x38b325e5	8.5424435e-05
31	0x38b36397	8.553935e-05
32	0x38b30c07	8.5376254e-05
33	0x38b2aad7	8.519523e-05
34	0x38b261a8	8.505891e-05
35	0x38b17d9b	8.4634135e-05
36	0x38b07437	8.413981e-05
37	0x38b3726a	8.5566964e-05
38	0x38b93487	8.8312714e-05
39	0x38b61125	8.68163e-05
40	0x38b2c679	8.52467e-05
41	0x38b4a0e2	8.6130356e-05
42	0x38bb4be3	8.93099e-05
43	0x38b1b005	8.472804e-05
44	0x38b1d796	8.480174e-05
45	0x38b1ebbc	8.483927e-05
46	0x38b335f7	8.545437e-05
47	0x38b36a98	8.55524e-05
48	0x38b351ca	8.5506195e-05
49	0x38b31634	8.539521e-05
50	0x38b346c8	8.548569e-05
51	0x38b34fa6	8.550221e-05
52	0x38b330ab	8.54445e-05
53	0x38b2b9cd	8.5223095e-05
54	0x38b3337a	8.5449734e-05
55	0x38b29420	8.515292e-05
56	0x38b34ef3	8.5500906e-05
57	0x38b2f93c	8.534125e-05
58	0x38b348d2	8.548949e-05
59	0x38b2aaf0	8.519541e-05
60	0x38b2f267	8.5328524e-05
61	0x38b35dd8	8.552865e-05
62	0x38b2fa87	8.534366e-05
63	0x38b0deaa	8.4338084e-05
64	0x38a4c402	7.856639e-05
65	0x3898b33c	7.28131e-05
66	0x38af7252	8.365944e-05
67	0x38b9ff1c	8.869005e-05
68	0x38afacd5	8.376843e-05
69	0x38b69dfe	8.7078646e-05
70	0x3896b32d	7.1859315e-05
71	0x389d5813	7.5027485e-05
72	0xba1c0ffd	-0.000595331
73	0xbac48e14	-0.0014995956
74	0xb99cd10d	-0.00029910394
75	0x38ae70b7	8.317961e-05
76	0x38b007b6	8.39377e-05
77	0x38b48f82	8.609799e-05
78	0x38ba87ed	8.894489e-05
79	0x38b45fd4	8.600918e-05
80	0x38b2a3ea	8.518233e-05
81	0x38b2fab2	8.534397e-05
82	0x38b34621	8.548448e-05
83	0x38b2ba39	8.522388e-05
84	0x38b3090f	8.5370724e-05
85	0x38b30e9c	8.538106e-05
86	0x38b2ef67	8.5322936e-05
87	0x38b29158	8.514774e-05
88	0x38b3b10a	8.568361e-05
89	0x38a47058	7.841055e-05
90	0x389fb942	7.616218e-05
91	0x38acb602	8.235501e-05
92	0xb88623ac	-6.396262e-05
93	0xb8ffb1ed	-0.00012192489
94	0x37b0dadd	2.1082751e-05
95	0x389b86f1	7.416111e-05
96	0x386a3e83	5.5848166e-05
97	0x3857016e	5.1261326e-05
98	0x38a57129	7.888891e-05
99	0xb9fedc8a	-0.0004861097
100	0xba9dd384	-0.0012041186
101	0xbaabd853	-0.0013110734
102	0xba2abeda	-0.00065134245
103	0x391d60be	0.00015008726
104	0x39056b01	0.0001272373
105	0x38f562ab	0.00011700889
106	0x38e63948	0.00010977924
107	0x38ca8108	9.6561445e-05
108	0x38b201d0	8.488039e-05
109	0x38b30b41	8.537481e-05
110	0x38b2e029	8.5294545e-05
111	0x38b34299	8.54779e-05
112	0x38b2f4aa	8.533274e-05
113	0x38b2d30d	8.527013e-05
114	0x38b3158b	8.539398e-05
115	0x38b4cd26	8.621281e-05
116	0x38b5aea7	8.663284e-05
117	0x38770678	5.8895414e-05
118	0x37fa1710	2.9813062e-05
119	0x37b29886	2.1290278e-05
120	0xba87f458	-0.0010372503
121	0xbaa98e60	-0.0012936108
122	0xb9d52b3f	-0.00040658747
123	0xb99f5574	-0.0003039051
124	0xb980683c	-0.00024491723
125	0xb98cac41	-0.0002683122
126	0xb949da9a	-0.00019250289
127	0xba3b4519	-0.000714378
128	0xba3538ff	-0.0006913095
129	0xba1054d5	-0.0005505805
130	0xb948d6ba	-0.00019153478
131	0x3a07a331	0.0005174159
132	0x3a0d8e9d	0.0005399974
133	0x3945c72d	0.00018861583
134	0x3904c6f4	0.00012662617
135	0x38df29d8	0.000106412626
136	0x38b7ed15	8.77028e-05
137	0x38b1712d	8.461098e-05
138	0x38b05546	8.4082174e-05
139	0x38b2ae93	8.5202184e-05
140	0x38b2a173	8.517774e-05
141	0x38b2f765	8.533782e-05
142	0x38b29e1d	8.517152e-05
143	0x38ad5ded	8.266778e-05
144	0x3892b694	6.99583e-05
145	0x387e5f62	6.064715e-05
146	0x37d421eb	2.5288164e-05
147	0x37b1390a	2.1126605e-05
148	0xbaa5791e	-0.0012624597
149	0xbacf6275	-0.0015822189
150	0xbad8de87	-0.001654581
151	0xbac70181	-0.0015182943
152	0xbaf8d94d	-0.0018985659
153	0xbac9bbeb	-0.0015391087
154	0xba91afa7	-0.001111497
155	0xb967ebc5	-0.00022117708
156	0x3a043fe2	0.00050449197
157	0xba07c203	-0.00051787513
158	0xb8f6d6df	-0.00011770217
159	0x3893dc78	7.050572e-05
160	0x39ac3232	0.00032843795
161	0x39fed403	0.00048604616
162	0x3906f74c	0.00012871361
163	0x38c02f44	9.164077e-05
164	0x38ba3de4	8.880699e-05
165	0x38a5a114	7.897816e-05
166	0x38a93ab9	8.069486e-05
167	0x38b34f4d	8.550156e-05
168	0x38b2c8d2	8.525107e-05
169	0x38b34836	8.5488355e-05
170	0x38bae016	8.9109104e-05
171	0x3891bbd0	6.9491216e-05
172	0x38528f47	5.020134e-05
173	0x385a607d	5.2065112e-05
174	0x36cf2bd9	6.1741853e-06
175	0x384ed8c5	4.931611e-05
176	0xb9944144	-0.00028277386
177	0xbac7b9d2	-0.0015237874
178	0xbb03fb82	-0.0020138924
179	0xbaf03f34	-0.0018329383
180	0xbadab1cf	-0.0016685071
181	0xba87cd23	-0.0010360818
182	0xb90af693	-0.00013252562
183	0x3a161ee6	0.000572665
184	0x3a526a1f	0.00080266775
185	0xb92f123f	-0.00016696098
186	0x39ba52c9	0.00035538364
187	0x3887b08e	6.4701875e-05
188	0x3873741b	5.8043846e-05
189	0x39dd1d8e	0.00042174425
190	0x39a8249a	0.00032070727
191	0x38a7a10b	7.993177e-05
192	0x38a16443	7.6957534e-05
193	0x38b91813	8.8259716e-05
194	0x38b2467c	8.50083e-05
195	0x38b384d7	8.5601285e-05
196	0x38b2af5f	8.520367e-05
197	0x38b30ade	8.537409e-05
198	0x38c3f01c	9.3430484e-05
199	0x38bccaec	9.002336e-05
200	0xb6dacdf1	-6.520881e-06
201	0x37f73aca	2.947207e-05
202	0xb8f4ed6d	-0.00011679051
203	0xb8d6641b	-0.00010222961
204	0xb93e89b1	-0.00018171106
205	0xb98904ba	-0.00026134198
206	0xba2d5ec8	-0.000661355
207	0xba1b2bfc	-0.0005919335
208	0x39f03ff9	0.0004582403
209	0x3a32903b	0.0006811653
210	0x3a38d3be	0.0007050595
211	0x3a430e30	0.0007440774
212	0x3a0b5bae	0.00053160905
213	0xba6aa528	-0.0008951002
214	0xb9c86cb0	-0.0003822795
215	0xb9e9cd84	-0.00044594344
216	0xb9f66a37	-0.00046999913
217	0xb9d218f5	-0.00040072916
218	0xb83d19cc	-4.5085137e-05
219	0xb933cd5b	-0.00017147271
220	0xb990fcd7	-0.000276542
221	0x38d6c4c6	0.00010240967
222	0x38b4b2c2	8.616365e-05
223	0x38b2624b	8.50601e-05
224	0x38b4d925	8.623515e-05
225	0x38b27f8f	8.511461e-05
226	0x38d80919	0.00010301377
227	0x38ddbd29	0.00010573335
228	0xb779f703	-1.4899068e-05
229	0x37871769	1.6104155e-05
230	0xb97665d5	-0.00023498324
231	0xb9a681cc	-0.00031758694
232	0xb9fae9a2	-0.00047857786
233	0xb9fd0942	-0.00048262818
234	0xb9bdefb8	-0.00036227494
235	0x37b98dd3	2.211976e-05
236	0x39b241ba	0.00033999776
237	0xb7e3c41b	-2.7151827e-05
238	0xb914b333	-0.00014181137
239	0x3a5fa0e9	0.00085307524
240	0x399b8fd0	0.00029671052
241	0xbaa028ff	-0.0012219249
242	0xba57afe1	-0.0008227807
243	0xb9a2b1a1	-0.00031031392
244	0xb9f070e3	-0.00045860474
245	0xb99e5de6	-0.00030206068
246	0xb955e688	-0.00020399143
247	0x36d3a74a	6.307765e-06
248	0xb9574373	-0.00020529125
249	0x38c94525	9.597306e-05
250	0x38943591	7.0671675e-05
251	0x38a4c924	7.857595e-05
252	0x38b2ee27	8.532061e-05
253	0x38b229d6	8.495494e-05
254	0x38b67ce1	8.701697e-05
255	0x38e22de6	0.00010785069

exp_avg_sq f4 [28, 784]
0	0x377d28c3	1.5089466e-05
1	0x377d28d5	1.5089482e-05
2	0x377d28c9	1.5089471e-05
3	0x377d28d9	1.5089486e-05
4	0x377d28c7	1.5089469e-05
5	0x377d28e1	1.5089493e-05
6	0x377d28c9	1.5089471e-05
7	0x377d28c7	1.5089469e-05
8	0x377d28d9	1.5089486e-05
9	0x377d28c5	1.50894675e-05
10	0x377d28c1	1.5089464e-05
11	0x377d28c9	1.5089471e-05
12	0x377d27bd	1.5089227e-05
13	0x377d26cb	1.5089007e-05
14	0x377d28c6	1.5089468e-05
15	0x377d28c5	1.50894675e-05
16	0x377d28ce	1.5089476e-05
17	0x377d28cd	1.5089475e-05
18	0x377d28d7	1.5089484e-05
19	0x377d28cb	1.5089473e-05
20	0x377d28cf	1.5089477e-05
21	0x377d28c1	1.5089464e-05
22	0x377d28c7	1.5089469e-05
23	0x377d28d1	1.5089478e-05
24	0x377d28c3	1.5089466e-05
25	0x377d28c9	1.5089471e-05
26	0x377d28d1	1.5089478e-05
27	0x377d28c9	1.5089471e-05
28	0x377d28d5	1.5089482e-05
29	0x377d28c9	1.5089471e-05
30	0x377d28d0	1.50894775e-05
31	0x377d28c7	1.5089469e-05
32	0x377d28cd	1.5089475e-05
33	0x377d28db	1.50894875e-05
34	0x377d2947	1.5089586e-05
35	0x377d29d8	1.5089718e-05
36	0x377d39f4	1.5093468e-05
37	0x377d2a99	1.5089893e-05
38	0x377d8579	1.5111052e-05
39	0x377d38ca	1.5093197e-05
40	0x377d2d52	1.5090527e-05
41	0x377d5516	1.5099786e-05
42	0x377d9ff9	1.5117222e-05
43	0x377d3c08	1.5093952e-05
44	0x377d2e42	1.5090745e-05
45	0x377d2ad4	1.5089947e-05
46	0x377d291d	1.5089548e-05
47	0x377d28ed	1.5089504e-05
48	0x377d28c5	1.50894675e-05
49	0x377d28c7	1.5089469e-05
50	0x377d28ce	1.5089476e-05
51	0x377d28c9	1.5089471e-05
52	0x377d28cd	1.5089475e-05
53	0x377d28d7	1.5089484e-05
54	0x377d28c5	1.50894675e-05
55	0x377d28d3	1.508948e-05
56	0x377d28cb	1.5089473e-05
57	0x377d28c5	1.50894675e-05
58	0x377d28cc	1.5089474e-05
59	0x377d28c7	1.5089469e-05
60	0x377d28b1	1.5089449e-05
61	0x377d28bd	1.508946e-05
62	0x377d28ad	1.5089446e-05
63	0x377d43b6	1.509574e-05
64	0x377dedae	1.5135314e-05
65	0x378ab118	1.6533348e-05
66	0x3780fba4	1.5375968e-05
67	0x377de8ad	1.5134149e-05
68	0x377f15a4	1.5204223e-05
69	0x37822412	1.5514004e-05
70	0x37819ffe	1.54525e-05
71	0x378152e5	1.54166e-05
72	0x37926fdc	1.7456645e-05
73	0x37966cf3	1.7932127e-05
74	0x377c70df	1.504665e-05
75	0x377d2549	1.5088656e-05
76	0x377d2608	1.508883e-05
77	0x377d5bed	1.5101378e-05
78	0x377e1f0a	1.5146807e-05
79	0x377d703b	1.5106106e-05
80	0x377d28d5	1.5089482e-05
81	0x377d28c3	1.5089466e-05
82	0x377d28ce	1.5089476e-05
83	0x377d28d7	1.5089484e-05
84	0x377d28d1	1.5089478e-05
85	0x377d28c9	1.5089471e-05
86	0x377d28c9	1.5089471e-05
87	0x377d2866	1.5089381e-05
88	0x377d240d	1.5088369e-05
89	0x3780a973	1.5337695e-05
90	0x37822361	1.5513682e-05
91	0x3782a027	1.5571784e-05
92	0x37857a5f	1.5911819e-05
93	0x379d80f2	1.8775903e-05
94	0x37b3836b	2.1399659e-05
95	0x37bed29a	2.2747834e-05
96	0x37cbbb64	2.4286746e-05
97	0x37d0ca83	2.4889834e-05
98	0x37d07975	2.485209e-05
99	0x3804d19e	3.1666474e-05
100	0x3806f37c	3.2174852e-05
101	0x37df427c	2.661463e-05
102	0x37b27707	2.127468e-05
103	0x37a0233f	1.9089899e-05
104	0x37b86a4e	2.1984011e-05
105	0x379a3248	1.8381645e-05
106	0x3784fc3a	1.5853078e-05
107	0x377d57c5	1.5100411e-05
108	0x377d268a	1.5088948e-05
109	0x377d28bb	1.5089458e-05
110	0x377d28d3	1.508948e-05
111	0x377d28c9	1.5089471e-05
112	0x377d28c5	1.50894675e-05
113	0x377d28dd	1.5089489e-05
114	0x377d28b7	1.5089455e-05
115	0x377d2847	1.5089353e-05
116	0x377cce16	1.5068354e-05
117	0x37920cf8	1.7410595e-05
118	0x3798252a	1.8137118e-05
119	0x37afc8cd	2.095513e-05
120	0x37cbce77	2.4295628e-05
121	0x38089722	3.256568e-05
122	0x3832ce07	4.2630385e-05
123	0x3870278c	5.725729e-05
124	0x3893de44	7.0509064e-05
125	0x38b071a1	8.413499e-05
126	0x38c1b488	9.236584e-05
127	0x38c661dd	9.459604e-05
128	0x38afd806	8.384888e-05
129	0x387ab6b1	5.977479e-05
130	0x384f78ba	4.946508e-05
131	0x3819bbc8	3.6652928e-05
132	0x3807fdb7	3.24228e-05
133	0x37d7359e	2.5654965e-05
134	0x37a1b844	1.9278501e-05
135	0x3783f34b	1.5729709e-05
136	0x378030ce	1.5281516e-05
137	0x377c63f1	1.504364e-05
138	0x377d2071	1.50875285e-05
139	0x377d28db	1.50894875e-05
140	0x377d28cf	1.5089477e-05
141	0x377d28cb	1.5089473e-05
142	0x377d28d1	1.5089478e-05
143	0x377ce7c0	1.5074329e-05
144	0x37874849	1.6126914e-05
145	0x37a441e2	1.9581003e-05
146	0x37eb5f75	2.8058634e-05
147	0x382342be	3.8924387e-05
148	0x3873fb5e	5.816982e-05
149	0x38b45081	8.598064e-05
150	0x38f66ce8	0.000117504795
151	0x3915cb9b	0.00014285596
152	0x3932b980	0.00017044507
153	0x39328ac0	0.00017027091
154	0x3930a34c	0.00016845501
155	0x392ae79f	0.00016298749
156	0x3917cf8f	0.00014477804
157	0x39001f78	0.00012218754
158	0x38baa192	8.899266e-05
159	0x388a09ea	6.5821994e-05
160	0x38445419	4.6808364e-05
161	0x37f8dbc1	2.9666235e-05
162	0x37bca6ff	2.248911e-05
163	0x37a0dac1	1.9175352e-05
164	0x379d9ca4	1.87888e-05
165	0x3787d473	1.6192183e-05
166	0x377da36a	1.5118023e-05
167	0x377d28c9	1.5089471e-05
168	0x377d28df	1.5089491e-05
169	0x377d28d0	1.50894775e-05
170	0x377d2712	1.5089072e-05
171	0x37888f14	1.627909e-05
172	0x37c12847	2.3026148e-05
173	0x37fed079	3.0376237e-05
174	0x3857b968	5.1432668e-05
175	0x38980a56	7.24985e-05
176	0x38c94b0c	9.5984054e-05
177	0x390adc71	0.00013242826
178	0x39483aba	0.00019095364
179	0x39787570	0.00023694872
180	0x39894c75	0.0002618764
181	0x3987d712	0.00025909446
182	0x3970866a	0.00022938257
183	0x396a5ae1	0.00022349834
184	0x39695476	0.00022252076
185	0x39493651	0.00019189088
186	0x3920d065	0.00015336422
187	0x38e0fdd5	0.00010728432
188	0x389acbc6	7.381248e-05
189	0x383244f2	4.2502717e-05
190	0x37dcc564	2.631796e-05
191	0x37c1bd04	2.309541e-05
192	0x37a1837b	1.9253921e-05
193	0x378ab485	1.6534943e-05
194	0x377ceb29	1.5075123e-05
195	0x377d0ece	1.5083422e-05
196	0x377d28e1	1.5089493e-05
197	0x377d2ddc	1.5090653e-05
198	0x3775da61	1.4653983e-05
199	0x37b3813a	2.1398639e-05
200	0x3828700d	4.0158677e-05
201	0x38445fc7	4.681924e-05
202	0x38d1eb37	0.00010009709
203	0x390fec05	0.00013725467
204	0x394897d1	0.00019130042
205	0x39807ded	0.00024507885
206	0x3990866c	0.00027565972
207	0x399471c2	0.00028313516
208	0x3992b4a4	0.00027981878
209	0x398218ca	0.00024814002
210	0x3981ae0f	0.0002473448
211	0x398c6141	0.0002677534
212	0x398c0d8c	0.00026712974
213	0x3981a46f	0.0002472731
214	0x394ff75a	0.00019833204
215	0x39195978	0.00014624547
216	0x38d62cf9	0.00010212692
217	0x3883306b	6.255585e-05
218	0x3821dc6f	3.8590686e-05
219	0x37df9d3a	2.6656886e-05
220	0x37a86808	2.0075604e-05
221	0x378054d7	1.5298296e-05
222	0x377cf33a	1.5077001e-05
223	0x377cd573	1.5070068e-05
224	0x377d2755	1.5089133e-05
225	0x377d289e	1.5089432e-05
226	0x37945e92	1.7687013e-05
227	0x37d30820	2.5156944e-05
228	0x38606ff1	5.3510015e-05
229	0x38c9c039	9.620231e-05
230	0x391fbe80	0.00015234388
231	0x39422396	0.00018514539
232	0x3966ee39	0.00022023254
233	0x39815188	0.00024665543
234	0x399703b9	0.00028803738
235	0x399550ea	0.0002847978
236	0x397ba7dd	0.0002399976
237	0x395c754e	0.00021024534
238	0x39660d35	0.0002193943
239	0x398020d5	0.00024438524
240	0x39905d6e	0.0002753543
241	0x39887b23	0.00026031685
242	0x396456b9	0.00021776081
243	0x3928f696	0.00016113589
244	0x3903958e	0.00012548847
245	0x38ac7de2	8.2250466e-05
246	0x38501f6f	4.962034e-05
247	0x37f85860	2.9605057e-05
248	0x37a15faf	1.9237252e-05
249	0x37855969	1.589647e-05
250	0x3787024d	1.6094325e-05
251	0x3783d73d	1.5716645e-05
252	0x377d28dd	1.5089489e-05
253	0x377d2804	1.5089292e-05
254	0x37801970	1.5270634e-05
255	0x37d28a85	2.5098454e-05

exp_avg f4 [28]
0	0xb9552330	-0.00020326371
1	0xba8191f6	-0.0009885419
2	0xba1718d1	-0.0005763891
3	0xba83a980	-0.0010045022
4	0xba174d5b	-0.000577172
5	0xba467649	-0.00075707264
6	0xb9c9b418	-0.00038471888
7	0x3a622a17	0.00086274877
8	0x3b13cf55	0.0022554
9	0x39df4e5c	0.00042592257
10	0x3a26e911	0.0006367127
11	0xba328675	-0.0006810197
12	0x3b294a4a	0.0025831633
13	0x3a27abdf	0.0006396155
14	0xba1ee674	-0.0006061562
15	0x3a1ae4d5	0.00059087324
16	0xb96a856e	-0.00022365685
17	0xb8795114	-5.9441736e-05
18	0xba2f0e98	-0.0006677895
19	0x3abbf622	0.0014340321
20	0xba054856	-0.0005084326
21	0x3ac05c76	0.0014675993
22	0xba4505e3	-0.0007515831
23	0x3b307f11	0.0026931206
24	0x37ce4ef0	2.4593872e-05
25	0xbaea7966	-0.0017888963
26	0x3a6f350b	0.00091250305
27	0xb9e75131	-0.00044120246

exp_avg_sq f4 [28]
0	0x38afd5d4	8.384479e-05
1	0x3893a50d	7.040249e-05
2	0x389ff07a	7.626503e-05
3	0x38d7b390	0.00010285445
4	0x38c7f628	9.5349096e-05
5	0x389bbf4d	7.4266085e-05
6	0x386e2d00	5.678553e-05
7	0x3844cf88	4.692332e-05
8	0x38d01c14	9.923443e-05
9	0x389977c4	7.3179166e-05
10	0x3893b4b5	7.0431655e-05
11	0x38c2cf82	9.289292e-05
12	0x38a21640	7.728906e-05
13	0x38848f8d	6.320989e-05
14	0x38ad7422	8.270914e-05
15	0x383796e9	4.3771146e-05
16	0x3890ddb9	6.907754e-05
17	0x38c8fee9	9.584224e-05
18	0x3895cdd1	7.14321e-05
19	0x3882b6c6	6.232927e-05
20	0x3868a3a7	5.5465523e-05
21	0x3921c4bf	0.0001542745
22	0x3867d580	5.527353e-05
23	0x3888dca2	6.5260814e-05
24	0x38567757	5.113272e-05
25	0x38246961	3.919879e-05
26	0x382a3216	4.0577805e-05
27	0x38d06712	9.937411e-05

exp_avg f4 [10, 28]
0	0xbc2fc34f	-0.010727718
1	0x3a1153eb	0.0005543816
2	0xbbbf29f7	-0.00583386
3	0xbb2a0add	-0.0025946416
4	0x3b9be2fd	0.0047572837
5	0x3bfd6db6	0.007734026
6	0x3af817d7	0.0018928003
7	0x3a81db18	0.0009907214
8	0x3c12a3f5	0.008950223
9	0x38f76ec4	0.000117985095
10	0x3ba7ae38	0.005117204
11	0xbb28e494	-0.0025771009
12	0xbb113635	-0.0022157554
13	0x3b0b4770	0.0021252297
14	0x3bcbe18d	0.006221956
15	0xbb193f40	-0.0023383647
16	0x3cd2b181	0.025719406
17	0x3b91197b	0.0044280863
18	0xb921a7aa	-0.00015416616
19	0x3951a0c3	0.00019991682
20	0x3c342cb0	0.010996982
21	0x3ba18d9b	0.0049302108
22	0x3b210a84	0.0024572918
23	0xbc291707	-0.010320432
24	0xbc4298da	-0.011877263
25	0x3c9ce976	0.019154292
26	0x39abf26c	0.0003279628
27	0x38946527	7.076031e-05
28	0xbab6da4e	-0.0013950558
29	0x3a9de3cc	0.0012046038
30	0xbb570b84	-0.003281326
31	0x3b946416	0.0045285327
32	0xba62bb50	-0.00086491276
33	0xbc4d2658	-0.012521349
34	0xbb0366a5	-0.0020050195
35	0xbcad07a9	-0.021121817
36	0x3a83ee7e	0.0010065583
37	0xb9de1d3a	-0.00042364915
38	0x3ae115d7	0.0017172646
39	0xbcc6ad05	-0.024252424
40	0xbccb93eb	-0.024850806
41	0x3843db20	4.66957e-05
42	0x3a5b8ec4	0.0008375461
43	0xbd02f6a8	-0.03197351
44	0xbac15fc5	-0.0014753273
45	0xbc13a426	-0.009011304
46	0xbb08b2cb	-0.0020858522
47	0xbb260930	-0.0025335066
48	0xba818703	-0.0009882156
49	0xbb8f4e7a	-0.004373369
50	0xbce32ddc	-0.027731828
51	0xbc8a7ce0	-0.016905248
52	0xbb1922bc	-0.002336665
53	0xbafc829f	-0.0019265002
54	0x392b97e3	0.00016364413
55	0xbbb2b9b0	-0.0054542646
56	0x399ece03	0.000302896
57	0x3c6d3cb9	0.014479809
58	0x3c84bd6c	0.016203605
59	0x3b8176f7	0.0039509493
60	0xbb75e2a5	-0.0037519124
61	0x3c9cb8d9	0.019131111
62	0x3a4c0c9d	0.0007783862
63	0x3cd4c358	0.025972053
64	0xba8f281b	-0.0010921987
65	0xba9326d8	-0.0011226786
66	0x3cc67298	0.024224564
67	0x3d06ef34	0.032942966
68	0x3d3877c8	0.045036107
69	0x3b90d369	0.0044197333
70	0x3b3a6788	0.0028443057
71	0x3d2fe03f	0.042938467
72	0x3bf5b285	0.007498088
73	0x3d4a0aad	0.049326587
74	0x3b747c3b	0.0037305492
75	0x3b98665e	0.004650875
76	0x3b315c66	0.002706313
77	0x3c481cf5	0.012213935
78	0x3cdd38d3	0.027004635
79	0x3d461662	0.04836119
80	0x3bba0eaa	0.0056780176
81	0x3c4a91d9	0.012363874
82	0xba864c42	-0.0010246115
83	0x3bd4ac48	0.006490264
84	0xbac3460c	-0.0014898195
85	0xb9989e25	-0.00029109526
86	0xbbbf9297	-0.0058463323
87	0x3a2029ea	0.00061097613
88	0xbaa0a9c7	-0.0012257629
89	0xbb379745	-0.0028013748
90	0x3ceebbb0	0.02914223
91	0xbbe45b79	-0.006968912
92	0x3bb6a22b	0.005573531
93	0x3aae3aee	0.0013292709
94	0xbbcaa7e6	-0.006184566
95	0x3caa73af	0.020807115
96	0x3badbba5	0.00530191
97	0x3a658f6b	0.00087570277
98	0xb9977a2f	-0.00028891998
99	0xbbcc98d3	-0.006243804
100	0x3c04e9ec	0.008112412
101	0xba3fede6	-0.00073215214
102	0x3c189fc8	0.009315439
103	0x3c85bd44	0.0163256
104	0x3c36c06c	0.011154275
105	0x3b327075	0.0027227674
106	0xbaf21885	-0.0018470442
107	0xbc7a9f93	-0.0152968345
108	0xb93a0b25	-0.00017742494
109	0x3cd8521b	0.026406338
110	0x3981dea4	0.00024770678
111	0xbb50803a	-0.003181471
112	0xbb87ac55	-0.0041404166
113	0x3a4f0f4a	0.00078987016
114	0x380487b2	3.159763e-05
115	0x3aa07ac9	0.0012243624
116	0xbcc04755	-0.023471514
117	0xbd18d280	-0.037310123
118	0xbc9a9917	-0.018871827
119	0x38582f1f	5.1542298e-05
120	0xbc6f84fb	-0.014619107
121	0xb907847a	-0.00012923955
122	0xbc919656	-0.017771881
123	0xbc1e0133	-0.009643841
124	0xba1ab393	-0.00059013924
125	0x3b0b142c	0.002122174
126	0xbc52f8f4	-0.012876738
127	0x39cd946f	0.0003921124
128	0xbd51a73f	-0.05118489
129	0xbb006b32	-0.0019595143
130	0xbc48c03c	-0.0122528635
131	0x3922d817	0.00015530024
132	0xbd27fd12	-0.04101283
133	0xbbf38452	-0.0074315453
134	0xba756ad3	-0.00093619263
135	0xbc1080f0	-0.008819804
136	0xbb936be7	-0.004498947
137	0xbd7016c6	-0.05861547
138	0xbb61ce78	-0.003445534
139	0x3a7598be	0.00093687687
140	0xba872a99	-0.0010312378
141	0x39dcf0d9	0.00042141115
142	0xbb90e2ca	-0.0044215666
143	0x3bf0ef24	0.0073527265
144	0xb7076574	-8.070248e-06
145	0x3ba4c229	0.0050280285
146	0x3b260555	0.0025332768
147	0x3b71786f	0.0036845466
148	0xbbbf272f	-0.0058335285
149	0xba0dd15c	-0.000540992
150	0xbab50d1d	-0.0013813112
151	0xbc0537b0	-0.008130953
152	0x3c06ebb2	0.008234905
153	0x3a0aae6a	0.0005290272
154	0x3be371d4	0.0069410596
155	0x39ca2db4	0.00038562494
156	0x3ae0e08f	0.0017156767
157	0x3b92e486	0.0044828085
158	0x3b212b2c	0.0024592383
159	0xb9242131	-0.00015652624
160	0xbbabc31c	-0.0052417647
161	0xbbc36558	-0.005963009
162	0xbb0c8bdf	-0.0021445674
163	0x3acf1d01	0.001580149
164	0x3b9eab50	0.0048421994
165	0x3b4c1b14	0.003114407
166	0x3a919755	0.0011107723
167	0x39a11d85	0.00030730307
168	0x3c821a63	0.015881723
169	0x3ade1c0a	0.0016945612
170	0x3bf6a2c7	0.007526729
171	0x3b9b5e7a	0.004741487
172	0x3c8ea6f4	0.017413594
173	0x3c616676	0.013757339
174	0x3b18f89d	0.0023341544
175	0x3ac396ef	0.0014922301
176	0x3af43711	0.0018632134
177	0xb92ae699	-0.00016298368
178	0x3ba2ba26	0.0049660383
179	0x3a2749fb	0.00063815684
180	0xba30a744	-0.00067387917
181	0x3b2f4126	0.0026741712
182	0x3bc6f896	0.006072114
183	0x3bf7be34	0.007560516
184	0x3c2e0392	0.010620968
185	0x3b0894d1	0.0020840655
186	0x39d759a1	0.00041074774
187	0x3a449b2f	0.0007499931
188	0x3bbe82c1	0.005813927
189	0x3aa62b5f	0.001267772
190	0xbb1045fa	-0.0022014366
191	0x3ca80912	0.020512138
192	0x3c84a662	0.016192619
193	0x3c4c45ee	0.012467844
194	0x3ad45264	0.0016198871
195	0xb982fbeb	-0.00024983226
196	0x3b516b56	0.0031954846
197	0xbb2b7eb1	-0.0026168043
198	0xbafc2069	-0.0019235733
199	0xbb8e9cbe	-0.004352181
200	0x3a40f6d5	0.00073609996
201	0x3b81fc6b	0.003966858
202	0x3c1e3014	0.009655017
203	0x389e41d8	7.5462915e-05
204	0xbb578dbc	-0.0032890877
205	0x3bd140a1	0.006385878
206	0x39836e93	0.0002506865
207	0xb911ec8f	-0.00013916403
208	0xbb87fff5	-0.0041503855
209	0xbbff95af	-0.007799826
210	0xbbecb7cd	-0.007224059
211	0xb9875bc6	-0.00025817583
212	0x3a9c36de	0.0011918207
213	0x3afce15e	0.0019293239
214	0x3bde0880	0.0067759156
215	0xbb64d47d	-0.0034916692
216	0xb9801ed2	-0.00024437025
217	0x3a248105	0.0006275329
218	0xb9c37fc1	-0.00037288482
219	0xbb022f6b	-0.001986469
220	0xbb4628a7	-0.0030236633
221	0x3b84c072	0.0040512616
222	0xbb2d052d	-0.002640079
223	0x382c0ca0	4.1019754e-05
224	0x3b6fea5c	0.0036608195
225	0xbcbfeef7	-0.023429377
226	0xbc14091b	-0.009035374
227	0xbc87aaec	-0.016560994
228	0xba2cfb27	-0.0006598704
229	0xbcbe3c8a	-0.023222227
230	0xbc21c521	-0.009873659
231	0xb9af41ca	-0.00033427618
232	0x3a8d1e9f	0.0010766572
233	0xbae1611b	-0.0017195077
234	0xbcb48175	-0.022034386
235	0xbbb9996e	-0.005664042
236	0xbc3ebfe6	-0.011642432
237	0xbb95e4e3	-0.0045744046
238	0xbcaa7c08	-0.020811096
239	0xbc75f761	-0.015012593
240	0xbbc7bc17	-0.00609542
241	0xbcff274a	-0.031146664
242	0xbba59d81	-0.0050541763
243	0xbc1c5cb2	-0.009543585
244	0x3b68ebd3	0.0035540953
245	0xbca48922	-0.020084921
246	0x3aaac8d5	0.0013029823
247	0xbc9eab46	-0.019368779
248	0x3a552112	0.0008130233
249	0xbc7941a4	-0.015213404
250	0x3acd348f	0.0015655922
251	0x399e039c	0.00030138798
252	0xbbd96152	-0.006633916
253	0x3b5736a1	0.0032838958
254	0x3a0eb635	0.0005444021
255	0x3aace8a0	0.0013191886

exp_avg_sq f4 [10, 28]
0	0x3c50a819	0.01273539
1	0x3aa91326	0.0012899383
2	0x3b9593a4	0.0045647193
3	0x3a9e28c9	0.0012066598
4	0x3ba0a037	0.0049019116
5	0x3ba76f58	0.0051097088
6	0x3b07ceac	0.0020722551
7	0x39f78f6e	0.00047218375
8	0x3b909217	0.0044119465
9	0x39517769	0.00019976277
10	0x3c324fb3	0.01088326
11	0x39e6ba6f	0.00044007922
12	0x3c65dfef	0.014030441
13	0x3b2352e4	0.0024921233
14	0x3ad75361	0.0016428047
15	0x3aab23fe	0.0013056991
16	0x3b7df898	0.003875291
17	0x3c920e0d	0.017828966
18	0x39ed3575	0.0004524399
19	0x3b4faa75	0.0031687294
20	0x3b914f26	0.004434484
21	0x3a93149c	0.0011221352
22	0x3aefe5e8	0.001830277
23	0x3cbfe15e	0.023422893
24	0x3c229717	0.009923718
25	0x3c55750b	0.0130283935
26	0x3b569038	0.003273977
27	0x3a61bc37	0.0008611115
28	0x39f42afd	0.00046571335
29	0x3b58653a	0.003301932
30	0x3a6b9587	0.000898682
31	0x3c2bdb85	0.010489349
32	0x3aaaa9fb	0.0013020629
33	0x3bd12612	0.006382712
34	0x3ab01a31	0.001343554
35	0x3b839af6	0.0040162755
36	0x3a802a57	0.0009778243
37	0x3b08d9c4	0.0020881752
38	0x3af896dc	0.0018965858
39	0x3b8cbef7	0.0042952257
40	0x3bdc857c	0.0067297798
41	0x390c7825	0.00013396198
42	0x3c8dc98e	0.017308023
43	0x3bee4476	0.007271345
44	0x3c00c91c	0.007860448
45	0x3b8581d5	0.004074315
46	0x39f5c566	0.00046877115
47	0x39ae49c1	0.00033242817
48	0x3c1dde2d	0.00963549
49	0x39d10700	0.00039868802
50	0x3c4f64ad	0.01265828
51	0x39b0e1d0	0.0003373758
52	0x3b9a0c2e	0.004701159
53	0x3bddf861	0.006773994
54	0x3935beb2	0.00017332545
55	0x3ae228e7	0.0017254621
56	0x3bd0b86c	0.006369641
57	0x3c4faa41	0.012674869
58	0x3b9fd229	0.004877348
59	0x3c183758	0.009290539
60	0x3c2d06d8	0.010560714
61	0x3c884441	0.016634108
62	0x3bb80639	0.005615976
63	0x3b8747b0	0.004128419
64	0x3b7ca146	0.0038548275
65	0x3bc88f77	0.006120618
66	0x3be7482a	0.007058163
67	0x3b9269b3	0.0044681667
68	0x3ce20457	0.02758996
69	0x3a9cc85b	0.0011961566
70	0x3b94fe73	0.0045469343
71	0x3c9db6e9	0.019252257
72	0x3c5c8f59	0.013461911
73	0x3ca1599a	0.019696046
74	0x3a9a7fe9	0.0011787388
75	0x3b5e0fbe	0.0033883895
76	0x3b42fe3e	0.002975359
77	0x3b2d4e16	0.0026444248
78	0x3c7054b7	0.014668635
79	0x3cc5d965	0.024151513
80	0x3be4253c	0.0069624465
81	0x3c45dda3	0.012076768
82	0x3b04c5c0	0.002025947
83	0x3ba189d6	0.0049297614
84	0x3b809b67	0.0039247754
85	0x3c5e41b3	0.013565469
86	0x3bf64fbc	0.0075168293
87	0x3b73471c	0.0037121242
88	0x3b6c301c	0.0036039418
89	0x3bfff1d6	0.0078108115
90	0x3c3ddcb5	0.011588265
91	0x3ab50594	0.0013810867
92	0x3b89c848	0.0042047836
93	0x3bf0da8f	0.007350273
94	0x3ba6b626	0.0050876318
95	0x3cbffcfc	0.023436062
96	0x3d22afff	0.039718624
97	0x3ad1cbf1	0.0016006214
98	0x3c14eb40	0.009089291
99	0x3c3e8d48	0.011630364
100	0x3c2fbe33	0.010726499
101	0x3d0ae1ac	0.033906624
102	0x3bae2ca7	0.0053153816
103	0x3b861da7	0.0040928903
104	0x3c0790ee	0.0082743
105	0x3b73b72c	0.0037188036
106	0x3c8256e4	0.015910573
107	0x3c2dee50	0.0106159
108	0x3c4f86fe	0.012666462
109	0x3c88277b	0.016620388
110	0x3a6c0417	0.0009003295
111	0x3bfa379b	0.007636023
112	0x3c2c5c14	0.01052
113	0x3c3eb21d	0.011639145
114	0x3bbe6ebb	0.00581154
115	0x3b2df9b2	0.0026546535
116	0x3c2bdf4b	0.010490249
117	0x3c7300f9	0.014831775
118	0x3c80263c	0.015643232
119	0x389422cf	7.0636735e-05
120	0x3b8f6e8a	0.004377191
121	0x39d09f0b	0.00039791348
122	0x3a720e3f	0.000923369
123	0x3b14e7f2	0.0022721258
124	0x3a18543e	0.0005810893
125	0x3b0537d9	0.0020327477
126	0x3c930ef3	0.017951464
127	0x3a65f9c9	0.00087728776
128	0x3cad7137	0.02117215
129	0x3b200598	0.0024417397
130	0x3ba6aa37	0.005086209
131	0x39a684dd	0.00031760978
132	0x3bf37de0	0.007430777
133	0x3a8b4094	0.0010624104
134	0x3b6d8616	0.0036243252
135	0x3c0fbd20	0.008773118
136	0x3ab5f22f	0.001388138
137	0x3cfc3be8	0.030790284
138	0x3ac8907e	0.0015301851
139	0x3a7a0c2e	0.0009538558
140	0x3c0ca1a5	0.008583461
141	0x3aaf12e3	0.0013357069
142	0x3bdc81d7	0.0067293453
143	0x3b5c6ec3	0.0033635355
144	0x3b8529ee	0.0040638363
145	0x3c45e532	0.01207857
146	0x3c157ae4	0.009123538
147	0x3a56ea6d	0.00081983843
148	0x3bc7f439	0.0061021117
149	0x3ab22abc	0.0013593058
150	0x3bca027f	0.0061648483
151	0x3c92eb8c	0.017934583
152	0x3cdf95f6	0.027293187
153	0x3b90a859	0.0044146
154	0x3c57a598	0.013162039
155	0x3b7af7e5	0.003829473
156	0x3b3293c0	0.002724871
157	0x3ce02a57	0.02736394
158	0x3b9bfae0	0.0047601312
159	0x3c0d3b2e	0.008620067
160	0x3bdf0634	0.0068061594
161	0x3c198f1d	0.0093725
162	0x3c04a3ec	0.008095723
163	0x3b99a605	0.0046889805
164	0x3c309df1	0.010779844
165	0x3c5ef5df	0.013608425
166	0x3a4d498a	0.00078310876
167	0x3ac4f1ec	0.0015025712
168	0x3c045419	0.008076691
169	0x3ab30619	0.0013658433
170	0x3c0a98cd	0.008459282
171	0x3b6db1f7	0.0036269405
172	0x3c34fd6f	0.011046751
173	0x3c4ee69e	0.012628226
174	0x3a4ef989	0.000789546
175	0x3a10759f	0.0005510691
176	0x3986428c	0.00025608053
177	0x393cd0be	0.0001800684
178	0x3beb1034	0.0071735624
179	0x3a3d87dc	0.00072300225
180	0x3b2d2a4a	0.0026422911
181	0x3a5a9f32	0.0008339762
182	0x3b8f88b2	0.004380309
183	0x3b100e12	0.0021981043
184	0x3b8a475d	0.004219933
185	0x3c0c46b5	0.00856178
186	0x39e0e554	0.00042895472
187	0x3b8d1aa1	0.004306153
188	0x3c074f99	0.008258724
189	0x3ba155b7	0.004923548
190	0x3b818120	0.0039521605
191	0x3bd924ca	0.0066267
192	0x3bb2c32c	0.005455395
193	0x3c353304	0.011059526
194	0x3b562fb2	0.0032682237
195	0x3a22d1e4	0.0006211086
196	0x3c1ef13b	0.0097010685
197	0x3c812600	0.01576519
198	0x3a9cf299	0.0011974155
199	0x3bd8b93e	0.0066138795
200	0x3b121fce	0.002229679
201	0x3b0207d2	0.0019841087
202	0x3c8e45be	0.01736724
203	0x3b00dddc	0.0019663488
204	0x3c49483f	0.012285291
205	0x3c162aad	0.009165448
206	0x3a134a2d	0.0005618658
207	0x3a91ea74	0.0011132495
208	0x3c85c06d	0.016327107
209	0x3ba5a6fe	0.0050553074
210	0x3c9108ee	0.017704453
211	0x3bfa0129	0.007629533
212	0x3cb3f70c	0.021968387
213	0x3c00c08c	0.007858407
214	0x3b17ac49	0.0023143461
215	0x3b2b9fac	0.00261877
216	0x3b737c5f	0.0037152988
217	0x3a214986	0.00061526184
218	0x3b970b34	0.00460949
219	0x3baa2085	0.005191865
220	0x3ad67e52	0.0016364551
221	0x3c9d9d73	0.019240117
222	0x3a975d00	0.0011548102
223	0x3b31c984	0.002712817
224	0x3c21a790	0.00986661
225	0x3cb2cb03	0.02182532
226	0x3c06a37a	0.008217687
227	0x3ca5f9b1	0.020260664
228	0x3b95f644	0.0045764763
229	0x3cc1cb2e	0.023656454
230	0x3c4c7278	0.012478463
231	0x3b511fb3	0.0031909763
232	0x3c058c35	0.008151104
233	0x3b262c13	0.002535586
234	0x3caef183	0.021355396
235	0x3c3bd0c2	0.011463346
236	0x3cdce273	0.026963448
237	0x3ab3ac6f	0.0013708005
238	0x3d00f9de	0.031488292
239	0x3c2932a9	0.01032702
240	0x3c7ed206	0.015553003
241	0x3d4f3ed9	0.050597046
242	0x3bda00a5	0.006652909
243	0x3c173b8c	0.009230506
244	0x3c0b3ee5	0.008498882
245	0x3bd58c96	0.0065170033
246	0x3ca66360	0.020311058
247	0x3c5724d0	0.013131335
248	0x3c5ba19a	0.013405228
249	0x3d1d3990	0.038384974
250	0x3abc359a	0.0014359236
251	0x3b540412	0.003235106
252	0x3c88425e	0.016633209
253	0x3c9f87aa	0.01947387
254	0x3ad44fc1	0.0016198085
255	0x3b34fe72	0.0027617482

exp_avg f4 [10]
0	0x3a7f62cd	0.00097422005
1	0xbb1940e6	-0.002338463
2	0x3b995862	0.0046797255
3	0x3a621a75	0.0008625158
4	0xbb96a6b2	-0.0045975083
5	0x38e5cda5	0.00010957875
6	0x3b174383	0.0023081012
7	0xb8b464b3	-8.6018255e-05
8	0xbb3f0b0c	-0.0029150872
9	0x3a096e59	0.00052425783

exp_avg_sq f4 [10]
0	0x3940a617	0.0001837242
1	0x395b5dea	0.00020920453
2	0x399f071e	0.00030332146
3	0x39ca5d92	0.00038598158
4	0x398a2362	0.00026347773
5	0x39a32b39	0.00031121986
6	0x393e92cf	0.00018174502
7	0x398ed34f	0.00027241788
8	0x3a02c5a3	0.00049885566
9	0x39cc08fa	0.000389166

net.net.1.weight f4 [28, 784]
0	0xbc1a28a0	-0.0094091
1	0xbc1f057a	-0.009705896
2	0xbc18ddd3	-0.009330231
3	0xbc1ee1f8	-0.00969743
4	0xbc1a0ea8	-0.009402908
5	0xbc1cc3c9	-0.009568163
6	0xbc18d882	-0.009328963
7	0xbc1608d6	-0.00915738
8	0xbc1d2965	-0.009592389
9	0xbc185341	-0.009297193
10	0xbc197a71	-0.009367571
11	0xbc16208f	-0.009163036
12	0xbc0e582d	-0.008688015
13	0xbc0a23c9	-0.008431383
14	0xbc1714e0	-0.009221286
15	0xbc1959c2	-0.009359779
16	0xbc174814	-0.009233493
17	0xbc1fee2e	-0.009761376
18	0xbc1ee551	-0.009698228
19	0xbc152cf5	-0.009104957
20	0xbc1f81cc	-0.009735536
21	0xbc19c544	-0.009385411
22	0xbc160268	-0.009155847
23	0xbc1b7174	-0.009487499
24	0xbc1a0089	-0.009399542
25	0xbc18c171	-0.009323464
26	0xbc1fbaae	-0.009749098
27	0xbc16af79	-0.009197109
28	0xbc1c498e	-0.009539021
29	0xbc1a360c	-0.0094123
30	0xbc176c2f	-0.009242102
31	0xbc13a9ed	-0.009012681
32	0xbc19001f	-0.009338408
33	0xbc1eec95	-0.00969996
34	0xbc236321	-0.009972365
35	0xbc314973	-0.010820734
36	0xbc417744	-0.01180822
37	0xbc12bdbd	-0.00895637
38	0xbb637fea	-0.0034713694
39	0xbbd3bdd3	-0.006461838
40	0xbc1ec8aa	-0.009691397
41	0xbc04e7f9	-0.008111947
42	0xbab803f2	-0.0014039262
43	0xbc2e3724	-0.010633264
44	0xbc2bcd66	-0.0104859825
45	0xbc2a92c2	-0.010410966
46	0xbc167167	-0.009182311
47	0xbc133c2a	-0.008986512
48	0xbc14bf53	-0.009078818
49	0xbc18616c	-0.009300571
50	0xbc156b1a	-0.009119773
51	0xbc14e127	-0.009086884
52	0xbc16c469	-0.009202101
53	0xbc1e032f	-0.009644314
54	0xbc169843	-0.009191575
55	0xbc204eeb	-0.0097844405
56	0xbc14ebb3	-0.009089398
57	0xbc1a258c	-0.009408366
58	0xbc154ba9	-0.009112277
59	0xbc1eeb18	-0.009699605
60	0xbc1a9040	-0.009433806
61	0xbc14033e	-0.009033976
62	0xbc1a1153	-0.0094035445
63	0xbc3afa4e	-0.011412216
64	0xbcbbefac	-0.022941433
65	0xbd0d23c3	-0.034457933
66	0xbc518ec4	-0.012790386
67	0xbb2f94e4	-0.0026791627
68	0xbc39e8fe	-0.011347054
69	0x3c75a635	0.01499324
70	0x3cb23565	0.021753976
71	0xbc80cdeb	-0.01572319
72	0xbd081775	-0.033225495
73	0xbcb33aac	-0.021878563
74	0xbcac4832	-0.02103052
75	0xbc60e2cd	-0.0137259485
76	0xbc481393	-0.012211698
77	0xbc016296	-0.00789704
78	0xbb10ea06	-0.0022112145
79	0xbc044a78	-0.008074395
80	0xbc1f58b8	-0.009725742
81	0xbc1a0e51	-0.009402827
82	0xbc157568	-0.00912223
83	0xbc1dfcb5	-0.00964277
84	0xbc192e33	-0.009349394
85	0xbc18d7a6	-0.009328758
86	0xbc1abec6	-0.009444898
87	0xbc207a92	-0.009794848
88	0xbc0ef14b	-0.008724521
89	0xbcbe83bf	-0.02325618
90	0xbce3544b	-0.027750155
91	0xbc74f5d1	-0.014951185
92	0xbd40d422	-0.047077306
93	0xbd863367	-0.06552773
94	0xbd189c4c	-0.03725843
95	0xbcf9a0ea	-0.030472238
96	0xbd63ac8e	-0.055584483
97	0xbb5acdb0	-0.003338676
98	0xbaabc109	-0.0013103794
99	0xbba8cf1a	-0.0051516416
100	0xbcc20dd4	-0.023688234
101	0xbd9d5666	-0.07682495
102	0xbdfb0f3f	-0.12258767
103	0x3b77da1a	0.0037819208
104	0x3d0dfbef	0.03466409
105	0x3d1f2347	0.038852002
106	0x3d10e4ae	0.035374336
107	0x3c50c873	0.012743103
108	0xbc293aa2	-0.010328921
109	0xbc190c63	-0.009341332
110	0xbc1bac8a	-0.009501586
111	0xbc15ac56	-0.009135326
112	0xbc1a6d06	-0.009425407
113	0xbc1c78f6	-0.009550324
114	0xbc186b4b	-0.009302924
115	0xbbfb3ef5	-0.007667417
116	0xbbdfa249	-0.006824766
117	0xbd7f0e34	-0.062269405
118	0xbd9c109c	-0.076203555
119	0xbd310f73	-0.043227624
120	0xbd690a03	-0.056894314
121	0xbd034203	-0.032045376
122	0xbd750310	-0.059817374
123	0x3d3de1b3	0.04635782
124	0x3cc9accc	0.024618529
125	0x3b927a61	0.004470155
126	0xbc904d2d	-0.017614925
127	0x3c64669b	0.013940479
128	0x3d2003f0	0.039066255
129	0xba373a26	-0.0006989561
130	0x3c391edb	0.01129886
131	0x3dac3f25	0.08410481
132	0x3e374380	0.17896843
133	0x3df87bf7	0.121330194
134	0x3da95504	0.082681686
135	0x3d40acc9	0.04703978
136	0xbb711aef	-0.0036789735
137	0xbc31f7ba	-0.010862285
138	0xbc435a08	-0.011923321
139	0xbc1eb262	-0.009686084
140	0xbc1f7f35	-0.009734918
141	0xbc1a4248	-0.009415217
142	0xbc1fb356	-0.009747347
143	0xbc71a231	-0.014748142
144	0xbd246f4c	-0.040145203
145	0xbd796be7	-0.06089392
146	0xbd17de2d	-0.037077118
147	0xbd8c812b	-0.06860574
148	0x3d7fc357	0.06244215
149	0x3e54298b	0.20718972
150	0x3e30f0e9	0.172794
151	0x3d064bda	0.03278718
152	0xbd02f753	-0.031974148
153	0xbdf7d748	-0.121016085
154	0xbd854ba2	-0.065085664
155	0xbdb4dc9d	-0.08831141
156	0xbd5a1755	-0.053244907
157	0xbd1ba0e2	-0.037995227
158	0xbd8e7056	-0.0695502
159	0xbbcd885b	-0.0062723584
160	0x3d65b3e2	0.056079753
161	0x3dd7fc93	0.105462216
162	0x3d3bb064	0.045822516
163	0x3cffbefa	0.031218994
164	0xbb4e86ab	-0.0031513374
165	0xbcc11591	-0.023569854
166	0xbc9a36f7	-0.018825037
167	0xbc14e5f0	-0.0090880245
168	0xbc1d18d5	-0.00958844
169	0xbc1554e7	-0.009114481
170	0xbaf6a3ef	-0.0018817167
171	0xbd2849ad	-0.041085888
172	0xbd2a71c7	-0.041612413
173	0x3cb9c4f9	0.022676932
174	0x3cced5af	0.025248377
175	0x3d943439	0.07236523
176	0x3e48b54b	0.19600408
177	0x3e2962ac	0.16541547
178	0x3d98c877	0.07460111
179	0x3dc2bd2f	0.0950874
180	0xbd3b0421	-0.045658235
181	0xbe5bba73	-0.21457843
182	0xbe67ca38	-0.22635734
183	0xbe248e38	-0.16069877
184	0xbdc4e210	-0.096134305
185	0x3ae7f13a	0.0017695792
186	0xbd5da220	-0.054109693
187	0xbc7cc4da	-0.015427792
188	0xbae445cb	-0.001741582
189	0xbca15c11	-0.019697221
190	0xbc779eae	-0.015113516
191	0xbbcc0ef7	-0.00622737
192	0xbb97673f	-0.004620462
193	0xbb8b7e2d	-0.0042569847
194	0xbc25cfa4	-0.010120306
195	0xbc11a272	-0.008888828
196	0xbc1ea5c0	-0.009683073
197	0xbc191048	-0.009342261
198	0x3bdd771e	0.0067585846
199	0x3929d29e	0.00016195557
200	0xbdbe30e4	-0.09286669
201	0x3da3beed	0.079954006
202	0x3d8bcbcd	0.06825981
203	0x3da39cc9	0.07988889
204	0x3e12580e	0.14291403
205	0x3e419477	0.18904291
206	0x3e2a9e09	0.16661848
207	0x3ce86941	0.028370501
208	0xbd6fd2f5	-0.058550794
209	0xbe866e44	-0.26256
210	0xbe37e828	-0.17959654
211	0xbbc97c33	-0.006148839
212	0x3d6557ad	0.055991817
213	0x3df87573	0.12131777
214	0x3da171ad	0.0788301
215	0x3e245a25	0.16050012
216	0x3dbf2f7a	0.09335227
217	0x3c1fe170	0.009758338
218	0x3c690354	0.014221985
219	0x3d437b2f	0.0477249
220	0x3d25b7ae	0.040458374
221	0x3cc99d96	0.024611276
222	0xbbfe79c7	-0.007765982
223	0xbc235758	-0.009969555
224	0xbbf9c8c4	-0.00762281
225	0xbc218ee9	-0.009860733
226	0x3cd3dd0d	0.025862241
227	0x3cdf38f6	0.02724884
228	0xbdb0cf70	-0.086333156
229	0x3de316c3	0.11088326
230	0xbb8920c6	-0.004184815
231	0x3cc58b3d	0.024114246
232	0x3deda519	0.116037555
233	0x3e7d0942	0.24710563
234	0x3e5bd1e1	0.21466781
235	0x3e114187	0.14185153
236	0xbdc5af8a	-0.09652622
237	0xbe9a23ae	-0.30105346
238	0xbd3fcd80	-0.04682684
239	0x3e07ab6d	0.13248987
240	0x3dd10f88	0.102080405
241	0x3ddc4adf	0.10756468
242	0x3daa2257	0.08307331
243	0xbc9f18f3	-0.019421076
244	0x3dd6fd6a	0.10497554
245	0x3d787520	0.060658574
246	0x3c9772f3	0.01848743
247	0x3dc451c5	0.09585909
248	0x3d771981	0.060327057
249	0x3c4185ce	0.011811687
250	0xbd1eb5bc	-0.038747534
251	0xbcbbdc35	-0.022932151
252	0xbc1ad259	-0.009449565
253	0xbc255b44	-0.01009256
254	0xbbb3de57	-0.0054891515
255	0x3c74954b	0.014928172

net.net.1.bias f4 [28]
0	0x3c9916e1	0.018687667
1	0xbc36cf56	-0.011157831
2	0x3a81416f	0.000986142
3	0xbd12522a	-0.03572289
4	0xbc34861d	-0.011018303
5	0x3d160105	0.036622066
6	0x3c77a6c6	0.0151154455
7	0xbbd402f8	-0.0064700805
8	0xbc95fd09	-0.018309133
9	0xbc470cbe	-0.012149034
10	0xbc3d1cc7	-0.011542506
11	0xbc8ae3ed	-0.016954387
12	0x3cfc593a	0.030804265
13	0x3d105782	0.035239704
14	0xbd2d4b7d	-0.04230832
15	0xbc0ac19e	-0.0084690135
16	0xbd4721c8	-0.0486162
17	0x3c6392e6	0.013890004
18	0xbc85097d	-0.016239876
19	0x3bc1e922	0.005917684
20	0xbcd5e4c3	-0.026110059
21	0xbc19be52	-0.009383755
22	0x3b895609	0.0041911644
23	0x3c8f5cbb	0.017500272
24	0xbc85e0f7	-0.016342623
25	0x382a98f0	4.0673593e-05
26	0xbd4aa57b	-0.04947422
27	0xbcf61ed6	-0.030044

net.net.3.weight f4 [10, 28]
0	0x3e1129be	0.1417608
1	0xbea807ea	-0.32818538
2	0x3d88edab	0.066859566
3	0xbeb8ceb0	-0.3609519
4	0x3e302958	0.17203271
5	0xbe2d3d81	-0.16917993
6	0xbeb7fb43	-0.35933885
7	0x3e7c7da5	0.24657305
8	0x3e381303	0.17976002
9	0xbd98f338	-0.07468265
10	0xbc260524	-0.010133062
11	0xbf120cb8	-0.5705066
12	0x3e73c433	0.23805313
13	0x3de9b0b7	0.11410659
14	0xbe3cb86a	-0.18429723
15	0xbee15d6f	-0.44016597
16	0x3e8a76aa	0.27043658
17	0x3e4bcaed	0.19901629
18	0xbedb4fba	-0.42834264
19	0x3e1ef844	0.15524393
20	0x3e0a141b	0.13484232
21	0xbe4155f8	-0.1888045
22	0xbeaaf2c8	-0.33388352
23	0x3ea2df08	0.31810784
24	0x3e67b85e	0.22628924
25	0xbcfc32f1	-0.03078601
26	0x3e8b4223	0.27198896
27	0xbe69d6e2	-0.22835878
28	0xbd3368de	-0.04380118
29	0x3c3bc6bc	0.011460956
30	0xbd6c4bc9	-0.05768946
31	0x3d09fa60	0.03368604
32	0xbeaa75a8	-0.3329289
33	0x3d8527ed	0.06501756
34	0xbe20db81	-0.15708734
35	0x3f001850	0.500371
36	0xbe9feab9	-0.31233767
37	0x3e782ae5	0.24235113
38	0xbd7efaba	-0.06225083
39	0x3dc1faca	0.09471662
40	0xbcd2b72b	-0.025722107
41	0x3c4d1319	0.01251676
42	0x3e567044	0.20941263
43	0x3dc9e99a	0.09859009
44	0x3c7b6691	0.015344278
45	0xbea1eee7	-0.3162758
46	0xbe2694b3	-0.16267662
47	0xbe917cdc	-0.28415573
48	0x3ec858ca	0.3913024
49	0xbe74d97a	-0.23911086
50	0x3e6a40cb	0.22876279
51	0xbf134fc2	-0.57543576
52	0x3d9b5e2d	0.07586322
53	0xbc73c074	-0.014877427
54	0xbe62f851	-0.22165038
55	0x3e53512d	0.20636435
56	0xbe7fb19b	-0.24970095
57	0xbb4e6598	-0.003149366
58	0xbe02f2d6	-0.12787947
59	0x3d9b7c3e	0.07592057
60	0x3eef4dc3	0.46739015
61	0x3e68dd9e	0.2274079
62	0xbd1af519	-0.0378314
63	0x3efa47f6	0.48883027
64	0x3e354685	0.17702682
65	0x3e814e2d	0.25254956
66	0xbd27ee8f	-0.04099899
67	0xbde6da64	-0.112721235
68	0x3e94cdc5	0.2906324
69	0x3e104f25	0.14092691
70	0xbeecea5c	-0.46272552
71	0x3e3d5740	0.18490314
72	0x3e845cfb	0.25852188
73	0xbccf7191	-0.025322707
74	0xbed9b790	-0.4252286
75	0x3e0cf100	0.13763809
76	0xbda4c634	-0.08045617
77	0xbe212eb4	-0.15740472
78	0x3c7b1b09	0.01532627
79	0x3e7603b0	0.24024844
80	0xbe91d458	-0.28482318
81	0xbe780bc8	-0.24223244
82	0xbe062de8	-0.1310345
83	0x3ead595f	0.33857247
84	0xbf01ca31	-0.50699145
85	0x3e74f252	0.23920563
86	0x3e437586	0.190878
87	0xbec144d9	-0.3774784
88	0xbc000a8e	-0.007815016
89	0xbe0e5055	-0.13897832
90	0x3e1af225	0.15131433
91	0x3d088966	0.03333416
92	0x3e2dec63	0.16984706
93	0x3ec486b1	0.3838401
94	0xbecab15e	-0.39588445
95	0x3ebafc4c	0.36520612
96	0x3e8f6123	0.28003797
97	0xbd28982c	-0.041160747
98	0xbe1f7843	-0.1557322
99	0x3e20ae13	0.15691404
100	0xbe28f6d4	-0.16500407
101	0x3b329e68	0.0027255062
102	0x3ed3d1fa	0.41371137
103	0xbd3d3136	-0.04618951
104	0x3e9fa50a	0.31180602
105	0xbe08225f	-0.13294362
106	0xbd1e90c0	-0.038712263
107	0xbd00029a	-0.03125248
108	0x3e83c51c	0.2573632
109	0xbe2bde2a	-0.16783968
110	0xbdf9a82d	-0.1219028
111	0x3ee1f34b	0.4413093
112	0x3ed9c4e1	0.4253302
113	0x3d896b92	0.067099705
114	0x3e8c434b	0.2739509
115	0xbe19af14	-0.15008193
116	0x3dbe9b0d	0.09306917
117	0x3e4aff96	0.19824061
118	0x3e890592	0.26762062
119	0x3dccfaf3	0.10008802
120	0xbed60392	-0.417996
121	0xbf1b61a7	-0.6069588
122	0xbeae6383	-0.34060296
123	0x3ea33a07	0.3188021
124	0xbf0904be	-0.5352286
125	0x3bc58821	0.0060281907
126	0x3e75b759	0.23995723
127	0xbed2aab9	-0.41145876
128	0x3e27be9d	0.16381307
129	0xbf110a2c	-0.56656146
130	0x3e664f07	0.22491084
131	0xbed9f0ef	-0.4256663
132	0x3e8d28ec	0.27570283
133	0xbf1a4a96	-0.6027006
134	0xbe9494bb	-0.29019722
135	0x3e17ff39	0.14843453
136	0xbedef0f8	-0.4354322
137	0x3e2ac924	0.16678292
138	0xbe4fe473	-0.2030199
139	0xbda16b3e	-0.07881783
140	0x3ddd63a8	0.108100235
141	0xbf1c5183	-0.61061877
142	0x3da1bf29	0.07897789
143	0xbeb6d031	-0.35705712
144	0x3df45e04	0.119319946
145	0x3d889062	0.06668164
146	0x3d8dcd72	0.06923951
147	0x3da63a82	0.08116628
148	0x3e601472	0.218828
149	0xbd81bada	-0.06334467
150	0xbeaf1771	-0.34197572
151	0x3e84f68f	0.2596936
152	0x3e0c0de3	0.13677172
153	0x3ebd4f36	0.36974496
154	0x3e6e5620	0.23275042
155	0x3e396474	0.18104726
156	0xbede1dbe	-0.43382066
157	0x3ce51914	0.02796606
158	0x3ec4f93f	0.3847141
159	0x3ea30507	0.31839773
160	0xbd395fa5	-0.04525723
161	0x3f21474d	0.6299942
162	0xbe3382dd	-0.17530389
163	0xbec80a2d	-0.39070264
164	0x3e9b12de	0.30287832
165	0xbde6f0dc	-0.11276409
166	0xbcbe705b	-0.023246935
167	0xbe402af4	-0.18766385
168	0x3e5d6dc6	0.21623906
169	0xbe870fc2	-0.2637921
170	0x3e09f4d4	0.13472301
171	0x3b810a52	0.003937998
172	0x3f028ef9	0.5099941
173	0x3d5db3a0	0.054126382
174	0xbef3b382	-0.4759789
175	0x3dd03cc0	0.10167837
176	0xbf2d23c0	-0.67632675
177	0xbeb4c088	-0.3530314
178	0x3b1df393	0.002410148
179	0xbec017c8	-0.37518144
180	0xbe936f5e	-0.28795904
181	0x3dd83da8	0.10558635
182	0x3d3bf2a9	0.045885716
183	0x3d2866fa	0.04111383
184	0xbdf386c3	-0.11890938
185	0x3dd8aa2c	0.10579333
186	0xbe96ac70	-0.29428434
187	0x3ea5307b	0.3226355
188	0x3ea0e120	0.31421757
189	0x3edd742b	0.43252692
190	0xbe106ec2	-0.14104751
191	0xbe1ac837	-0.15115438
192	0x3d313897	0.04326686
193	0x3cc8c888	0.024509683
194	0x3ee5cd24	0.44883072
195	0xbf091119	-0.53541714
196	0x3e5fe767	0.21865617
197	0x3ddf7fc3	0.109130405
198	0xbe20dc8d	-0.15709133
199	0xbe2013fc	-0.15632623
200	0xbc134633	-0.008988905
201	0xbefaa977	-0.48957416
202	0x3e648d73	0.22319584
203	0x3eaf090f	0.341866
204	0x3e7c459f	0.24635933
205	0x3ec881f4	0.39161646
206	0xbee74edd	-0.45177355
207	0xbeb41bc0	-0.35177422
208	0x3e2b73c3	0.16743378
209	0x3f0936ee	0.5359944
210	0x3da60eb3	0.081082724
211	0x3e652a24	0.22379357
212	0x3e4d5bc4	0.20054537
213	0xbed06504	-0.4070207
214	0xbe723c81	-0.23655893
215	0x3c212b8c	0.009837043
216	0x3e2c4cc6	0.16826162
217	0xbcb57d2f	-0.022154419
218	0xbe24bc3c	-0.1608743
219	0x3e124bc5	0.14286716
220	0xbe74b5d7	-0.23897491
221	0x3d1dc1e6	0.038514994
222	0xbecf978e	-0.40545315
223	0x3efef4ec	0.49796236
224	0xbdb7a019	-0.08966083
225	0x3d8c782d	0.06858859
226	0x3d1eb8fa	0.038750626
227	0x3e3ea136	0.18616185
228	0xbddb52b4	-0.10709134
229	0x3d8e9403	0.06961825
230	0x3c3b23f3	0.011422145
231	0xbe473b3c	-0.1945619
232	0xbd5246f3	-0.051337194
233	0xbe09b2f8	-0.13447177
234	0x3e3f7907	0.18698512
235	0x3dc0dab4	0.09416714
236	0x3d4e8a60	0.050424933
237	0xbe2c2b73	-0.1681345
238	0x3e2abb3e	0.1667299
239	0x3d668b3c	0.056285128
240	0xbd7d69a4	-0.061868325
241	0x3e0aa398	0.13538969
242	0x3d0172bf	0.03160357
243	0xbb951ae5	-0.004550325
244	0xbdb9e161	-0.09076191
245	0x3d333c8c	0.043758914
246	0x3dbec00a	0.09313972
247	0xbd0ce34f	-0.034396466
248	0x3ca53106	0.020164978
249	0x3d8466c7	0.06464916
250	0xbd5aab90	-0.05338627
251	0xbd13a28f	-0.0360437
252	0xb982ba93	-0.0002493454
253	0x3dc1dd5b	0.09466048
254	0xbeeb4be8	-0.4595635
255	0xbf138cf1	-0.57636935

net.net.3.bias f4 [10]
0	0xbd4b7359	-0.04967055
1	0x3e187d93	0.14891653
2	0x3c0e5c6c	0.008689027
3	0x3dd9efce	0.10641442
4	0x3e0d0e5d	0.1377501
5	0x3d34377c	0.043998227
6	0x3d7db184	0.06193687
7	0xbe874e4c	-0.26426923
8	0x3e70ed84	0.23528105
9	0x3e318f6f	0.17339872
