asdf/logs/examples/version_mnist_cpu/epoch=04-val_loss=0.74.ckpt (torch_old, 269521 bytes, 12 tensors)

exp_avg f4 [28, 784]
00000000: 5279 213a 866e 1e3a 6648 223a ba84 1e3a
00000010: 9d89 213a f7d7 1f3a ac4b 223a d50d 243a
00000020: 6098 1f3a eb9e 223a 58e6 213a fefe 233a
00000030: 3edf 233a 7b8d 213a a37e 243a 7506 223a
00000040: 2b46 233a 04dd 1d3a ab82 1e3a 7897 243a
00000050: c120 1e3a 84b7 213a f911 243a 9aab 203a
00000060: 7092 213a 105a 223a 47fd 1d3a a3a5 233a
00000070: 6824 203a fe70 213a 7f2f 233a 8389 253a
00000080: e132 223a 5f85 1e3a 8960 233a 51a2 1e3a
00000090: f5c5 233a 0000 223a e359 253a 48e9 213a
000000a0: fe25 1d3a 0b86 243a 7dc6 1e3a 95a3 243a
000000b0: 1536 233a 708f 113a 0299 1a3a cc5a 253a
000000c0: b7d7 243a a92a 233a e5f6 243a 39fc 243a
000000d0: 7e98 233a 2510 1f3a 1bb4 233a 8ea0 1d3a
000000e0: 3fc0 243a 3f7b 213a 3784 243a 5ea6 1f3a
000000f0: 1124 213a 4aeb 243a 486e 213a 4c78 233a
00000100: 44c0 223a 30e3 233a 395e 213a 324a 1bba
00000110: e091 0b39 3741 0d3a 5e1f ea39 6685 f339
00000120: fdd0 023a 8071 023a 348e 0c3a 78f2 1e3a
00000130: 37eb 203a e883 1c3a 2c38 163a 5871 193a
00000140: b3d1 1f3a 4780 213a 176a 243a 3514 1f3a
00000150: 2016 223a 314c 223a 7c1b 213a f568 203a
00000160: b9f4 1d3a 8400 1e3a 55c1 2a3a 27b6 443a
00000170: 16fd 6f3a 7873 833a 74b9 463a 4179 9cba
00000180: a99a 3dba 3f6e 8b39 3314 9f39 f5a7 b839
00000190: 4826 cb38 4d09 f637 463e a439 0172 6039
000001a0: 9bc2 4338 cf88 7238 eb76 8f38 bdc9 a739
000001b0: 2bfc 193a 4d59 213a 92b1 203a bf47 243a
000001c0: 994e 213a 610d 203a 1882 223a 8cfc 203a
000001d0: 7001 233a c991 1d3a 71a0 2b3a cd73 6d3a
000001e0: 9ca1 613a 9095 5c3a 36e0 42ba e965 baba
000001f0: 1823 eaba 5e6e ceb9 9362 a4ba b7cc 31ba
00000200: 0426 91b9 4765 94ba 58a3 34bb ca8e dfba
00000210: 377f 81b9 c42a df37 3f2e 8b39 1d25 be37
00000220: a474 ed39 5e26 223a 8c7e 1d3a 18c1 1e3a
00000230: 6522 1e3a 6069 213a b720 1e3a 8116 243a
00000240: 0fcc 203a ecc0 1b3a 0709 2f3a 5713 6d3a
00000250: 64c7 473a 98d3 0439 8de8 adba 7505 29b9
00000260: 8c32 a23a 43a9 1aba 2027 13bb 8ded baba
00000270: 9965 f7b9 0beb c838 5863 983a b1cb e03a
00000280: 9151 b03a c781 4e3a 0eb8 1b3a e20d c739
00000290: 86c2 263a 59f5 333a cd8a 1d3a dae7 243a
000002a0: c2a2 1f3a 787e 243a c75e 223a dfd1 223a
000002b0: d8dc 203a bcb5 1e3a bf13 193a 90ee b639
000002c0: cba8 30b9 392e 43ba 5f68 83ba 2856 8e37
000002d0: 5a81 153b 57ad 0bba 0a32 90bb 611e f4ba
000002e0: ae16 0fba 7ace 8aba 6479 9f38 6e9a c83a
000002f0: 11ce 9e3a 3441 b93a d5c3 ac3a f6ef 923a
00000300: 53cb 573a 0415 5b3a ce34 253a 5965 203a
00000310: 8ea8 1e3a 4c12 233a bf9e a439 9358 02ba
00000320: 367f fbb9 521e b8b7 d2c3 b138 0490 9d39
00000330: 87ff e4b9 8383 f3ba 49a2 a9ba 4cd6 a43a
00000340: f468 913b ecc2 3f3a bdab 52bb 46f4 c5ba
00000350: 3840 39ba 26b6 e8b9 41ab ee39 cf71 373a
00000360: dbf5 293b a928 d73a 6150 f63a f228 db3a
00000370: 07fa 393a f5b8 5e3a abc0 173a 3374 213a
00000380: 8bd9 203a ece6 1e3a f84c 22ba c100 84ba
00000390: 0664 85ba be00 72ba 3785 93ba 05b2 9eba
000003a0: 4357 32bb e10d 5abb 2f09 11bb b576 5d3a
000003b0: aa4c 913b ac59 8cba f8ee a7bb 9ae9 91ba
000003c0: 41bb 72b7 3fda 0a3b 3c17 e238 4b80 2abb
000003d0: 7c67 a43a 5cf5 103b a2b2 cd3a 5f4d bb3a
000003e0: 0791 ca39 8359 0c3a 4bc2 123a 8255 1f3a
000003f0: b807 213a 252e 223a dd8b 7837 3dc3 7bba
0.0006159741 0.0006043691 0.0006190598 0.00060469995 0.00061621686 0.000609755 0.00061910856 0.00062581646
0.00060880743 0.000620349 0.00061759865 0.00062559533 0.0006251222 0.0006162745 0.0006274974 0.0006180772
0.00062284124 0.00060220086 0.0006046693 0.0006278674 0.00060321024 0.00061690086 0.00062587817 0.0006129086
0.00061634835 0.000619323 0.0006026816 0.00062426383 0.00061089406 0.00061585 0.0006225034 0.00063147413
0.0006187391 0.00060470955 0.00062323414 0.0006051409 0.00062474544 0.00061798096 0.00063076447 0.0006176424
0.0005994736 0.00062760775 0.0006056799 0.0006280479 0.00062260154 0.0005552685 0.0005897434 0.000630778
0.00062882475 0.00062243134 0.00062928937 0.00062936876 0.00062406796 0.00060677744 0.00062447943 0.0006012999
0.00062847504 0.00061600277 0.0006275805 0.00060901593 0.0006147037 0.00062911643 0.0006158096 0.0006235882
0.00062084594 0.000625181 0.0006155703 -0.0005923837 0.00013310416 0.0005388441 0.00044655328 0.0004644796
0.0004990248 0.0004976019 0.0005361766 0.00060633523 0.00061385654 0.00059705833 0.0005730416 0.00058533764
0.0006096616 0.00061607774 0.0006271912 0.000606838 0.00061831065 0.0006191163 0.0006145758 0.00061191554
0.0006025541 0.00060272985 0.0006513794 0.00075039495 0.0009154839 0.0010028919 0.0007580735 -0.0011937992
-0.0007232824 0.00026594286 0.00030341893 0.00035220353 9.686925e-05 2.9329816e-05 0.00031326915 0.00021404774
4.6672863e-05 5.782471e-05 6.8409216e-05 0.0003200303 0.0005874063 0.00061549695 0.00061299757 0.00062667945
0.00061533746 0.0006105509 0.0006199195 0.0006141148 0.0006218171 0.00060107984 0.000654704 0.0009058088
0.00086071505 0.00084146205 -0.0007433923 -0.0014221045 -0.0017863242 -0.00039373612 -0.0012541584 -0.0006782519
-0.0002768488 -0.0011321687 -0.002756318 -0.0017056104 -0.0002469958 2.6603586e-05 0.00026546602 2.2667047e-05
0.00045291067 0.0006185527 0.00060079317 0.0006055995 0.0006032347 0.00061573647 0.00060320966 0.0006259457
0.0006133923 0.00059415284 0.00066770654 0.00090437144 0.0007620959 0.00012667326 -0.0013268158 -0.00016119129
0.0012374683 -0.0005899856 -0.002245374 -0.001426147 -0.00047187207 9.580523e-05 0.0011626286 0.0017150549
0.0013452043 0.00078776147 0.0005940207 0.0003796658 0.0006361384 0.0006864868 0.00060097576 0.0006290652
0.00060896215 0.0006274949 0.00061939325 0.0006211083 0.0006136424 0.0006054302 0.0005839429 0.00034891488
-0.00016847548 -0.00074455474 -0.0010025612 1.6967839e-05 0.0022812695 -0.0005328259 -0.0044004964 -0.0018624776
-0.00054583966 -0.0010590099 7.6043216e-05 0.0015304813 0.0012115856 0.0014133812 0.0013180921 0.001121043
0.0008231897 0.00083573186 0.0006302119 0.00061186176 0.0006052338 0.0006220683 0.00031398793 -0.0004972305
-0.0004796923 -2.1948628e-05 8.476492e-05 0.00030052674 -0.00043677932 -0.0018578622 -0.0012942042 0.0012576072
0.00443756 0.00073151174 -0.003214582 -0.0015102706 -0.0007066759 -0.000443862 0.00045522492 0.0006997855
0.0025933895 0.0016415316 0.0018792265 0.0016720577 0.0007094447 0.00084961887 0.00057889026 0.00061589776
0.0006135932 0.0006061632 -0.0006191279 -0.0010071025 -0.0010176904 -0.0009231678 -0.0011254911 -0.0012107497
-0.0027212657 -0.0033272433 -0.0022130718 0.00084481697 0.004434188 -0.0010707877 -0.005124923 -0.0011132241
-1.44679225e-05 0.0021187214 0.000107808475 -0.002601641 0.0012543048 0.0022118902 0.0015693496 0.0014290026
0.00038636496 0.00053539145 0.000559841 0.00060781103 0.0006142813 0.00061866856 1.4814516e-05 -0.0009603983

exp_avg_sq f4 [28, 784]
00000000: 977f b837 5b80 b837 637f b837 5880 b837
00000010: 8c7f b837 e57f b837 6d7f b837 467f b837
00000020: ff7f b837 667f b837 727f b837 497f b837
00000030: c27c b837 ebc1 b837 ddaf b837 bb7f b837
00000040: 547f b837 9980 b837 5d80 b837 4c7f b837
00000050: 7f80 b837 837f b837 487f b837 bf7f b837
00000060: 857f b837 757f b837 9280 b837 447f b837
00000070: dd7f b837 927f b837 547f b837 457f b837
00000080: 757f b837 6580 b837 797f b837 6381 b837
00000090: e7c6 b837 79d4 b937 ec0e b937 c818 b937
000000a0: f63d bd37 fcdb b837 442c b937 d6a4 b837
000000b0: ed20 bb37 f4dd b937 af1d b837 4893 b837
000000c0: fbb6 b837 da33 b937 ea85 b837 3e7f b837
000000d0: 407f b837 2780 b837 4f7f b837 b480 b837
000000e0: 467f b837 a27f b837 427f b837 0280 b837
000000f0: ce7e b837 287f b837 4d8a b837 30a6 b937
00000100: 4cea ba37 3230 cc37 69d1 cb37 fdda c637
00000110: 861c d137 82c7 d537 77c4 df37 6a10 e237
00000120: 1dd6 d737 d786 db37 4587 d737 19bd cd37
00000130: c641 bf37 073a ba37 2316 b937 bd1e b937
00000140: cc94 b837 b47e b837 4d7f b837 2280 b837
00000150: 747f b837 6b7f b837 ad7f b837 1273 b837
00000160: bcfe b737 f575 cc37 c79b d337 f6ae db37
00000170: 0d89 e037 3f9e f637 8b6b fd37 7180 f937
00000180: 3a7b 0b38 8a26 2c38 1655 4438 2059 5b38
00000190: 29be 4e38 8c01 3738 91a7 1b38 17f4 0b38
000001a0: c236 f637 8fb4 df37 ac38 c837 1d50 be37
000001b0: 00bf b837 9e66 b837 b27f b837 477f b837
000001c0: 9a7f b837 4780 b837 eb73 b837 b75f b837
000001d0: e0ab c237 b981 ed37 633f f937 7553 1038
000001e0: d1a4 2438 15ac 4438 6386 5838 0605 8438
000001f0: 4bdb 9e38 a8c2 b738 2486 de38 1d7d e938
00000200: 26b0 e238 5301 c438 0114 a838 c662 9438
00000210: bd59 7638 1e12 2d38 8b73 f937 30b4 d237
00000220: a60d c337 eb6f bc37 19ba b837 4280 b837
00000230: 8680 b837 967f b837 3b7a b837 15fe b737
00000240: 573b cc37 4eb9 0d38 4287 2838 e146 5338
00000250: 6fef 8538 8b7b 9f38 9ac2 c538 a740 0639
00000260: 1f73 2839 0685 5039 5680 6639 d874 6839
00000270: 0ca0 6239 76c7 4a39 8d18 2b39 fbe1 0939
00000280: 4544 cd38 34c3 8b38 b7b7 3438 1b68 0038
00000290: 80f2 ce37 c523 bc37 dde5 b837 d17b b837
000002a0: f07f b837 4b7f b837 56ba b837 71b5 bb37
000002b0: 53e6 e437 3ab9 1038 8b40 4e38 a23c 7e38
000002c0: 961c a638 25ba ee38 43d4 2039 427e 5c39
000002d0: c482 8639 16d9 9239 f9bd a339 fbc5 ae39
000002e0: b374 ac39 fd9e 9539 bf14 7739 c5c6 3839
000002f0: 693e 0a39 b56e bb38 1e89 7e38 79b9 1838
00000300: f5b9 d837 9fae be37 5e64 b837 408d b837
00000310: 5180 b837 2e80 b837 81f1 b837 050c c137
00000320: 3443 0138 36d7 3238 8741 5738 a591 9538
00000330: 056d eb38 d0d6 1639 aac6 5239 4ac6 8639
00000340: 397b a139 55d1 b539 1a61 c039 48ab b739
00000350: e7ff ae39 949b a239 7459 9039 79ee 6b39
00000360: 5d4b 2139 b2a1 eb38 83ab ae38 5dbe 6338
00000370: 6e9f f337 7d17 ca37 fa51 ba37 6b9c b837
00000380: eb4a b837 6484 b837 d816 ba37 8fb4 c837
00000390: 46d5 0738 8930 2f38 9833 8138 989a da38
000003a0: 7844 1839 cff1 4339 868e 8039 a38a 9e39
000003b0: 5e05 aa39 dd23 c139 5ce5 b639 ca77 a739
000003c0: 4398 9f39 3593 a439 ce24 9439 37c1 8039
000003d0: 8174 4739 c490 0b39 27a7 c638 0e96 8038
000003e0: ec85 0838 4fb2 c137 0411 b937 989b b837
000003f0: a17f b837 587c b837 b4c4 b937 ed74 c737
2.1993923e-05 2.199428e-05 2.1993828e-05 2.1994274e-05 2.1993903e-05 2.1994065e-05 2.1993847e-05 2.1993776e-05
2.1994112e-05 2.1993834e-05 2.1993856e-05 2.1993781e-05 2.1992604e-05 2.202481e-05 2.2016402e-05 2.1993988e-05
2.1993801e-05 2.1994392e-05 2.1994283e-05 2.1993787e-05 2.1994345e-05 2.1993887e-05 2.199378e-05 2.1993996e-05
2.199389e-05 2.1993861e-05 2.199438e-05 2.1993772e-05 2.199405e-05 2.1993914e-05 2.1993801e-05 2.1993774e-05
2.1993861e-05 2.1994298e-05 2.1993868e-05 2.199476e-05 2.202713e-05 2.2152659e-05 2.2060667e-05 2.2065258e-05
2.2559409e-05 2.2036947e-05 2.2074331e-05 2.2011267e-05 2.230747e-05 2.2157074e-05 2.1948332e-05 2.2003092e-05
2.2019716e-05 2.2077864e-05 2.1996868e-05 2.1993761e-05 2.1993765e-05 2.1994185e-05 2.1993792e-05 2.1994441e-05
2.1993776e-05 2.1993943e-05 2.1993768e-05 2.1994118e-05 2.1993557e-05 2.1993721e-05 2.199891e-05 2.2131106e-05
2.228203e-05 2.4341138e-05 2.4297e-05 2.3705414e-05 2.4928024e-05 2.5484482e-05 2.6675158e-05 2.6948943e-05
2.5729702e-05 2.6169624e-05 2.5692987e-05 2.452596e-05 2.2799602e-05 2.2199949e-05 2.2064027e-05 2.2068032e-05
2.2003798e-05 2.199351e-05 2.1993788e-05 2.1994176e-05 2.199386e-05 2.1993843e-05 2.1993963e-05 2.1988093e-05
2.193392e-05 2.4373623e-05 2.52257e-05 2.6188307e-05 2.67667e-05 2.9399174e-05 3.0210029e-05 2.9742923e-05
3.3254946e-05 4.1043888e-05 4.6809284e-05 5.2296673e-05 4.9291328e-05 4.363204e-05 3.7110938e-05 3.336751e-05
2.9350984e-05 2.666775e-05 2.3868248e-05 2.268707e-05 2.202345e-05 2.1982294e-05 2.1993972e-05 2.1993777e-05
2.1993928e-05 2.1994243e-05 2.1988488e-05 2.197908e-05 2.3206638e-05 2.8313008e-05 2.971263e-05 3.441e-05
3.9254144e-05 4.6890305e-05 5.162357e-05 6.295186e-05 7.5748736e-05 8.7623775e-05 0.000106107706 0.0001113361
0.0001080933 9.346255e-05 8.01459e-05 7.075588e-05 5.8734546e-05 4.1263287e-05 2.9736917e-05 2.5117857e-05
2.3252167e-05 2.2463462e-05 2.2021168e-05 2.1994234e-05 2.1994358e-05 2.1993921e-05 2.1991427e-05 2.1933616e-05
2.4346327e-05 3.3789598e-05 4.018029e-05 5.037233e-05 6.386532e-05 7.6047225e-05 9.4299394e-05 0.0001280332
0.00016064614 0.00019885981 0.00021982318 0.00022168772 0.00021612662 0.00019338526 0.00016316977 0.00013149522
9.787878e-05 6.664396e-05 4.3086442e-05 3.0614534e-05 2.4670037e-05 2.2428003e-05 2.2041548e-05 2.1992166e-05
2.1994085e-05 2.1993785e-05 2.2021279e-05 2.2376627e-05 2.7286971e-05 3.450478e-05 4.9174338e-05 6.0614788e-05
7.9208214e-05 0.000113833965 0.00015337863 0.0002102787 0.000256559 0.00028009032 0.00031231323 0.00033335373
0.00032893344 0.0002853795 0.00023563484 0.00017621655 0.00013183955 8.937476e-05 6.068602e-05 3.641236e-05
2.58358e-05 2.273108e-05 2.1981246e-05 2.2000284e-05 2.1994261e-05 2.1994198e-05 2.2046968e-05 2.301299e-05
3.0818584e-05 4.2638938e-05 5.132102e-05 7.132002e-05 0.0001122598 0.00014385139 0.00020101169 0.00025706209
0.0003080012 0.00034678975 0.0003669344 0.00035032094 0.00033378528 0.00031014963 0.00027532468 0.00022500184
0.00015382232 0.00011235791 8.328913e-05 5.4298307e-05 2.9042098e-05 2.4091214e-05 2.2211101e-05 2.2007347e-05
2.1969396e-05 2.1996158e-05 2.2183565e-05 2.3925937e-05 3.2385135e-05 4.1768453e-05 6.1608094e-05 0.000104238454
0.00014521356 0.0001868673 0.0002452025 0.000302394 0.00032428926 0.0003683855 0.0003488463 0.00031941972
0.00030440287 0.00031390195 0.0002825618 0.0002455802 0.0001902152 0.00013310002 9.47251e-05 6.1314655e-05
3.254965e-05 2.3090424e-05 2.2061642e-05 2.2006963e-05 2.1993941e-05 2.1992411e-05 2.2145316e-05 2.3777096e-05

exp_avg f4 [28]
00000000: d47e bfba f71d 9aba 5320 89ba 75c4 a4ba
00000010: a3f8 82ba 2d7b 6b3b 41e0 96ba e57b 453b
00000020: a102 f6b6 4e31 b5b8 6b20 8639 18f3 83b9
00000030: 9d7f 033b f3c0 90b9 f9d3 9dbb ac89 d1b8
00000040: d80c 643a 9efe 383b 9c7e 50bb 0024 a13b
00000050: 1296 8e39 edde 9eb8 47c9 ee39 181c 053b
00000060: ec85 b03a 4a8a 013a 4707 0abb 7b3f 29b6
-0.0014609941 -0.0011758198 -0.0010461904 -0.0012570756 -0.0009992312 0.0035931573 -0.0011510925 0.0030133661
-7.3316774e-06 -8.639936e-05 0.00025582625 -0.00025167386 0.0020065077 -0.0002760958 -0.004816529 -9.99154e-05
0.00086994236 0.0028227936 -0.0031813746 0.0049176216 0.00027196162 -7.57555e-05 0.0004554486 0.0020310935
0.0013467646 0.0004941566 -0.0021061467 -2.5219913e-06

exp_avg_sq f4 [28]
00000000: c025 0039 c091 9838 98cf ff38 482e 8638
00000010: e50a 3137 552b 9538 f22a bf38 7a1a ad38
00000020: 1c74 2034 4087 be38 a998 9638 beb6 da38
00000030: 6409 a438 5c45 bc37 795a 2439 66ac 8538
00000040: 6902 e538 0198 d138 1a24 c938 2974 4539
00000050: 302a b738 63d6 7735 a725 e338 9a84 b638
00000060: dc56 b838 6c77 9038 2b6e 7b38 0ebd 4833
0.00012221094 7.275073e-05 0.00012198015 6.3982385e-05 1.0552559e-05 7.112945e-05 9.115589e-05 8.2542145e-05
1.4943402e-07 9.085098e-05 7.1809925e-05 0.000104290884 7.8218785e-05 2.2443644e-05 0.00015673962 6.374046e-05
0.0001092002 9.9942095e-05 9.591151e-05 0.00018830657 8.733978e-05 9.2326644e-07 0.00010831217 8.703135e-05
8.7899825e-05 6.888699e-05 5.9945665e-05 4.6738073e-08

exp_avg f4 [10, 28]
00000000: af73 863d 326c 5c39 952b 193d 81bc dc39
00000010: f14a 54ba 3d3b e43c a1ca e23c a2ed 913d
00000020: 6391 e1b5 0477 853b d56c 123d 63eb 933d
00000030: a425 413d 582b 063c 4e20 d13c 8257 dd3b
00000040: f87f 4cbc af6d 483d 2b9c 823c e79c 6a3d
00000050: ce1d 193d f741 2535 28c5 3d3b 753b 333d
00000060: f3c7 1d3c ddf5 3a3a 061c c33c ffc4 6db6
00000070: 030a e3b7 d507 e8b6 f16f 0ab7 a29e 07b7
00000080: 451c 2bb6 b8cf 1eb7 f96b a2b6 1e3f 20b6
00000090: abfd 1a87 393a 46b3 f759 2cb6 0e79 d5b6
000000a0: ad87 fe35 0af2 efb6 280b 27b7 b841 66b7
000000b0: 3f1b 97b7 4127 efb7 676a edb5 c99c f2b6
000000c0: 5c8f ecb7 24fb caac d599 3bb7 e494 5638
000000d0: a6ef 81b7 65d6 b62f 168a 4c37 057e 5083
000000e0: f94e 863c 8897 343b 63d0 9c3c f6b0 a03c
000000f0: eea8 fd3b c619 ad3c fc74 1f3d a3f7 0d3c
00000100: 71f9 4bb7 9176 b93b 5cff 3a3c 6a5a 4d3d
00000110: 538e 473c 698e 253c add3 503d e213 1f3d
00000120: 76de 613d 7353 ee3c 6585 223c 7d01 0a3c
00000130: 242e bd3c 1448 0e3a 245d f03c a6db e63c
00000140: 5723 b43c c9df 8eb9 f81e f53c 1b09 0437
00000150: 8315 8b3b c18a 5fbc a800 cebc 0d6e 35bc
00000160: 87d6 f7bc 87c6 02bc fdf2 fdbc f58a b739
00000170: 3da9 23b6 14d7 0d3b 0f8d 9bbc 3f4e 90bd
00000180: ae46 10bd ed6e 643c ba9c 53bc bb38 18bd
00000190: 6390 fdbc fc1e ecbb b7be 76bb 3e70 5b3b
000001a0: 209f 64bd 4761 66b7 efa6 64bd 992e babc
000001b0: a251 13bd 2b86 593b c61a 0abc 3e89 1535
000001c0: 1eb5 f6ba 1887 28bb a190 d8bc b961 0b3c
000001d0: 34f5 c3ba e4df 57bc 7766 75bd d4f5 99b7
000001e0: 8277 b5b7 b886 243b 1594 1f3c 80d5 8ebb
000001f0: 0acc 73bb 7a98 a5bb 7e95 c4bc d422 dbbc
00000200: e5a6 27bd d683 353c e696 e6bb de8f c13b
00000210: 3acb a5bc dc8f 0837 81eb cabb 3579 f1bc
00000220: 881d b6bc 1c9f 233a f5fb 60bb 2672 d736
00000230: df92 5b3d e92f f93b 77f1 7e3d 7ebd 9d3c
00000240: 7165 69ba 1412 bd3c e608 0a3d 75fc 693c
00000250: 8913 dc36 9897 9b3c aa3f 4b3d b311 cc3d
00000260: 34c3 243d 6435 9e3a 8072 903d 6209 a63c
00000270: 9968 d23c fc79 ee3c 5777 f83c b56e 4b3d
00000280: ddef 4c3d 5c75 0438 66d1 fc3c d34d df3b
00000290: 37d8 8e3c 0b38 493c aff6 ca3c 4629 b8b5
000002a0: 8472 9cbd 9852 83bb 23c7 78bc bdf6 993b
000002b0: ab39 493b 0ce9 cabc bd59 0c3b c28e 72bd
000002c0: 5e8e 82b4 a9f0 243b 164c 9ebc 21b3 3dbd
000002d0: 509d 50bc b935 0d3a 95fd 8fbc e3e6 ddbc
000002e0: 91c1 7cbc c24a a2bc 4da0 f5bc 92fa 2ebd
000002f0: 22c4 84ba d179 1638 36b1 44bb e5d5 9fbd
00000300: 7e23 4bbb b83e 363c 86d5 dfbc b849 5735
00000310: 81c9 28bc 983e c43b 3c24 453b 0573 53bb
00000320: e3f8 9d3a 107f 25bb fc52 afbb 83c8 53bb
00000330: 6f33 4638 3953 5dbc cdd4 17bb 7e8c 6c3c
00000340: b483 873b d039 21bc 39ca 14bc 37c5 2a3b
00000350: dbfd 53bb 65a2 32bb 75d2 f4ba ebf2 53bc
00000360: b277 fe3b 54cd 8fb8 34a2 fcbb 9a45 1e3b
00000370: 6d72 14bc 30f9 d83b 4364 8c3a 4eb1 9035
00000380: a2c0 fb37 478d adb7 9b93 07b8 f7fa 7ab6
00000390: 5dd1 03b5 9779 81b6 113e a337 bf1c c0b6
000003a0: 7dce 8db4 5671 4eb7 d1a7 9337 1cda d0b5
000003b0: 670b 88b7 d7a9 8cb0 7950 55b7 af92 13b7
000003c0: 3b7e 9fb7 2452 20b7 bb16 8836 b3ed 0fb7
000003d0: 6b7e f9b6 f486 6934 9d9c 89ae c250 bcb7
000003e0: 07e0 01b8 fe4a e936 d942 9db7 7b27 0eae
000003f0: 5827 a43b 060d 00bc e41f 193c 716e f0bb
0.06565034 0.00021021141 0.03739508 0.00042102116 -0.00080983253 0.027860278 0.027684512 0.07125403
-1.680612e-06 0.0040730257 0.03574832 0.07222631 0.047155038 0.008189045 0.0255281 0.0067548165
-0.012481682 0.048932727 0.015943607 0.05727854 0.03738194 6.156328e-07 0.0028956626 0.043757875
0.009630191 0.00071319734 0.023817074 -3.5430419e-06 -2.706517e-05 -6.9150506e-06 -8.251504e-06 -8.083562e-06
-2.549744e-06 -9.465897e-06 -4.840546e-06 -2.3878597e-06 -1.1660219e-34 -4.615342e-08 -2.5682364e-06 -6.3619873e-06
1.8963962e-06 -7.150932e-06 -9.956573e-06 -1.372437e-05 -1.801329e-05 -2.85093e-05 -1.7688843e-06 -7.230414e-06
-2.820015e-05 -5.7690675e-12 -1.1181885e-05 5.116024e-05 -1.5489593e-05 3.3257944e-10 1.2191498e-05 -6.127037e-37
0.016395079 0.002755614 0.019142335 0.019615632 0.0077410853 0.021130454 0.038929924 0.008664998
-1.21578205e-05 0.005659886 0.0114134215 0.050135054 0.012179929 0.010104754 0.05098312 0.03883732
0.055143796 0.029092526 0.009919499 0.008423206 0.02309329 0.00054276106 0.029341288 0.028180908
0.021989508 -0.00027251084 0.029921994 7.869933e-06 0.0042445078 -0.013643921 -0.025146797 -0.011073601
-0.030253662 -0.007981903 -0.030999655 0.0003500801 -2.4387402e-06 0.002164309 -0.01898816 -0.07046174
-0.035223655 0.013942462 -0.0129157845 -0.037163477 -0.030952638 -0.007205842 -0.0037650296 0.003348365
-0.055815816 -1.3731717e-05 -0.055823263 -0.022727298 -0.035966523 0.0033191543 -0.008429235 5.570654e-07
-0.0018822288 -0.0025715288 -0.026436152 0.008507186 -0.0014950396 -0.013175938 -0.05991217 -1.8353494e-05
-2.1632532e-05 0.0025104713 0.009739895 -0.0043589473 -0.0037200474 -0.005053577 -0.023997065 -0.026750006
-0.040930647 0.011078795 -0.0070370315 0.005907043 -0.020238508 8.139727e-06 -0.006192625 -0.029476741
-0.022230878 0.00062416657 -0.0034329866 6.420788e-06 0.053606864 0.0076045883 0.062241998 0.019255396
-0.00089033606 0.02307991 0.033699892 0.014281382 6.558785e-06 0.018993184 0.04962126 0.09964313
0.040225223 0.0012070355 0.07053089 0.020268146 0.025684642 0.029110901 0.030330343 0.049666125
0.05003344 3.1580552e-05 0.030861568 0.0068146973 0.017437084 0.012281428 0.024775831 -1.372108e-06
-0.076390296 -0.0040076487 -0.015184197 0.004698603 0.0030704539 -0.024769329 0.0021415793 -0.059218176
-2.4317973e-07 0.0025167859 -0.01932339 -0.04631341 -0.012732819 0.00053867284 -0.017576972 -0.027087634
-0.015427009 -0.019811038 -0.029983664 -0.04271943 -0.0010129253 3.5876237e-05 -0.0030012853 -0.07804469
-0.0030996497 0.011123352 -0.027323496 8.0201016e-07 -0.0103019485 0.005988907 0.0030081412 -0.0032264602
0.0012052323 -0.0025252737 -0.0053504687 -0.003231556 4.725478e-05 -0.013508611 -0.002316761 0.014437793
0.0041355733 -0.009840444 -0.009081417 0.002605749 -0.0032347355 -0.002725744 -0.0018678444 -0.012936334
0.0077657336 -6.857017e-05 -0.007709766 0.0024150372 -0.009060484 0.0066215023 0.0010711033 1.0780439e-06
3.0011233e-05 -2.0688994e-05 -3.2323976e-05 -3.7398984e-06 -4.9105967e-07 -3.8586545e-06 1.9460016e-05 -5.7253924e-06
-2.6413537e-07 -1.2304945e-05 1.7601911e-05 -1.5560686e-06 -1.6217773e-05 -1.0234612e-09 -1.2714526e-05 -8.796035e-06
-1.9013058e-05 -9.555868e-06 4.055762e-06 -8.578808e-06 -7.4354953e-06 2.1748912e-07 -6.257859e-11 -2.2448952e-05
-3.096464e-05 6.9526714e-06 -1.8746987e-05 -3.2322128e-11 0.005009573 -0.007815605 0.009345982 -0.0073373844

exp_avg_sq f4 [10, 28]
00000000: bc6e 393c f73d 853a 6ee3 bb3b 3466 f53a
00000010: 8715 203a 940a dc3b 3865 a53b 8eed 023c
00000020: a49e a232 3cf8 b23a f4ff 303c bf2c 593c
00000030: 1257 103c c683 3f3a 3e6d 7a3b c2d2 373b
00000040: 4a7e 963b 1624 bb3b 3d34 e23a ab61 1d3c
00000050: 8183 4f3c 4831 8735 abdc 553b ab3d 573c
00000060: 2e54 c83b 557e a439 ef0d c63a 6485 c634
00000070: fc60 c934 a03b 3835 08d6 db33 a357 4832
00000080: 70a4 2a32 a0c5 0733 04b3 d932 b3c2 9f31
00000090: 8afa bf2e eee1 2c30 ad55 8134 073f 8335
000000a0: b337 4933 cfee f02f 4dd7 b733 5adb d935
000000b0: 17e2 5933 c4d0 6634 208f d233 0688 db32
000000c0: 9b5d 0f34 8d87 2030 4fda ae32 22bc cb35
000000d0: f406 8733 d0a1 4b31 934f 9b34 ceed 972e
000000e0: b6ab c33b 8ea2 fe3b d02c ce3c 4f1a 013d
000000f0: 953f 063b 2bfb 873c 94aa ac3c c956 a03b
00000100: b80e 7733 6359 523b 45e7 783c 4699 3c3d
00000110: 6266 983c da6f 5c3a a2c7 523c dd74 dc3c
00000120: 9f74 e33c 9fa8 3c3c 73be 223b 243a 2a3c
00000130: cc30 163c 760e 7f38 00e2 633d d113 c53c
00000140: 1425 093c f827 f23a 8c98 dc3b ffef 5133
00000150: 9fb1 6b3b 26e7 093c 7068 373d b909 2f3c
00000160: f97a 4f3b 8e94 b73b 959f 463d 1a1e 953b
00000170: 685f 8335 b5d8 203b 1ed3 4c3c 4dad bc3d
00000180: 9601 493d b6b7 0c3c d3fa 853c 0660 a23c
00000190: 3c1e f03b e2e8 ff3b 07cb 9b3b b963 f63b
000001a0: d732 463d 0c0e a138 55a8 493d a2c5 1b3c
000001b0: c435 423c 10c1 173b 0c1d 173b 90e2 9632
000001c0: 7b32 953c b4da b83b 6f44 8c3c 3aee 7c3b
000001d0: 6ca4 3e3a 932f 1f3c a125 733d 92fc 883b
000001e0: 5f8d 5436 7e36 a03a 1398 173b 14d4 193c
000001f0: c7b9 983b ce0b fb3a c8f2 673d 34d4 7d3b
00000200: 9248 0b3d 7f65 c53b 354b 423c 335b 283b
00000210: 0f08 ec3b fb64 c837 907d e53a 6adb e53b
00000220: 598d 443b bf7b 713c 42a7 193c 90c4 5933
00000230: 35be 543c 8202 2a3b 84b8 413d dc7b df3b
00000240: bd3a 0a3b 4356 123c 9b9e ef3c 03ac 7d3c
00000250: 5f02 3e36 83a4 f13a 2e8f 363c 4514 c63d
00000260: 1946 0c3d 69f2 333c 7b40 e13c 5ea6 5d3c
00000270: 2b26 933b 976e 9c3c 5cf4 333c 2031 b13c
00000280: 4e39 123d 1e37 7937 0106 803c 89c6 223c
00000290: beb1 a93b bd4b e63a d97f f93b 10c0 e232
000002a0: c533 893c 8fd7 463b 8d9a 393c e178 263c
000002b0: 0113 943a e910 ca3b 0ebe 493b 51e2 ce3b
000002c0: 48ed 2034 9bf3 ff39 f5fd cc3b f2e6 153d
000002d0: 0f2e d23a 7038 363a 6a1a 873c 9ca4 7a3c
000002e0: d2a0 8d3c 7682 073c 23a4 153c 3518 9b3b
000002f0: a63d 793b e017 2038 1679 af3b 19c5 ae3c
00000300: 4a4c d93a 286f e63a 4f0e 2b3c 8158 c232
00000310: c940 db3b 3de1 823c 8a5b dc3b 9069 f53b
00000320: 9887 0b3a 8fec 133b 8641 863d 3735 583b
00000330: a1b5 9736 1dd3 523c c24c ad3a 4f45 e13b
00000340: 7fdf dd3c 8873 1e3a 8add b13c 0be3 283b
00000350: bb2e 9b3c 99c1 833b dd26 5e3b c59d 823b
00000360: 9f26 793c 0eb6 8e38 081b 593c 3510 b73a
00000370: d5e8 683b 3f52 5c3c 60a6 333b 5d69 0c33
00000380: 6dce 8335 0cac e033 a367 9f34 cfb1 0c32
00000390: e95c 3932 fe18 5634 d7b3 2b35 0e8d 2234
000003a0: 05da 1a2f 80ab fc32 4629 a734 dbaa 5234
000003b0: 9955 9534 551c 1a30 7b35 8534 51d5 3734
000003c0: f5ca c733 9be4 a934 ab8c 1c34 288b 3c34
000003d0: 62c6 1235 9f7d 0432 92c8 af30 002d e534
000003e0: 2178 b334 4b17 d833 d393 6b33 8c2f a630
000003f0: b4be 543c e576 6e3c 42e9 893c e443 a53b
0.011317905 0.0010165562 0.005733899 0.0018722476 0.00061067234 0.006715128 0.0050474666 0.007991208
1.8931424e-08 0.0013654302 0.0108032115 0.013255297 0.008809822 0.00073057075 0.0038212086 0.0028049205
0.0045926915 0.005711089 0.0017258 0.009605805 0.01266563 1.0072627e-06 0.003263275 0.013137261
0.0061135506 0.00031374642 0.0015110354 3.6977428e-07 3.7509733e-07 6.863211e-07 1.0236914e-07 1.16614585e-08
9.932691e-09 3.1611876e-08 2.5343532e-08 4.649644e-09 8.730179e-11 6.28943e-10 2.409046e-07 9.778604e-07
4.6849618e-08 4.382543e-10 8.5607645e-08 1.62316e-06 5.0729877e-08 2.1496368e-07 9.804921e-08 2.5556812e-08
1.3351966e-07 5.840029e-10 2.0355541e-08 1.5179432e-06 6.287692e-08 2.9632368e-09 2.8928898e-07 6.9089276e-11
0.0059713973 0.007770843 0.025167853 0.03151923 0.0020484675 0.016599258 0.021077432 0.004893158
5.7522556e-08 0.0032096736 0.015191858 0.04604461 0.018603507 0.0008409001 0.012864979 0.026911194
0.02776557 0.011514812 0.0024832755 0.010389838 0.0091669075 6.0810205e-05 0.055635452 0.0240573
0.0083706565 0.0018475046 0.006732052 4.887988e-08 0.0035964025 0.0084169265 0.044777334 0.01068347
0.003165899 0.005602426 0.048492033 0.0045507075 9.788027e-07 0.002454323 0.012501506 0.09212742
0.049073778 0.008588722 0.016354954 0.019821178 0.007327823 0.007809744 0.0047544274 0.007519212
0.04838833 7.679695e-05 0.0492328 0.009507569 0.011853639 0.0023155846 0.0023058085 1.7565327e-08
0.018212548 0.005641306 0.017122475 0.0038594143 0.00072724256 0.009715932 0.059362058 0.0041804994
3.167275e-06 0.0012223271 0.0023131415 0.009388942 0.0046608183 0.0019153298 0.05662802 0.003873122
0.034004755 0.006024062 0.011858751 0.0025689125 0.007203109 2.388888e-05 0.0017508734 0.0070146816
0.0029991476 0.014738976 0.009378256 5.0703022e-08 0.012984802 0.0025941436 0.04729511 0.006820185
0.002109214 0.008931699 0.029250434 0.015482905 2.8313586e-06 0.0018435869 0.011142535 0.09671835
0.034246538 0.010983088 0.027496567 0.013528435 0.004490634 0.019095702 0.010983553 0.02162987
0.03569918 1.48543895e-05 0.015627863 0.00993503 0.005178659 0.0017570179 0.0076141176 2.6397203e-08
0.016748318 0.0030340885 0.011328352 0.010160656 0.0011297168 0.0061665666 0.0030783447 0.0063136
1.4987484e-07 0.0004881889 0.00625586 0.0365972 0.0016035455 0.0006951159 0.016492087 0.015298035
0.0172886 0.00827085 0.0091333715 0.0047331103 0.003803113 3.8169208e-05 0.0053550107 0.021334218
0.0016578522 0.0017580735 0.010440423 2.262482e-08 0.0066910726 0.015976543 0.0067247795 0.0074893907
0.0005322634 0.002257142 0.06555466 0.0032990703 4.521295e-06 0.012867716 0.0013221728 0.0068747173
0.02708411 0.0006044437 0.021712083 0.0025770094 0.018943181 0.0040208814 0.0033897676 0.0039860927
0.015206962 6.804998e-05 0.013251074 0.0013966622 0.003553917 0.013447343 0.00274124 3.2692117e-08
9.820338e-07 1.0462108e-07 2.9691464e-07 8.1895015e-09 1.0789543e-08 1.9939395e-07 6.3964166e-07 1.5138741e-07
1.4083675e-10 2.941465e-08 3.1136204e-07 1.9619931e-07 2.7815693e-07 5.6065136e-10 2.4812093e-07 1.7120807e-07
9.303577e-08 3.1645035e-07 1.4579807e-07 1.7559489e-07 5.4677923e-07 7.711974e-09 1.2789931e-09 4.2687316e-07
3.3428753e-07 1.0062521e-07 5.4849647e-08 1.2091603e-09 0.01298492 0.014554714 0.016834859 0.0050434936

exp_avg f4 [10]
00000000: 631d d93b 7a22 6637 7809 d53b ae1f c5bb
00000010: e81f 9fbb 118a ff3b 1b62 86bb 603e 5139
00000020: 7e09 06b8 c51e 273a
0.0066258176 1.37170955e-05 0.006501373 -0.0060157394 -0.0048560984 0.007798441 -0.0041010506 0.0001995503
-3.195693e-05 0.00063751295

exp_avg_sq f4 [10]
00000000: cd3b 9e39 8476 9d34 6204 373a 5eff 6c3a
00000010: 7486 3a3a a0fb 793a d491 fb39 8619 183a
00000020: a792 6534 fb31 873a
0.00030180663 2.932976e-07 0.0006981549 0.0009040738 0.0007115372 0.0009536091 0.000479831 0.0005802143
2.1380639e-07 0.0010314578

model.net.1.weight f4 [28, 784]
00000000: 83d3 cabb 42a7 f0bc 5489 cdb7 183d ebbc
00000010: 21ed babb 5a80 98bc 1630 9938 c7c8 5c3c
00000020: ce02 a8bc 7036 273b f5ea 40bb 8c8c 553c
00000030: 4c0f 463c 9527 b7bb e7e7 893c c742 02bb
00000040: d7c6 f63b 7912 0abd 0bbe ebbc 45f6 8f3c
00000050: e7cf 01bd 5d25 8ebb 87cd 5e3c 0ac2 49bc
00000060: b550 b2bb 7d76 033a 6123 06bd 72f5 293c
00000070: 87db 85bc 39f4 d2bb 67a9 e03b ceff ca3c
00000080: 6c5a 2eba 4615 ebbc 9340 083c ac05 e4bc
00000090: 77b8 393c 4ede 0ebb 3d62 bf3c 5168 38bb
000000a0: eedd 1fbd 55bd 8d3c b4d0 d9bc e801 933c
000000b0: 189a 163c cdd9 d9bc 49d0 303c 0f9b bf3c
000000c0: e8a1 9f3c 13f2 db3b e23c a73c 7689 a83c
000000d0: 248b 233c 8b3c c9bc 6104 313c e771 11bd
000000e0: 72e8 993c 88f1 c8bb 6644 8b3c ea98 a4bc
000000f0: 22ff 0ebc e267 a43c 048f d5bb 17a5 263c
00000100: a0ee 9c3b e441 013d 40f7 c03b 833e 10bb
00000110: 0184 8b3c 031f 923b 4749 cdbc 7e14 02bc
00000120: e86a dcbb 998e f73c a584 5abc d057 3c3c
00000130: 201a 8f3b bf95 803a 7a08 11bb eae0 b1bb
00000140: 7907 9abc 7d08 c4bb 0fe5 843c 9c3e c8bc
00000150: 0266 c7ba cc75 b938 042f 13bc 5b45 6abc
00000160: 8f2e 07bd 4ebd 05bd f2b9 973c c106 953c
00000170: 8144 29bd 0e6d 96bc 66c9 8dbc 6b85 2b3b
00000180: d05e 23bd b87e 5fbd fde6 cf3b d5b6 e9bb
00000190: 4e18 b4bc d8f0 febc 1c51 f13c 21bd 543d
000001a0: 6ea6 1f3c 36d2 ed3c bd9f 223d 2f6a 303c
000001b0: c19a b7bc 8310 eabb bcd9 46bc 2f0a 793c
000001c0: 5380 f4bb 0879 8bbc daee dd3a cb46 22bc
000001d0: 28bf b33b 9931 13bd 45ca 2ebd 696c 43bd
000001e0: e71c 31bd 44d9 4bbc 2927 93bc 38be 61bc
000001f0: 0de8 cdbc 4fab 81bc 8248 f7bb 2a4d d8bc
00000200: df52 9c3b 9fdf e9bc 02a7 81bc 0c96 e43c
00000210: 43a2 ae3d 4bd5 4a3d a8d5 c63d 8599 4f3d
00000220: b010 853c 9883 8bbb d097 15bd ae83 dcbc
00000230: 959c 01bd f861 dabb 04d1 01bd a724 623c
00000240: a42b 3bbc d439 4cbd 365c 6ebc fa7f a4bc
00000250: e146 113c 4cd7 7c3c e45e e7b9 c939 9f3b
00000260: 888a 153c ecd2 cdbc 2aa8 4b3d 228b a0bb
00000270: bfce 193d 7469 023d 9d45 fdba e541 343d
00000280: 0db4 f63c 5f4c a03d 080f 953d dcbd 9d3d
00000290: e3f5 ca3c b8d2 9c3a 1419 14bd 1291 a33c
000002a0: e27a a5bc 66dd 893c 0055 2d3a 0f59 a23b
000002b0: 3295 0dbc bdeb d4bc b291 84ba d5eb e63c
000002c0: 69b5 b13c d553 543b 08f1 e2bc d329 82bd
000002d0: 1968 53bd fcb5 88bd 18cb b7bd f6fa 9dbd
000002e0: 8a03 9bbd 77ae 8fbc 9ae3 94bc 95d9 c53c
000002f0: cb1e 43bc 85fe 433c 90fd c73d 7b68 ac3d
00000300: c2fa 593d 6424 33bd 4732 bd3b 4609 6cbc
00000310: ea80 e2bc 462b c43b d047 0bbd 71b7 f1bc
00000320: 7745 023c 5c7a 5ebc af3d 9c3d c872 253d
00000330: af59 423c 32e9 ac3c 75aa 033d f1a5 3abd
00000340: aaab 96bd 3e96 b0bd 3369 fbbd f392 ffbd
00000350: ff07 cdbd 1e26 28bd 7d3d 1e3c d3a3 56bc
00000360: 7644 60bd 998f 233c a82b 013d 86ee 483d
00000370: ffec 0e3d d0af 82ba 92ca 1fbd 25d3 cfbb
00000380: 715a 33bc 144a d3bc 5f29 afbb c9eb 623a
00000390: 1974 a2bc 9f36 203d 1ad4 b33b e758 423c
000003a0: d2ac fbbb fa00 9d3c 5a03 233d 4e19 be3c
000003b0: 30e0 01bd 3abb e0bd 8b79 c2bd 20d1 ebbd
000003c0: 22e9 a1bd 40b9 3cbd 0fce e63a 0cd4 68bd
000003d0: e29f 2fbc f9d7 aabc c4d8 f2b9 0e86 453d
000003e0: 71c6 913c 6c99 61bd a175 72bc bd51 b8bc
000003f0: aad3 1cbc 3e47 53ba e205 8bbc f1d8 103d
-0.006189765 -0.02937663 -2.4501853e-05 -0.028715655 -0.0057045375 -0.01861589 7.304565e-05 0.013475603
-0.02050915 0.0025514625 -0.002943692 0.013033997 0.012088608 -0.0055894353 0.016834212 -0.0019876228
0.007531028 -0.033709023 -0.028777143 0.017573485 -0.03169241 -0.00433795 0.013598806 -0.012314329
-0.00544175 0.00050149095 -0.032748584 0.01037346 -0.01634003 -0.006437805 0.006856132 0.02478018
-0.0006651047 -0.028696667 0.008316177 -0.027834736 0.011335484 -0.0021799984 0.023362273 -0.002813835
-0.039030008 0.017302195 -0.026588775 0.017945245 0.009192012 -0.026593113 0.010791847 0.023389367
0.019486383 0.006712207 0.020414773 0.020573359 0.009981904 -0.024565002 0.010804267 -0.035509016
0.018787596 -0.0061323084 0.017000388 -0.020092446 -0.008727821 0.020069066 -0.006517293 0.010171196
0.0047891885 0.03155698 0.0058888495 -0.0022009916 0.017030718 0.0044592633 -0.025059355 -0.007939456
-0.0067266114 0.030219363 -0.013337289 0.0114955455 0.004367128 0.0009810253 -0.0022130297 -0.005428423
-0.018802391 -0.005982457 0.016222505 -0.024443917 -0.0015212896 8.843429e-05 -0.008983377 -0.014298762
-0.033003386 -0.03265124 0.018521283 0.018191697 -0.041325096 -0.018362548 -0.017307948 0.0026172053
-0.039885342 -0.054564208 0.0063446746 -0.007132391 -0.021984246 -0.031120703 0.029457621 0.05193818
0.00974427 0.0290309 0.03970312 0.010767504 -0.02241266 -0.0071430816 -0.012136873 0.015200182
-0.0074615865 -0.017025486 0.0016932145 -0.009904574 0.005485434 -0.035935972 -0.042673368 -0.04771081
-0.043240454 -0.012441937 -0.017963009 -0.013778262 -0.025135064 -0.015828757 -0.0075464854 -0.026403982
0.004770621 -0.028549014 -0.015826706 0.02790358 0.08527043 0.04951982 0.097087204 0.050683517
0.016243309 -0.0042576306 -0.036521733 -0.026918259 -0.03164347 -0.006664511 -0.031693473 0.013802684
-0.011423979 -0.049859837 -0.014548352 -0.020080555 0.0088669965 0.01543219 -0.00044130452 0.0048591834
0.009127267 -0.02512499 0.04972092 -0.0048993984 0.037550684 0.03183885 -0.0019323115 0.044008154
0.030115152 0.07827067 0.072782576 0.077022284 0.024775451 0.0011964655 -0.03615673 0.019966636
-0.020200197 0.016829204 0.0006612092 0.0049544643 -0.008641528 -0.025991315 -0.0010114221 0.028188625
0.021692948 0.00323986 -0.027702823 -0.063556336 -0.051612947 -0.06675336 -0.08974284 -0.077138826
-0.075690344 -0.017539246 -0.018174935 0.024151603 -0.011909197 0.011962538 0.0976516 0.084183656
0.053217657 -0.043735877 0.005773816 -0.014406508 -0.027649362 0.005986604 -0.034004033 -0.029506417
0.007951132 -0.013578977 0.07628953 0.040392667 0.011862203 0.02110729 0.032144982 -0.04556841
-0.07356961 -0.086224064 -0.122759245 -0.124792 -0.10011291 -0.041051976 0.009658215 -0.013100582
-0.05475279 0.009982967 0.031535774 0.0490556 0.034893986 -0.0009970609 -0.039011545 -0.006342309
-0.010946856 -0.02579216 -0.005345508 0.00086563505 -0.01983075 0.03911459 0.005487931 0.011862016
-0.007680514 0.019165505 0.03979812 0.023205426 -0.031707942 -0.10973211 -0.09495839 -0.11514497
-0.07905795 -0.046075106 0.0017609018 -0.05684285 -0.010719271 -0.020854937 -0.0004631934 0.048223548
0.01779482 -0.055077955 -0.014798553 -0.022499913 -0.009571949 -0.0008059627 -0.016970579 0.03536314

model.net.1.bias f4 [28]
00000000: d150 5cbb 8708 bcbc 376f e93c b79c 80bc
00000010: 39fd 59bc 6c5e da3c 81c7 673c 68c3 57bc
00000020: 883f 85bc 4634 e23c 8de2 3ebd 7468 643d
00000030: 2593 ad3c 6b53 b2ba 66e4 41bc b8c5 573d
00000040: 8e4d 1ebc f190 093d 0a11 173b 8f87 b63c
00000050: dcb5 653d 6ed6 cabc cb9b c3bc c8cd 183d
00000060: 3709 e3bc 0425 c9bc 7a0e 1b3c e7b6 a1bb
-0.0033617506 -0.022953285 0.028495414 -0.015699727 -0.013305002 0.026656352 0.0141466865 -0.013169147
-0.016265646 0.027612817 -0.046602774 0.055763677 0.021188328 -0.0013605183 -0.01183424 0.052678794
-0.009662045 0.033585493 0.0023050928 0.022281436 0.056081638 -0.024760451 -0.023877999 0.037305623
-0.027714355 -0.024553783 0.009463901 -0.0049351337

model.net.3.weight f4 [10, 28]
00000000: 0fc9 613e 738f 90bc 3260 a3bd 4b09 89be
00000010: 87c1 80bd 6a5e bf3d 0334 29be 9718 343e
00000020: 2fba 3fbb b062 3ebe 927c 353e 0685 d3bd
00000030: 3ca2 103d 5bdb 4bbd 10fb a0be a9d5 81be
00000040: d7e9 71bc 01b7 953b be5b 05bd 6a3c 793e
00000050: 24e2 6f3e 43a5 a03a ae7b 91be 2efd 7c3e
00000060: 144a 503e 5a6d 3fbe 3d3a 6ebe e66f e6bb
00000070: c35b 70bd 1795 69bc 515e 8cbc 3492 90bc
00000080: 05b0 c1bb 1e56 9cbc c49e 1abc 17b9 a1bb
00000090: 63ca ba8b effa 94b8 51ad 06bc 70c1 8ebc
000000a0: c5bb 2d3b 2c42 5abc 2a70 a4bc 8cf8 0dbd
000000b0: 24e1 1abd 5705 69bd f849 8bbb 8351 70bc
000000c0: 1a7a 6abd 2019 16b2 633b ccbc 9eec bb3d
000000d0: b197 06bd 4733 2235 8de6 b03c 7159 a988
000000e0: ebc5 1abe 00b5 993c 7309 a5bc 4145 013d
000000f0: 4d6d 973c 8dfc 083e 84de 593d 9159 4b3d
00000100: df88 c5bc abc9 143e 266a 86bd 2258 a4bd
00000110: e45d 263d d95e 3abe 411e 88be 9f3d 4d3e
00000120: 2c59 283e 6796 13bd fc90 98bb d9dc e13d
00000130: 5981 e0bd c98d 0a3e cfb1 d73d 4221 873e
00000140: 7e3a 1e3d e522 5cbe 739d c4bd 0c71 7c3c
00000150: d906 54be a48f b3bc 515e a13d d778 54be
00000160: 515b b03d b9e1 44be b7b4 113e 8cc5 65be
00000170: 65b5 08bb 5b19 563d 66ab 1dbe 4e19 183e
00000180: 88ec 2e3e f5c4 3c3e 0a29 3cbe 66d0 053e
00000190: d1cf 84be a1ec 7cbe dd4b eb3d c4ee 2dbe
000001a0: 5d72 843e 91ad 2bbd 6fd8 da3d 31d8 60bb
000001b0: 4171 693d 03d7 79be f208 69be bdd2 8c3a
000001c0: e420 613e 5ec8 d5bd 69b8 1c3e 1a8f 64be
000001d0: c5bb 983d e9e6 ab3d 097f e53d c69e f9bc
000001e0: 6bfe 2ebd 877b 98be aaa6 95be b3c4 5abe
000001f0: b32b 14be f8d5 9a3c 4a8c 753e bcbc 1ebe
00000200: 3324 f23d 8cf7 4fbe 51ca 8b3e 1ba3 21be
00000210: a606 1cbd bdf8 e3b9 182b a6be a16a 47bd
00000220: dc84 26be b870 b63d cc90 a5bb 330a 4e3c
00000230: dddc a43c 907f a3be 506b c03d 549b 76be
00000240: 02f5 54bd 78b8 3fbd ab58 a13c e036 323e
00000250: 1c3e 443c e072 793d 8c1e 9dbe 2241 383e
00000260: a511 ab3d b720 3a3e 3bb3 423c b733 9e3d
00000270: 4514 94be 1352 a93d 09d9 263e 7339 853e
00000280: 75ae f43c 0eb8 6c3d 3340 25be 932e f0bd
00000290: c746 27be cfee 11be 3a53 43bd 50a5 2ebb
000002a0: bc14 523e 8055 ee3d 9d32 2dbe 44a8 20bd
000002b0: 26e4 a73d d18e 57be abeb c5be 4a93 273d
000002c0: 3b34 1dba f8fa 81bb eb3b 71bd 7e0c b13d
000002d0: d2ba a1be ab53 52bd 53b8 043e 5bc2 383e
000002e0: 1402 ba3d 6f55 55bd f908 693e 8cfc 3bbe
000002f0: 11e6 c4bd 2d5f 5a3d da04 83be 6c9b 8a3e
00000300: b42b 07be 4f41 41bd 8b42 273e 6fa9 cb3a
00000310: 6a58 bb3d 4fa5 543e a5e4 3dbe fe38 da3b
00000320: 0c06 4dbc e8df 86be de01 3d3e d262 fb3c
00000330: 5ef9 be3d 6e4c b63e 1a2d 5fbe 1e7e c7be
00000340: c250 5f3e 855e 663d 013a bdbd ad3b aabd
00000350: df1a 473d 1669 37be 8ecd 1b3d 4e99 113d
00000360: b2a1 e23d e427 9cbc f860 243d 9e8e 17be
00000370: 02a3 67bd 912d f03d 74c7 f6bd eba3 093b
00000380: 8125 743d 0215 27bd 3a5e 83bd 2116 e8bb
00000390: f5a0 75ba d443 fabb 772b 1e3d 1e61 39bc
000003a0: 38fd 89b8 bf2c c5bc 1dcb 0e3d 0844 4abb
000003b0: 4b17 04bd e914 ceb5 aef9 cebc 1581 8ebc
000003c0: c862 19bd 4755 9bbc 32c8 023c 6f0a 8bbc
000003d0: 2a51 74bc db8e d739 961d e5b3 22aa 36bd
000003e0: 84c2 7bbd fe67 603c 2285 16bd 204a 6bb3
000003f0: b509 fabd 2017 b93d 52a3 52be 04b9 a9be
0.22049354 -0.017646527 -0.07977332 -0.26764902 -0.062869124 0.0934418 -0.16523747 0.17587505
-0.0029255261 -0.18592334 0.17723301 -0.103281066 0.03531097 -0.04976974 -0.31441545 -0.25358322
-0.014765224 0.004568935 -0.032558195 0.24339452 0.2342611 0.0012256283 -0.28414673 0.24705955
0.20340759 -0.18694058 -0.23264404 -0.0070323823 -0.05868126 -0.014256737 -0.017134817 -0.01764784
-0.0059108757 -0.019084033 -0.009437267 -0.0049353945 -7.194911e-32 -7.10393e-05 -0.008220033 -0.017426223
0.0026509624 -0.013321441 -0.020073015 -0.03466086 -0.037812367 -0.056889858 -0.004250761 -0.014667871
-0.05724535 -8.736862e-09 -0.024930662 0.091759905 -0.032859508 6.042432e-07 0.02159431 -1.0192345e-33
-0.15114562 0.018763065 -0.020146107 0.031560186 0.018484736 0.1337759 0.053190723 0.049645964
-0.024113117 0.14530055 -0.06563215 -0.080246225 0.040616885 -0.18200244 -0.26585582 0.20043038
0.16440266 -0.036032107 -0.0046559554 0.110284515 -0.10962171 0.13530649 0.10531961 0.2639256
0.03863 -0.21497686 -0.096003436 0.015407812 -0.20705737 -0.02191908 0.078793176 -0.20749222
0.08611167 -0.19226731 0.14229093 -0.2243864 -0.0020860073 0.052270275 -0.15397415 0.14853403
0.17082417 0.18434508 -0.1837503 0.13067779 -0.259398 -0.24699642 0.11489079 -0.16985613
0.25868502 -0.041913573 0.10685813 -0.0034308548 0.056992773 -0.24398427 -0.22757319 0.0010743957
0.21985203 -0.10438608 0.15304722 -0.22320214 0.07457689 0.08393652 0.11205871 -0.030471217
-0.0427231 -0.29781744 -0.29228717 -0.21364097 -0.14469795 0.018900856 0.23979297 -0.15501684
0.11823311 -0.20309275 0.27302793 -0.15784876 -0.038092278 -0.00043482138 -0.32454753 -0.048685674
-0.1626162 0.08908218 -0.0050526615 0.012575674 0.020124847 -0.3193326 0.09395468 -0.2408269
-0.05199147 -0.046806782 0.0196956 0.17403746 0.011977699 0.06090057 -0.30687368 0.17993596
0.08352975 0.18176542 0.011883552 0.077247076 -0.28921714 0.082676075 0.1629373 0.26020393
0.029868344 0.057792716 -0.16137771 -0.11727633 -0.16335593 -0.14251254 -0.047686793 -0.0026648827
0.20515722 0.116374016 -0.16913839 -0.03922297 0.08197813 -0.21050574 -0.38656363 0.04091195
-0.00059968577 -0.0039666854 -0.058895033 0.08644961 -0.31587845 -0.051349323 0.12960939 0.1804289
0.090824276 -0.05208343 0.22757329 -0.18358058 -0.09614194 0.053313423 -0.2558964 0.27071702
-0.13200265 -0.047181424 0.16333978 0.0015538166 0.09147723 0.20766185 -0.18544252 0.006659626
-0.012513649 -0.26342702 0.18457744 0.03068677 0.09324907 0.35605186 -0.21794549 -0.38963407
0.2180815 0.056242485 -0.09239579 -0.083121635 0.04860961 -0.17911181 0.03803783 0.035546593
0.11065997 -0.01906199 0.04013154 -0.14800498 -0.05655194 0.11727441 -0.120497614 0.0021002244
0.05960608 -0.04079152 -0.06414457 -0.007082716 -0.0009369993 -0.0076374803 0.03861567 -0.011314658
-6.579835e-05 -0.024069188 0.034861673 -0.0030863304 -0.032248776 -1.5354282e-06 -0.02526554 -0.017395535
-0.03744772 -0.018961562 0.007982301 -0.016972749 -0.014911929 0.0004111443 -1.0669025e-07 -0.044595845
-0.0614648 0.013696669 -0.03674806 -5.4782618e-08 -0.12208883 0.09037614 -0.20570114 -0.33148968

model.net.3.bias f4 [10]
00000000: 623e 0a3e 8e88 d83c cdb8 db3c 96a4 5a3d
00000010: 3784 9abd f9f4 f73d bcf1 0dbe d090 11be
00000020: ab9e 81bd c8d6 6abd
0.1350036 0.026432302 0.026821518 0.053379618 -0.07544749 0.12107272 -0.13861746 -0.14215398
-0.06329092 -0.057333738
